models/base_model.pth (torch, 95458 bytes, 24 tensors)

conv1.weight f4 [5, 3, 3, 3]
0	0xbe5de604	-0.21669775
1	0xbcdd848c	-0.027040742
2	0x3e08c291	0.13355471
3	0xbe4991d3	-0.19684534
4	0xbe94729b	-0.28993687
5	0x3d43df13	0.047820162
6	0xbe86a8fd	-0.26300803
7	0xbe260a5f	-0.16214894
8	0xbe040a65	-0.1289459
9	0xbe1580f8	-0.14599979
10	0xbde10a2f	-0.109882705
11	0x3d6dd9d9	0.058069084
12	0x3e9483ea	0.29006892
13	0x3d3b8873	0.045784425
14	0x3e320eb5	0.17388423
15	0x3d784a7e	0.060617916
16	0xbda4a5f2	-0.08039464
17	0xbda8109e	-0.082062945
18	0x3c43bb3d	0.011946497
19	0xbe598383	-0.21241574
20	0x3e04683d	0.12930389
21	0xbd17575f	-0.036948558
22	0xbe1642a8	-0.14673865
23	0x3deeed92	0.11666407
24	0x3e38d983	0.18051724
25	0xbe525e2c	-0.20543736
26	0xbe494fb3	-0.19659309
27	0x3cc76463	0.02433986
28	0xbda55eff	-0.0807476
29	0xbe0d55a5	-0.13802202
30	0xbebb6676	-0.3660161
31	0xbe91e076	-0.28491563
32	0xbded7d67	-0.11596184
33	0x3c8b48ab	0.017002424
34	0x3da3c7e0	0.079971075
35	0xbe33ab3a	-0.17545786
36	0x3d7dcffe	0.061965935
37	0xbd064205	-0.032777805
38	0x3e173797	0.147673
39	0xbe0f713a	-0.14008036
40	0x3dd287e3	0.102798246
41	0xbe81c250	-0.2534356
42	0x3e4f2452	0.20228699
43	0xbd058f84	-0.03260757
44	0x3d6f8a53	0.058481526
45	0x3e71fabc	0.23630804
46	0x3e4fef65	0.20306166
47	0x3beb9d76	0.0071904017
48	0xbd5fed40	-0.05466962
49	0x3dbc5526	0.09195928
50	0x3c7afb17	0.015318654
51	0x3e88f0b7	0.2674615
52	0xbc99c64e	-0.018771317
53	0x3e3b105d	0.18267961
54	0x3eba6b1b	0.3640984
55	0x3e03ac4e	0.12858698
56	0xbc8622cb	-0.016374012
57	0x3dc63c68	0.0967949
58	0xbe34a67b	-0.17641632
59	0x3dafc40f	0.08582317
60	0xbe848ecf	-0.25890204
61	0xbd99fc79	-0.075188585
62	0x3cd85921	0.026409687
63	0x3c7f2447	0.015572614
64	0xbe81969d	-0.2531022
65	0xbe9445a7	-0.2895939
66	0xbe243ab7	-0.16038023
67	0xbdf6d25e	-0.12051843
68	0x3d79e2de	0.061007373
69	0x3b21d1cb	0.0024691697
70	0xbced8da3	-0.028998202
71	0xbe04911a	-0.12945977
72	0xbd6f0300	-0.05835247
73	0xbd5311cb	-0.05153064
74	0xbdbe19f6	-0.092822954
75	0x3b249265	0.0025111672
76	0xbdb3805b	-0.08764716
77	0xbd464583	-0.048406135
78	0xbe587ea4	-0.2114206
79	0x3e0d4129	0.13794388
80	0x3ecd81b2	0.40138012
81	0x3dd53015	0.104095615
82	0xbe12b152	-0.14325455
83	0x3d827097	0.06369131
84	0xbaf7431f	-0.0018864608
85	0x3d69be67	0.057066347
86	0xbe2b4fed	-0.16729708
87	0x3e5d2975	0.21597846
88	0xbdd476a1	-0.10374189
89	0xb9db9490	-0.00041881623
90	0x3e8ddd93	0.2770811
91	0x3ded2ae5	0.11580447
92	0xbe8d813a	-0.27637655
93	0x3e49bec1	0.19701673
94	0x3db260e7	0.08709889
95	0xbe9e6443	-0.3093587
96	0x3e1db4d8	0.15401018
97	0x3d369b38	0.044581622
98	0xbdad504f	-0.08462583
99	0x3e19de13	0.15026121
100	0x3d93d2dc	0.072179526
101	0xbe8e8916	-0.27838963
102	0x3da429a8	0.08015758
103	0xbe15e5c6	-0.14638433
104	0xbe4543f2	-0.192642
105	0xbd7c8c45	-0.06165721
106	0xbd9a53dc	-0.07535526
107	0x3e1043aa	0.14088312
108	0x3baeed6a	0.0053383606
109	0xbc374ae5	-0.01118729
110	0x3d6cf75e	0.057853095
111	0xbe40dbbb	-0.1883382
112	0xbe8e6443	-0.2781087
113	0xbd9b8598	-0.0759384
114	0xbe3060c4	-0.17224413
115	0x3d32372e	0.043509655
116	0x3d972c14	0.07381454
117	0xbd7cbbd7	-0.061702576
118	0xbd9b9784	-0.07597259
119	0xbe18a404	-0.14906317
120	0xbd8c918c	-0.06863698
121	0xbde8a886	-0.11360268
122	0xbd0254f5	-0.031819303
123	0x3cabcd24	0.020971842
124	0x3d515e2b	0.051115196
125	0xbdebaa69	-0.115071125
126	0x3e4901c9	0.19629587
127	0x3da8d4d6	0.0824372
128	0xbd2068f2	-0.039162584
129	0x3e70052e	0.23439476
130	0x3e731acf	0.23740695
131	0x3ea2f816	0.318299
132	0x3e748d35	0.23881991
133	0x3d6d07e0	0.05786884
134	0x3de78712	0.113050595

conv1.bias f4 [5]
0	0x3e6fcc47	0.2341777
1	0x3e96134d	0.293116
2	0xbe35f454	-0.17768985
3	0xbcb1dcde	-0.021711763
4	0xbdc3c5fb	-0.09559246

conv2.weight f4 [5, 5, 3, 3]
0	0x3da7adc3	0.08187439
1	0x3d7697a6	0.060203217
2	0xbdf21bd0	-0.11821711
3	0xbb612a02	-0.0034357314
4	0x3e482f9d	0.19549413
5	0x3d6f7a64	0.05846633
6	0xbd89b5b2	-0.06724109
7	0x3d2d1501	0.04225636
8	0xbc8d6100	-0.017258167
9	0x3dddbe6a	0.10827334
10	0xbd890549	-0.06690461
11	0xbe0d4154	-0.13794452
12	0x3cf74667	0.030184938
13	0xbd96b806	-0.073593184
14	0xbe471bc9	-0.19444193
15	0xbd57be98	-0.052672
16	0xbd25ed54	-0.040509537
17	0x3abeaca2	0.0014547298
18	0xbda507a9	-0.08058102
19	0x3d86deea	0.06585486
20	0xbddf2b1d	-0.10896895
21	0x3dc42a28	0.09578353
22	0xbe7fa453	-0.24965028
23	0x3cbee07c	0.023300402
24	0xbe4d7c7b	-0.20067017
25	0xbb85de43	-0.0040853336
26	0xbd1c20df	-0.038117286
27	0x3e387ed7	0.18017136
28	0xbe71af00	-0.23601913
29	0x3e09d93d	0.13461776
30	0x3e9fb535	0.31192937
31	0xbe1cca7e	-0.1531162
32	0x3afd811c	0.0019340846
33	0x3e2e9424	0.17048699
34	0x3d894798	0.067031085
35	0xbda3c77a	-0.079970315
36	0xbd4d8e59	-0.05018458
37	0x3d1d7556	0.03844198
38	0x3d30b2de	0.04313933
39	0x3dc9bdcb	0.09850653
40	0xbd6cb9db	-0.057794433
41	0x3d42e9f2	0.04758639
42	0x3d7cdd02	0.061734207
43	0x3df72426	0.12067442
44	0x3e3eeb88	0.18644536
45	0x3d48d726	0.049033307
46	0x3d51ed7d	0.051251877
47	0xbb689a06	-0.0035492196
48	0xbd9d7f77	-0.076903276
49	0x3ddda440	0.10822344
50	0x3d43a748	0.047766954
51	0xbd6ed8cd	-0.058312226
52	0x3d87adc6	0.066249415
53	0xbc14c469	-0.009080031
54	0x3e4bc041	0.19897558
55	0xbdb1f81a	-0.086899
56	0xbdd315f3	-0.10306921
57	0x3e8499b3	0.25898513
58	0x3db31ea2	0.08746077
59	0xbe25f176	-0.16205391
60	0x3e988d44	0.29795277
61	0x3e0ebbf4	0.13938886
62	0xbd69af64	-0.05705203
63	0xbd11ae76	-0.03556677
64	0xbd6aa015	-0.057281572
65	0x3da21755	0.079146065
66	0xbd61a9e3	-0.055093657
67	0x3db60986	0.08888535
68	0x3ab207d3	0.0013582654
69	0xbe8363cc	-0.25662076
70	0xbd83a2a9	-0.06427509
71	0xbde3d149	-0.11123902
72	0xbe5324ab	-0.20619456
73	0xbcaf18ac	-0.02137407
74	0xbb729c2d	-0.0037019358
75	0xbe8b5f87	-0.2722132
76	0xbea2ab55	-0.3177134
77	0x3cd06eb7	0.025443418
78	0xbea78bf9	-0.32723978
79	0xbe51f765	-0.2050453
80	0x3b8952bf	0.0041907723
81	0xbd436408	-0.04770282
82	0xbe15a612	-0.14614132
83	0xbe5cad53	-0.21550493
84	0xbcb853d1	-0.022500904
85	0xbde2bda4	-0.11071327
86	0xbe0218f0	-0.12704825
87	0x3df81138	0.12112659
88	0xbd5f9e1c	-0.054594144
89	0xbdd53273	-0.10410013
90	0x3c862992	0.016377244
91	0x3de2a462	0.1106651
92	0xbc8c64f3	-0.01713798
93	0xbdfefc53	-0.12450471
94	0xbd9fa359	-0.07794828
95	0x3dda13c9	0.10648305
96	0x3da9bd3f	0.08288049
97	0x3d57cb70	0.052684247
98	0xb90eb01c	-0.00013607781
99	0xbd480fcf	-0.0488432
100	0xbd582e28	-0.052778393
101	0x3d91a1c3	0.07110932
102	0xbd640e1a	-0.05567751
103	0x3c8fb4f5	0.017542342
104	0x3d0eb4a9	0.03484026
105	0xbda82811	-0.08210767
106	0x3cc41b78	0.02393888
107	0x3d86dabb	0.06584688
108	0xbdce055f	-0.10059618
109	0x3d47cb7d	0.048778046
110	0x3bdd90a9	0.0067616296
111	0x3d5baee2	0.053633578
112	0xbcc45d52	-0.02397028
113	0x3e520fe0	0.20513868
114	0xbcac3811	-0.021022828
115	0x3d883eb6	0.06652586
116	0x3e4b920d	0.19879933
117	0xbe45b3b4	-0.19306833
118	0xbe3d1107	-0.18463527
119	0xbec79729	-0.38982514
120	0xbeaebb08	-0.3412707
121	0xbeea360d	-0.45744362
122	0xbe9f5b1d	-0.311242
123	0xbf0c0a0a	-0.5470282
124	0xbed3576b	-0.41277632
125	0x3d5f7de9	0.054563437
126	0xbd7e6631	-0.062109176
127	0x3d3fc733	0.04682083
128	0xbd2b3ac3	-0.041804086
129	0x3e579d87	0.21056186
130	0x3dd37eef	0.10326945
131	0x3d2355ca	0.039876737
132	0x3ce52139	0.027969943
133	0x3e107cdb	0.14110129
134	0x3a0febd3	0.00054901576
135	0x3e42ad64	0.19011456
136	0x3d07e13a	0.033173777
137	0xbdfbdacb	-0.12297591
138	0x3d5404d5	0.05176242
139	0x3ccdec37	0.02513705
140	0xbe382d93	-0.17986135
141	0xbd05355a	-0.032521583
142	0xbd77b748	-0.060477525
143	0x3d8769a9	0.0661195
144	0xbe49f2c2	-0.19721511
145	0xbe2991bc	-0.165595
146	0xbcec15c1	-0.028818967
147	0xbd484778	-0.048896283
148	0xbdb8a7bf	-0.0901637
149	0x3deae823	0.11470058
150	0x3c6b767d	0.0143715115
151	0x3e51aadf	0.20475338
152	0x3e912da0	0.28355122
153	0x3de0e4cb	0.10981139
154	0x3e38136d	0.1797616
155	0xbe0f8153	-0.14014177
156	0x3e9453b9	0.28970125
157	0xbe1a45ae	-0.15065643
158	0xbd7c5502	-0.061604507
159	0x3c462eb8	0.0120961
160	0x3d6beffa	0.057601906
161	0xbe411d90	-0.18858933
162	0x3e559a76	0.20859703
163	0x3e4721ac	0.19446439
164	0x3e396f0a	0.18108764
165	0xbde1f3d4	-0.11032835
166	0xbe150f5c	-0.1455664
167	0xbdfdc3ef	-0.12390887
168	0x3c15172f	0.009099766
169	0x3db5801f	0.08862328
170	0xbe27479a	-0.16335908
171	0xbd643431	-0.055713836
172	0x3d47ad62	0.048749335
173	0xbdafa4a0	-0.085763216
174	0xbe19e680	-0.15029335
175	0x3e2582b1	0.16163136
176	0x3d70f5a5	0.058828015
177	0xbb9165be	-0.0044371774
178	0x3cb5f431	0.022211166
179	0xbdb603f3	-0.08887472
180	0xbdcbafd2	-0.099456444
181	0xbe2715c1	-0.16316892
182	0xbdd7e317	-0.10541361
183	0xbdccc6f4	-0.09998885
184	0xbdabf2a2	-0.08395888
185	0x3cc048f0	0.02347228
186	0xbe2e0db1	-0.1699741
187	0x3e45473d	0.19265456
188	0x3e7a6516	0.24452624
189	0xbddad265	-0.10684661
190	0x3d7d0d31	0.06178016
191	0x3e092a53	0.13395052
192	0x3dd6dd64	0.10491446
193	0x3e0509a5	0.1299196
194	0xbc1fb75f	-0.009748309
195	0x3c98b6cb	0.01864185
196	0x3e2d82dc	0.1694445
197	0x3e4ec046	0.20190534
198	0x3e36b525	0.17842539
199	0x3b9cb006	0.004781726
200	0x3c9de668	0.019274905
201	0x3d3246f4	0.043524697
202	0x3d9d2016	0.076721355
203	0x3e0ee278	0.13953578
204	0x3cd077f4	0.025447823
205	0x3e75b7db	0.23995917
206	0x3e0b93ea	0.13630643
207	0x3d846bbb	0.064658605
208	0xbd5f915a	-0.054581977
209	0xbd685c03	-0.056728374
210	0x3d2c4bd7	0.042064514
211	0xbe6001a5	-0.21875627
212	0x3d6ca00a	0.057769813
213	0x3d38f88f	0.04515892
214	0xbdefd9f6	-0.117114946
215	0x3d5211bc	0.051286444
216	0x3ddd307a	0.10800262
217	0xbbc9863b	-0.0061500347
218	0xbd167fe2	-0.036743052
219	0xbdf6969a	-0.12040444
220	0x3dff55a8	0.124675095
221	0xbd017ad7	-0.03161129
222	0xbe436f35	-0.19085391
223	0xbe908378	-0.28225303
224	0xbe79192e	-0.24326012

conv2.bias f4 [5]
0	0xbe30480d	-0.17214985
1	0x3e8fcd64	0.28086388
2	0x3e4023c2	0.1876364
3	0xbe22ef08	-0.15911496
4	0xbec3bc84	-0.38229764

fc1.weight f4 [50, 125]
0	0xbd871937	-0.06596606
1	0xbd9e9023	-0.07742336
2	0x3e20910c	0.15680331
3	0x3d368bbd	0.04456686
4	0x3d46e676	0.04855963
5	0xbd39d964	-0.045373335
6	0x3db38c50	0.08766997
7	0x3d64f336	0.055896007
8	0x3d8d7f54	0.069090515
9	0x3cf79f78	0.030227408
10	0x3c271915	0.010198851
11	0xbd0f8fe9	-0.035049353
12	0xbbba2faf	-0.005681954
13	0x3ae3c086	0.0017376102
14	0x3ce9e166	0.028549861
15	0x3c6e136b	0.014530997
16	0xbd67ff90	-0.056640208
17	0xbe52814a	-0.20557132
18	0xbd96c83c	-0.073624104
19	0x3cd8d219	0.02646737
20	0x3ddb93ef	0.107215755
21	0xbdb9d436	-0.09073679
22	0xbe98ce4c	-0.29844892
23	0xbe88aac4	-0.26692784
24	0xbe00c0d4	-0.12573558
25	0xbddb0336	-0.10693972
26	0xbd4405f1	-0.04785723
27	0xbda68e6e	-0.08132635
28	0xbdd68977	-0.10475438
29	0xbd293c76	-0.041317426
30	0xbd0afd87	-0.03393319
31	0xbb9aac5a	-0.004720253
32	0xbd95b172	-0.07309236
33	0xbd76d797	-0.060264196
34	0xbe01eea3	-0.12688689
35	0x3c37a4fe	0.011208771
36	0xbb82c664	-0.003990935
37	0x3d02d9f2	0.03194613
38	0x3d90eaee	0.07076059
39	0xbde68450	-0.11255705
40	0x3da037b2	0.07823123
41	0x3d5ba7a5	0.053626675
42	0x3c397c3c	0.011321124
43	0xbcc401db	-0.023926666
44	0xbd544885	-0.051826973
45	0x3e59628b	0.21228997
46	0x3dd91dad	0.10601363
47	0x3dc80787	0.09767061
48	0x3d1b0a06	0.037851356
49	0x3d512aa1	0.051066045
50	0x3c1cb1ec	0.009563904
51	0xbcfa3eda	-0.030547548
52	0x3d119022	0.035537846
53	0x3cbb8f6f	0.022895543
54	0xbd0350ea	-0.032059588
55	0xbd87a265	-0.06622771
56	0x3be4dc3c	0.006984262
57	0xbccc141c	-0.024911933
58	0xbd2c2946	-0.04203155
59	0x3b902784	0.004399242
60	0xbcaeb931	-0.02132854
61	0x3bddbddf	0.006767019
62	0xbca82d4f	-0.020529417
63	0x3d074567	0.03302517
64	0x3e019d56	0.12657675
65	0x3d365b3d	0.044520605
66	0x3d7217cd	0.05910473
67	0x3cab2b01	0.02089453
68	0xbc9d6b58	-0.019216225
69	0xbbfcff83	-0.007720889
70	0xbb9d5d7a	-0.004802403
71	0x3cc9dbbf	0.024640916
72	0x3c71ac85	0.0147506045
73	0xbd97196a	-0.07377894
74	0xbd8817fe	-0.06645201
75	0xbecb71cc	-0.39735258
76	0xbe7e15d9	-0.24813022
77	0xbe863c19	-0.26217726
78	0xbea40d3f	-0.32041356
79	0xbe7eb17a	-0.2487239
80	0xbed313c7	-0.41226026
81	0xbec270e3	-0.3797675
82	0xbe8479b7	-0.2587411
83	0xbe17f33e	-0.14838883
84	0xbe7022ab	-0.23450725
85	0xbea418f6	-0.32050294
86	0xbe8fa5dc	-0.28056228
87	0xbe3524be	-0.17689797
88	0xbe39a805	-0.181305
89	0xbdc437f7	-0.09580987
90	0xbd676fb4	-0.056503013
91	0xbcfce6c6	-0.03087176
92	0xbd106eb0	-0.03526181
93	0xbda21c6b	-0.079155765
94	0xbd28cfed	-0.04121392
95	0xbc99f205	-0.018792162
96	0x3cfbb21c	0.030724578
97	0x3d7f4a92	0.062326975
98	0xbc81d4b1	-0.01584849
99	0x3d849f9d	0.06475756
100	0xbe6f586f	-0.23373578
101	0xbe011a2c	-0.1260764
102	0xbe93b72f	-0.28850695
103	0xbeb4458a	-0.35209304
104	0xbec84113	-0.39112148
105	0x3d68d4ab	0.05684344
106	0xbc9b6f64	-0.018974014
107	0xbcdaa322	-0.026689116
108	0xbd12200c	-0.035675094
109	0x3cf1fa90	0.029538423
110	0x3e0d8186	0.1381894
111	0x3ca74326	0.020417761
112	0xbbd62e02	-0.0065362463
113	0x3c4073ef	0.011746391
114	0xbd328276	-0.04358145
115	0x3d837421	0.06418634
116	0xbc6d28b4	-0.014475036
117	0xbc97fc78	-0.018553004
118	0xbd1e8745	-0.03870322
119	0xbc70cfc7	-0.0146979755
120	0x3da1a5e1	0.07892967
121	0x3d4f5ab7	0.05062362
122	0xbdb905cd	-0.090343095
123	0xbc99e795	-0.018787185
124	0xbaacba87	-0.0013178148
125	0x3d44cfcc	0.048049733
126	0x3cd431aa	0.025902588
127	0x3b2bdd38	0.0026224386
128	0x3c80ec89	0.015737789
129	0x3cc3c22a	0.023896296
130	0x3c7656b1	0.015035317
131	0xbd041ba7	-0.032252934
132	0xbc5a8704	-0.013337854
133	0xbd17f820	-0.037101865
134	0x3d241ae3	0.040064704
135	0x3cbb05bb	0.022829881
136	0x3c0e5c9a	0.00868907
137	0xbd1d4689	-0.038397346
138	0x3c9ca118	0.019119784
139	0x3d2a6687	0.041601684
140	0x3ca83044	0.020530827
141	0xbd8215db	-0.06351825
142	0x3cff7900	0.031185627
143	0x3d8c93f3	0.068641566
144	0xbd9c927a	-0.07645126
145	0x3dd1c211	0.10242093
146	0xbbf34799	-0.0074243066
147	0x3e76f4a0	0.24116755
148	0x3e0ead57	0.13933311
149	0x3e14ea2e	0.14542457
150	0xbd2c3066	-0.042038344
151	0xbcc0ac9b	-0.023519805
152	0x3c0c0af6	0.008547535
153	0xbcd64554	-0.026156105
154	0xbcfb8a4c	-0.030705594
155	0xbdd9da11	-0.10637296
156	0x3d941a9b	0.07231637
157	0x3d85bc3b	0.06530043
158	0x3d79a3ad	0.06094711
159	0x3d80eec9	0.06295545
160	0xbe4fb807	-0.20285045
161	0x3cdffe51	0.027342947
162	0x3d9c2e38	0.07626003
163	0x3dcf7e20	0.10131478
164	0x3e01e75f	0.12685917
165	0xbe408047	-0.18798934
166	0xbd5237c5	-0.051322717
167	0xbe24109b	-0.1602196
168	0xbe38b734	-0.18038636
169	0x3d093826	0.033500813
170	0xbe37607c	-0.179079
171	0x3c77c442	0.015122475
172	0xbd8282f9	-0.06372637
173	0xbd0c90bb	-0.034317713
174	0x3e139d3d	0.1441545
175	0xbdf08e0a	-0.11745842
176	0xbdad59c7	-0.08464389
177	0xbe0a1cc3	-0.13487534
178	0xbd963821	-0.073349245
179	0xbe260780	-0.16213799
180	0xbd40c6af	-0.04706448
181	0xba82ac47	-0.0009969556
182	0xbcaa1b0b	-0.020764848
183	0x3d6657c1	0.056236032
184	0xbd6178bd	-0.055046786
185	0x3d90dff4	0.07073966
186	0x3d328a72	0.043589063
187	0x3df95b99	0.12175674
188	0x3d0ff9db	0.03515039
189	0x3de58e00	0.11208725
190	0x3bbfa6e3	0.005848752
191	0x3e0cd1f0	0.1375196
192	0x3c8c3186	0.017113458
193	0x3da2b80e	0.07945262
194	0xbc94c7ff	-0.018161772
195	0xbddb9b8b	-0.10723027
196	0xbda39b39	-0.07988591
197	0xbe18027c	-0.14844698
198	0xbddba03d	-0.107239224
199	0xbdf7b753	-0.12095513
200	0x3d8111d4	0.063022286
201	0x3d9cfa7d	0.07664964
202	0x3d8b99a8	0.06816417
203	0x3ddc05bb	0.107432805
204	0x3d131884	0.03591205
205	0xbd2c815e	-0.04211556
206	0x3c293c6f	0.01032935
207	0x3cc83791	0.024440559
208	0x3d56f834	0.0524828
209	0x3d2c48f8	0.042061776
210	0x3da5cb31	0.08095396
211	0xbd8be4f2	-0.06830777
212	0x3d39e476	0.045383893
213	0x3bf03798	0.007330846
214	0xbd5e341c	-0.054248914
215	0x3d2dfdf7	0.042478528
216	0xbd8b7376	-0.06809132
217	0x3d635991	0.05550534
218	0x3bf67208	0.007520918
219	0xbda09c41	-0.07842303
220	0xbc5dceb2	-0.0135380495
221	0xbc328082	-0.010894896
222	0x3cd454df	0.025919376
223	0x3d840479	0.064461656
224	0x3d549690	0.0519014
225	0xbda5076a	-0.08058055
226	0x3da50c5a	0.080589965
227	0x3d5160cc	0.051117703
228	0x3d916949	0.0710016
229	0x3ca43e20	0.020049155
230	0x3d689f07	0.056792285
231	0x3da2e75b	0.07954284
232	0xbd6778b5	-0.0565116
233	0x3d8ea919	0.069658466
234	0x3d8c4cb6	0.06850569
235	0x3d588775	0.052863557
236	0x3ddf10b1	0.108918555
237	0xbcfe1627	-0.031016422
238	0x3caec96e	0.021336284
239	0x3cdfede6	0.027335119
240	0x3d8ab661	0.06773067
241	0x3cb09428	0.021555021
242	0x3c70dffb	0.014701839
243	0x3d8216e5	0.06352023
244	0x3de5d5be	0.11222409
245	0x3d96025e	0.0732467
246	0x3d85f0af	0.065400474
247	0x3d9e12a1	0.07718397
248	0x3d8edb0b	0.06975373
249	0x3d78155c	0.060567245
250	0x3d32b635	0.043630797
251	0x3db68e39	0.089138456
252	0x3ce8483a	0.028354753
253	0x3e0a9a48	0.13535416
254	0x3d02f039	0.031967375
255	0x3d5dfd7e	0.054196827

fc1.bias f4 [50]
0	0x3ea5a3e2	0.32351595
1	0xbe59e03e	-0.21276948
2	0x3e69def2	0.22838953
3	0x3de4a2c9	0.11163861
4	0xbd1aa5ee	-0.0377559
5	0x3e0dd3d9	0.13850345
6	0xbdd99149	-0.10623414
7	0x3efa5c29	0.48898438
8	0x3d925fac	0.07147154
9	0x3dcf9092	0.101349965
10	0x3ea514c6	0.3224241
11	0xbc796e9a	-0.015224123
12	0x3eb66b08	0.35628533
13	0xbd031096	-0.03199824
14	0xbe3aaf98	-0.18231046
15	0xbdcdbdf0	-0.10045993
16	0x3d08b76a	0.033378042
17	0x3eb84ac5	0.35994545
18	0xbd5972b6	-0.053087912
19	0x3ca27e52	0.019835625
20	0x3e1fe58b	0.15614907
21	0xbe83c2dc	-0.25734603
22	0x3eb8faae	0.36128753
23	0x3e85473e	0.26030916
24	0xbe19b1e5	-0.15009268
25	0xbe54e72c	-0.2079131
26	0xbd469bce	-0.04848843
27	0xbcddb3aa	-0.02706321
28	0x3d5c6b0f	0.053813037
29	0xbc1fbbee	-0.009749396
30	0x3d23ac1f	0.03995907
31	0x3eb2727d	0.34852973
32	0x3cd20d5b	0.025641134
33	0xbd342340	-0.04397893
34	0x3e93d5b5	0.28873983
35	0x3e9a7d9d	0.3017396
36	0x3efc0956	0.49225873
37	0x3ed4eb8b	0.41585955
38	0xbd825c56	-0.06365268
39	0xbb4e939c	-0.0031521088
40	0x3ea985ff	0.33110043
41	0xbe1f387d	-0.15548892
42	0x3e6021ae	0.21887848
43	0xbe17ec97	-0.14836346
44	0x3ea3e58d	0.3201107
45	0xbe1ba7ba	-0.15200701
46	0xba262a7b	-0.00063387275
47	0xba927f94	-0.0011176937
48	0xbe638814	-0.22219878
49	0x3eea3a7e	0.4574775

fc2.weight f4 [3, 50]
0	0xbe952e61	-0.29136947
1	0xbd3dedd7	-0.0463694
2	0x3ecce492	0.40018135
3	0xbecc8c26	-0.39950675
4	0x3e8019f4	0.250198
5	0xbe8e2393	-0.27761516
6	0x3d837d35	0.06420366
7	0x3db1c735	0.08680574
8	0xbe85b420	-0.26113987
9	0xbe9b61f3	-0.30348167
10	0xbe2d6f5a	-0.16937009
11	0x3efc35bc	0.49259746
12	0x3e39fd04	0.18162924
13	0xbec874ff	-0.3915176
14	0xbe4c83d9	-0.19972171
15	0x3dbd1794	0.09233013
16	0xbe93049d	-0.28714457
17	0x3e3eef97	0.18646084
18	0xbe4112df	-0.18854855
19	0xbd9e8184	-0.07739547
20	0x3ebc44d7	0.3677127
21	0x3d0a56c6	0.03377416
22	0x3e657b6c	0.22410363
23	0x3ed9dadf	0.42549798
24	0x3d1d1a47	0.03835514
25	0xbd8d5adc	-0.06902096
26	0xbe7a5c6c	-0.24449319
27	0x3d4e06e0	0.050299525
28	0xbe851d25	-0.25998798
29	0x3ec1d3cb	0.37856898
30	0xbe50c50b	-0.20387666
31	0x3e183cd3	0.14866953
32	0xbe9ad3d4	-0.30239737
33	0xbeaf0f44	-0.34191334
34	0x3dcdd707	0.10050779
35	0x3e7eeb04	0.24894339
36	0x3dc6ec15	0.09712998
37	0x3dd5e66a	0.104443386
38	0x3e7a2b0c	0.24430484
39	0x3da31982	0.079638496
40	0xbe17c52b	-0.14821307
41	0xbe50fe0d	-0.20409413
42	0x3ec2cb20	0.38045597
43	0x3d76084a	0.0600665
44	0xbec1db21	-0.37862495
45	0xbd8d0837	-0.068863325
46	0x3e4fe62f	0.20302652
47	0xbe887a39	-0.26655748
48	0x3e85c4b6	0.2612664
49	0x3d82388e	0.06358443
50	0xbedaff3d	-0.42772856
51	0x3e0fb96c	0.14035577
52	0xbe652472	-0.22377184
53	0xbe1b6c54	-0.15178043
54	0xbd4a6209	-0.0494099
55	0xbe8899fd	-0.26679984
56	0xbe34d642	-0.17659858
57	0xbef222c1	-0.4729214
58	0x3e2cc939	0.16873635
59	0x3d647a56	0.05578073
60	0xbeeff508	-0.46866632
61	0xbed97019	-0.42468336
62	0xbef8b968	-0.48578954
63	0x3d9fa100	0.0779438
64	0x3da64e6b	0.08120426
65	0x3e2dbe86	0.1696721
66	0x3e22e54c	0.15907782
67	0xbf1558ae	-0.5833844
68	0x3e4e3bf0	0.20140052
69	0x3d2e7b79	0.04259822
70	0xbecdaac1	-0.40169337
71	0x3e20fe58	0.15722024
72	0xbf030f5e	-0.51195323
73	0xbe029670	-0.127527
74	0x3e07f98f	0.13278793
75	0x3dde0440	0.108406544
76	0x3e946fa9	0.2899144
77	0x3d9910db	0.07473918
78	0x3e1bbb9e	0.15208289
79	0xbde91e8e	-0.11382781
80	0xbe226a43	-0.15860848
81	0xbee51b61	-0.4474745
82	0xbda1d7d1	-0.07902492
83	0x3ae3f88b	0.0017392797
84	0xbf033e79	-0.512672
85	0xbeff4cf0	-0.49863386
86	0xbef8c7a0	-0.48589802
87	0xbf087bc9	-0.5331388
88	0x3e4bcd28	0.1990248
89	0x3e2a0955	0.16605122
90	0xbefaf4e5	-0.49014965
91	0x3e511d67	0.20421372
92	0xbeecd870	-0.4625888
93	0x3e4b511c	0.1985516
94	0xbe649105	-0.22320946
95	0x3e175da1	0.1478181
96	0xbecf8f38	-0.40538955
97	0x3e0309c8	0.127967
98	0x3b2d6017	0.002645498
99	0xbf14c150	-0.5810747
100	0x3ef3c26c	0.4760927
101	0xbe567234	-0.20942003
102	0xbe23bc1f	-0.15989731
103	0x3e6c7376	0.2309092
104	0xbeacdbb1	-0.3376136
105	0x3eba4622	0.36381632
106	0xbdfbd631	-0.12296713
107	0x3d3088af	0.0430991
108	0x3e45e1ac	0.19324368
109	0x3e594b7f	0.21220206
110	0x3ea19dfb	0.31565842
111	0xbe823ebe	-0.25438493
112	0x3d91d6b8	0.071210325
113	0x3ebb0a13	0.36531124
114	0xbe2aac60	-0.16667318
115	0xbe697964	-0.22800213
116	0x3e4a5be4	0.19761616
117	0x3c308b90	0.010775462
118	0x39a906e3	0.00032239323
119	0xbdbf2418	-0.09333056
120	0xbe514ff3	-0.20440654
121	0xbe1eca3d	-0.15506835
122	0x3e3b6116	0.18298754
123	0xbe6fb423	-0.2340856
124	0xbe73f38f	-0.23823379
125	0xbe331926	-0.17490062
126	0xbd42cfee	-0.04756158
127	0xbe78301a	-0.242371
128	0x3de0390c	0.10948381
129	0xbe883019	-0.26599196
130	0x3e7b68f4	0.24551755
131	0x3e4b4a2b	0.19852512
132	0x3eeb7af4	0.45992243
133	0xbc6a3ccb	-0.014296721
134	0x3d83588e	0.06413375
135	0x3e18ef86	0.14935121
136	0x3d9fcad9	0.07802362
137	0x3e2fb0d1	0.17157294
138	0xbecc225f	-0.39869973
139	0xbea4ab33	-0.32161865
140	0x3ea0049c	0.31253517
141	0xbdb748cb	-0.08949431
142	0xbe4d62a3	-0.20057158
143	0xbe4e537d	-0.20149036
144	0x3ee3fed0	0.44530344
145	0xbe377438	-0.17915428
146	0xbe50fddb	-0.20409338
147	0x3e1927f9	0.14956655
148	0xbe954955	-0.2915751
149	0x3e1a84e2	0.15089753

fc2.bias f4 [3]
0	0xbc511b58	-0.012762867
1	0xbd99b1ce	-0.07504617
2	0x3df2f2ee	0.118627414

exp_avg f4 [5, 3, 3, 3]
0	0xbbf255ea	-0.0073954957
1	0xbc041f3c	-0.0080640875
2	0xbbee5bb3	-0.007274115
3	0xbb98de64	-0.004665183
4	0x3a96b44a	0.0011497822
5	0xbb92a1d9	-0.00447486
6	0x3bb98e58	0.0056627207
7	0x3c3b2437	0.0114222085
8	0x3b8dc648	0.0043266155
9	0xbcc680bf	-0.024231313
10	0xbcd6af94	-0.026206769
11	0xbcccb61f	-0.024989186
12	0xbc9f01f2	-0.019410107
13	0xbc55c4e8	-0.013047434
14	0xbc8d562e	-0.017253008
15	0xbc06fcb7	-0.008238963
16	0xb99624b4	-0.00028637575
17	0xbba621e3	-0.0050699576
18	0xbd1e65ec	-0.03867142
19	0xbd23d8b8	-0.0400016
20	0xbd306719	-0.04306707
21	0xbd03f19e	-0.032212846
22	0xbcd1d06f	-0.025612084
23	0xbd044676	-0.03229376
24	0xbcb28591	-0.021792205
25	0xbc620918	-0.013796113
26	0xbc88a5f7	-0.0166807
27	0xbc08290a	-0.008310566
28	0xbbae4e2c	-0.0053193774
29	0xbc8ce285	-0.017197857
30	0x382b72b7	4.0876414e-05
31	0xb9b0a201	-0.00033690038
32	0xbc580951	-0.013185815
33	0x3c87c573	0.016573643
34	0x3c54fd6c	0.012999874
35	0x3b258843	0.002525822
36	0x3bd68a0d	0.0065472187
37	0x3c3ebef9	0.011642211
38	0xbb7f5397	-0.0038959736
39	0xb94c0ad2	-0.00019458987
40	0x3bcbc0d2	0.0062180543
41	0xbbfc306b	-0.0076962016
42	0x3be39426	0.006945151
43	0x3c033678	0.008008592
44	0x3a20d89e	0.0006135794
45	0x3bb97ea4	0.0056608487
46	0x3c354a92	0.011065142
47	0x3a454237	0.00075248204
48	0xbcc2945c	-0.023752384
49	0xbc596a85	-0.013270025
50	0xbc92faa5	-0.017941782
51	0xbd04d502	-0.032429703
52	0xbcca887e	-0.024723288
53	0xbccaa246	-0.024735581
54	0xbdb066ce	-0.086133584
55	0xbd8a1309	-0.06741912
56	0xbd6a05d5	-0.057134468
57	0xbdb3b017	-0.08773821
58	0xbd85b1a3	-0.06528022
59	0xbd73632a	-0.059420742
60	0xbda2ce6d	-0.07949529
61	0xbd6fe33c	-0.058566317
62	0xbd5c34cf	-0.0537613
63	0xbd91e8c9	-0.07124478
64	0xbd52e2ce	-0.05148583
65	0xbd273371	-0.040820543
66	0xbda492cf	-0.08035814
67	0xbd6f25af	-0.058385547
68	0xbd4cbfdb	-0.049987655
69	0xbda2b3e1	-0.079444654
70	0xbd71e0fa	-0.059052445
71	0xbd57fafa	-0.052729584
72	0xbd530004	-0.051513687
73	0xbd176c33	-0.03696842
74	0xbd068810	-0.032844603
75	0xbd6dcebc	-0.058058485
76	0xbd39ae72	-0.04533238
77	0xbd44e0a1	-0.048065785
78	0xbd82e5c4	-0.063914806
79	0xbd481f93	-0.048858237
80	0xbd46346e	-0.048389845
81	0x3e654e41	0.22393133
82	0x3e6c0be2	0.23051408
83	0x3e5a9066	0.21344146
84	0x3e6ae6eb	0.2293965
85	0x3e6a94c2	0.22908309
86	0x3e53568f	0.20638488
87	0x3e6adf9f	0.22936867
88	0x3e5982e4	0.21241337
89	0x3e395a2e	0.18100807
90	0x3e535132	0.20636442
91	0x3e5cd784	0.21566588
92	0x3e455c6c	0.19273537
93	0x3e64ca83	0.22342877
94	0x3e6a1c78	0.22862422
95	0x3e4c164c	0.1993038
96	0x3e72ae48	0.23699296
97	0x3e67b62c	0.22628087
98	0x3e4546ee	0.19265339
99	0x3e558f88	0.20855534
100	0x3e5df420	0.21675158
101	0x3e4905dc	0.19631141
102	0x3e6fb252	0.23407868
103	0x3e75f05e	0.24017474
104	0x3e5c3ebd	0.21508308
105	0x3e88e178	0.2673452
106	0x3e8482d6	0.2588107
107	0x3e67e8b2	0.2264736
108	0x3b049b84	0.0020234296
109	0xbbfda3b2	-0.0077404613
110	0xbc2c2c9c	-0.010508683
111	0xbb93e386	-0.004513207
112	0xbc39c604	-0.0113387145
113	0xbc824024	-0.015899725
114	0xbbd00be2	-0.006349073
115	0xbb9555aa	-0.004557331
116	0xbc16560d	-0.00917579
117	0x3b1ca2b4	0.002390069
118	0xbb6f662b	-0.0036529403
119	0xbab72a5f	-0.001397442
120	0x3a7ca0e3	0.0009637011
121	0xbbb0a69a	-0.005390954
122	0xbbc7c61f	-0.006096616
123	0x3a8d3106	0.0010772056
124	0x3b196da7	0.0023411305
125	0x3915b38b	0.00014276632
126	0x3ac28b87	0.0014842608
127	0xbae1cfa2	-0.0017228017
128	0xb889cfbc	-6.5713626e-05
129	0x3c107387	0.008816606
130	0x3b3904df	0.0028231663
131	0xbaa38bc7	-0.001247757
132	0x3c2109fd	0.009829042
133	0x3c3270db	0.010891165
134	0x3bec8d43	0.007218988

exp_avg_sq f4 [5, 3, 3, 3]
0	0x3c219221	0.0098615
1	0x3c1b0e77	0.009463898
2	0x3c2216ea	0.009893158
3	0x3c19ff25	0.00939921
4	0x3c187120	0.009304315
5	0x3c19098f	0.009340658
6	0x3c1c00aa	0.009521643
7	0x3c281f8e	0.0102614295
8	0x3c32b469	0.010907271
9	0x3c27f72b	0.0102518005
10	0x3c22ac76	0.009928813
11	0x3c2376e7	0.009977079
12	0x3c1fd948	0.009756394
13	0x3c1f8807	0.009737021
14	0x3c190b40	0.009341061
15	0x3c1ec4b9	0.009690457
16	0x3c2bc507	0.010483987
17	0x3c323612	0.010877149
18	0x3c3ee455	0.011651118
19	0x3c37cd5d	0.011218396
20	0x3c32157c	0.01086938
21	0x3c348d1f	0.011019974
22	0x3c32f77a	0.010923261
23	0x3c273752	0.0102060605
24	0x3c2e5f98	0.0106429085
25	0x3c37aaec	0.011210185
26	0x3c371c6a	0.011176208
27	0x3d934082	0.07190038
28	0x3d96d10e	0.07364093
29	0x3d97f60c	0.074199766
30	0x3db598f7	0.08867066
31	0x3dbec482	0.09314825
32	0x3dbed619	0.0931818
33	0x3d98b956	0.07457225
34	0x3da2ef62	0.07955815
35	0x3dada050	0.08477843
36	0x3d876bb4	0.066123396
37	0x3d8a1399	0.06742019
38	0x3d8c51b8	0.06851524
39	0x3da43f69	0.08019907
40	0x3dab7390	0.08371651
41	0x3dacca7e	0.0843706
42	0x3d85c639	0.065319486
43	0x3d8eeed2	0.06979145
44	0x3d99c6a5	0.075085916
45	0x3d80605d	0.0626838
46	0x3d839904	0.0642567
47	0x3d867185	0.06564621
48	0x3d97d7f0	0.07414234
49	0x3d9ded0a	0.07711227
50	0x3d9fd1f5	0.07803718
51	0x3d7891b2	0.06068582
52	0x3d83c013	0.064331196
53	0x3d8d41c0	0.068973064
54	0x3d810ddf	0.06301474
55	0x3d9b61ce	0.07587014
56	0x3d9d3f13	0.07678046
57	0x3dae97bb	0.08525034
58	0x3dbe0881	0.09278966
59	0x3da67708	0.08128172
60	0x3dbf7899	0.09349174
61	0x3db569d2	0.08858074
62	0x3d950aca	0.072774485
63	0x3d8e8984	0.06959823
64	0x3daf00b7	0.08545058
65	0x3daf5fc6	0.08563189
66	0x3dc3866c	0.09547123
67	0x3dd42331	0.10358275
68	0x3db7d9e1	0.08977104
69	0x3dd2937b	0.10282036
70	0x3dc5b629	0.09653885
71	0x3da0ec06	0.07857518
72	0x3d9a9571	0.07548035
73	0x3db7aa07	0.08967977
74	0x3db7c2a2	0.0897267
75	0x3dcb6d17	0.099329166
76	0x3dd81d5d	0.105524756
77	0x3dbdcf6a	0.09268077
78	0x3dd81d62	0.10552479
79	0x3dc886cb	0.09791335
80	0x3da5cfad	0.08096252
81	0x3e867fb6	0.2626931
82	0x3e96386a	0.29339916
83	0x3ea4bbfe	0.32174677
84	0x3e8ae7a9	0.27129868
85	0x3e9c3262	0.3050719
86	0x3eac7a47	0.3368704
87	0x3e83e37b	0.2575949
88	0x3e8a24b2	0.2698112
89	0x3e8ea5dd	0.2786092
90	0x3e96d463	0.29458913
91	0x3ea97277	0.33095142
92	0x3ebd313c	0.36951625
93	0x3e9c3417	0.3050849
94	0x3eaf35c5	0.3422071
95	0x3ec29812	0.38006645
96	0x3e926889	0.2859538
97	0x3e988493	0.29788646
98	0x3e9d060f	0.30668685
99	0x3e9dca65	0.30818477
100	0x3eafcf8c	0.34338033
101	0x3ec409c5	0.38288704
102	0x3ea5d86d	0.32391682
103	0x3eb75d2f	0.3581328
104	0x3ec9ba50	0.39399958
105	0x3e9c0728	0.3047421
106	0x3ea0dd8f	0.31419036
107	0x3ea41278	0.3204534
108	0x3d2ab6c5	0.04167821
109	0x3d2d6101	0.04232884
110	0x3d2d893c	0.042367205
111	0x3d36cafb	0.04462717
112	0x3d3c42f8	0.045962304
113	0x3d3d81ac	0.046266243
114	0x3d38a153	0.045075726
115	0x3d3ec470	0.046574056
116	0x3d423fb2	0.047424026
117	0x3cfcf063	0.030876344
118	0x3cfd743d	0.030939216
119	0x3cfd9fa7	0.030959917
120	0x3cfd6daa	0.030936081
121	0x3d025fa6	0.0318295
122	0x3d055d37	0.0325596
123	0x3d038cc6	0.032116674
124	0x3d0b18c1	0.033959154
125	0x3d0ef266	0.034899138
126	0x3cdf189f	0.02723342
127	0x3cd94fe1	0.026527347
128	0x3cd7323a	0.026269067
129	0x3cdbad5e	0.026816066
130	0x3cdf2014	0.027236976
131	0x3ce48be8	0.027898744
132	0x3cedb131	0.029015156
133	0x3cfbec21	0.030752243
134	0x3d00168a	0.031271495

exp_avg f4 [5]
0	0xba8d4571	-0.0010778141
1	0x3cc66765	0.024219224
2	0x3d6eedc1	0.05833221
3	0xbd8d4948	-0.06898743
4	0x3cfff5e1	0.031245174

exp_avg_sq f4 [5]
0	0x3bf7bef7	0.0075606066
1	0x3d422a09	0.04740337
2	0x3d7aeebb	0.061262827
3	0x3e41f69a	0.18941727
4	0x3d0c32a5	0.034227986

exp_avg f4 [5, 5, 3, 3]
0	0xbdbfd60e	-0.093669996
1	0xbd6241d9	-0.05523858
2	0xbb68deed	-0.0035533265
3	0xbda713ac	-0.08158049
4	0xbd4acdfa	-0.04951284
5	0xbd01cb29	-0.03168789
6	0xbd597e71	-0.0530991
7	0xbd487155	-0.048936207
8	0xbd7487a3	-0.059699666
9	0xbc62c841	-0.01384169
10	0xbc923024	-0.01784522
11	0xbcdbdc10	-0.026838332
12	0xb9c1ffae	-0.00037002325
13	0xbb68c7b9	-0.0035519435
14	0x3b1d7e2a	0.0024031498
15	0x3ca8dcf7	0.020613177
16	0x3c35e31f	0.011101513
17	0x3cc90ffc	0.024543755
18	0xbd5fe210	-0.05465895
19	0xbce4d6a5	-0.027934382
20	0x3bde4257	0.0067828107
21	0xbd400f0d	-0.046889354
22	0x3bf31601	0.0074183946
23	0xbba98c04	-0.005174162
24	0xbc893c57	-0.016752405
25	0x3b545f6a	0.0032405504
26	0xbc316b95	-0.010828872
27	0x3cf2c7e9	0.02963634
28	0x3d1c9c72	0.038235135
29	0x3b73c20f	0.0037194525
30	0x3d35368d	0.044241477
31	0x3ceb0944	0.028690942
32	0x3a39afd1	0.00070833886
33	0x3cf196c4	0.029490836
34	0xbc1641dd	-0.0091709765
35	0xba061ba8	-0.00051158154
36	0x3abb0850	0.0014269445
37	0xbbec89a5	-0.007218557
38	0xbc51c0cc	-0.012802314
39	0x3bdb7ae9	0.0066980016
40	0xbab8d115	-0.0014100397
41	0x3b1aa7d7	0.0023598575
42	0x3c2980da	0.010345662
43	0x3bd3ad72	0.0064598853
44	0x3c7cda7f	0.015432953
45	0x3c99a750	0.018756539
46	0x3d1b3805	0.03789522
47	0xbc7ac38b	-0.01530541
48	0xbc41ab89	-0.011820682
49	0xb9e2e6dc	-0.00043278083
50	0x3ba241c8	0.0049516894
51	0xbc7635a3	-0.015027436
52	0xbcafac60	-0.0214445
53	0xbc313fe9	-0.01081846
54	0xbd257978	-0.040399045
55	0xbd4ad53f	-0.049519774
56	0xbd51f8e6	-0.05126276
57	0xbd3d1678	-0.046164006
58	0xbd0c16de	-0.034201495
59	0xbd1ea95a	-0.038735725
60	0xbdc52637	-0.096264295
61	0xbdab708c	-0.08371076
62	0xbd8ae51f	-0.06781983
63	0x3c864e33	0.01639471
64	0x3c3a6f74	0.011379112
65	0x3c917277	0.017754776
66	0x3c86ec60	0.016470134
67	0x3ca333cd	0.019922161
68	0xbb33a5d7	-0.002741208
69	0xbb724e17	-0.0036972815
70	0xbc86734b	-0.016412398
71	0x3c0a578c	0.008443724
72	0xbc363b06	-0.011122471
73	0xbc6762d9	-0.014122688
74	0xbbb4a8e9	-0.0055132997
75	0xbc0ffd61	-0.008788438
76	0xbc5418c6	-0.01294536
77	0xbc78bbea	-0.015181521
78	0xbcbd308b	-0.023094436
79	0xbd067055	-0.032821972
80	0x3b98acf0	0.0046592876
81	0xbc41486a	-0.01179705
82	0xbc917908	-0.017757908
83	0xbcbbc891	-0.022922786
84	0xbcb1aac8	-0.02168788
85	0xbc9017c7	-0.017589463
86	0xbcfafae5	-0.030637214
87	0xbd3490b5	-0.044083316
88	0xbd19f463	-0.03758658
89	0xbcf66f0d	-0.03008225
90	0x3dbed72b	0.09318384
91	0x3dc4b88b	0.09605511
92	0x3db9bb32	0.09068908
93	0x3d8ad0e4	0.06778124
94	0x3dbae863	0.091263555
95	0x3dd9fca0	0.106438875
96	0x3d91e344	0.071234256
97	0x3d9c1281	0.07620717
98	0x3db02c1b	0.086021625
99	0x3d16dc15	0.03683098
100	0x3d1ea7a6	0.0387341
101	0x3cfce17c	0.030869238
102	0x3cdb2072	0.02674887
103	0x3ce35d6f	0.027754514
104	0x3cc6a5aa	0.024248917
105	0x3ba0b702	0.0049046287
106	0x3b1acf46	0.002362208
107	0xba549dba	-0.00081106613
108	0x3cf8f476	0.030390006
109	0x3cc7301e	0.024314936
110	0x3cb687d0	0.022281557
111	0x3d015098	0.031571
112	0x3cedc871	0.029026242
113	0x3d250309	0.040286098
114	0x3ca658a3	0.020305937
115	0x3d0feb1a	0.03513632
116	0x3d07b52e	0.03313177
117	0x38c9375e	9.59474e-05
118	0xbb52b601	-0.003215194
119	0x3b4f0a9a	0.0031592012
120	0x3c1d2e14	0.009593505
121	0x3c0fc0ee	0.008774025
122	0x3b9cf9a1	0.0047905003
123	0x3c0abaaf	0.00846736
124	0x3bfcd501	0.0077158217
125	0xbbeb4b11	-0.0071805795
126	0x3c9ff6d3	0.019526875
127	0x3c83b8a5	0.016079256
128	0x3c6dda0d	0.014517319
129	0x3c3032a5	0.010754262
130	0x3bf58a93	0.007493326
131	0x3bf1c05c	0.0073776674
132	0x3bb3b2b3	0.005483949
133	0xba7e88e0	-0.0009709727
134	0x3b6da231	0.0036260004
135	0xbd41c836	-0.047310077
136	0xbd85a960	-0.06526446
137	0xbd7dd1a6	-0.061967514
138	0xbd8e97f6	-0.06962578
139	0xbd3df513	-0.0463763
140	0xbca012d9	-0.019540237
141	0xbdcfad3e	-0.10140465
142	0xbdc7a0ee	-0.09747492
143	0xbd9432d4	-0.07236257
144	0x3ce37a15	0.027768174
145	0x3c34e20a	0.01104022
146	0x3c42e8b3	0.0118963
147	0x3d0e33d4	0.034717396
148	0x3cf3636f	0.0297105
149	0x3c8b9aa9	0.017041521
150	0x3d1b5cbb	0.03793023
151	0x3d2526a5	0.040320057
152	0x3d03fb3d	0.03222202
153	0xbd13d0d5	-0.03608783
154	0xbd1e4fd9	-0.038650367
155	0xbd0fc0b0	-0.03509587
156	0xbd21bc1c	-0.039486036
157	0xbd34b6ea	-0.044119753
158	0xbcfea964	-0.031086631
159	0xbd3c56b9	-0.045981143
160	0xbd1dd5d8	-0.038534015
161	0xbcfc41e4	-0.030793138
162	0xbd42b7cf	-0.047538575
163	0xbcfd08ee	-0.030888047
164	0xbc05f1e2	-0.008175345
165	0xbcd378a8	-0.02581437
166	0xbce5cf9d	-0.0280531
167	0xbcdf8b8f	-0.027288226
168	0xbd221434	-0.03957005
169	0x3a4e8227	0.00078776706
170	0xbc23fcae	-0.010008974
171	0x3c47d4b7	0.012196711
172	0x3c0d328e	0.00861801
173	0x3becb740	0.0072239935
174	0x3cd2223e	0.025651094
175	0x3ca77e4b	0.020445963
176	0x3bf2eadb	0.007413251
177	0x3c0512b2	0.008122133
178	0x3c4b645f	0.012414067
179	0x3c38dd91	0.011283294
180	0x3cfd3466	0.030908775
181	0x3d16e2bf	0.036837336
182	0x3d2648f0	0.040596902
183	0x3d862d6a	0.06551631
184	0x3d9899f3	0.074512385
185	0x3d24ed1d	0.04026519
186	0x3d5296af	0.051413234
187	0x3d8bb720	0.06822038
188	0x3d8b6932	0.06807174
189	0x3d8c61dc	0.06854603
190	0x3d90cbb8	0.07070106
191	0x3d9463d3	0.072456025
192	0x3d8b3197	0.06796568
193	0x3d6c58a9	0.05770174
194	0x3d3522ed	0.04422276
195	0x3d40e477	0.04709288
196	0x3d688f81	0.05677748
197	0x3d4d8f10	0.050185263
198	0x3c47b1fa	0.012188429
199	0x3c4676c2	0.012113275
200	0x3b4956e3	0.0030721955
201	0x3c0f1bb8	0.008734636
202	0x3c0f295b	0.008737887
203	0x376d746b	1.41534065e-05
204	0x3c887194	0.01665572
205	0x3cc69cfa	0.024244774
206	0x3c869e2a	0.01643284
207	0xbc318f20	-0.010837346
208	0xbbe5bcc6	-0.007011029
209	0xbd0ac59a	-0.033879854
210	0xbc1e3a69	-0.009657481
211	0xb8e13ae6	-0.00010739807
212	0xbcd90056	-0.026489418
213	0x3cd3c763	0.025851911
214	0x3cfc4581	0.03079486
215	0xbc4d725b	-0.0125394715
216	0x3d32fc6b	0.043697756
217	0x3d3577be	0.04430365
218	0x3d5d2003	0.053985607
219	0x3d0a25ec	0.03372757
220	0x3d0269f1	0.031839315
221	0x3d0fa4ef	0.035069402
222	0x3c95c07e	0.018280264
223	0x3c42028e	0.011841429
224	0x3c929942	0.017895345

exp_avg_sq f4 [5, 5, 3, 3]
0	0x3de676e3	0.112531446
1	0x3ddffd4b	0.10936984
2	0x3d988b05	0.07448391
3	0x3dd25925	0.10270909
4	0x3e00bae6	0.12571296
5	0x3dc7ed73	0.09762087
6	0x3d9b025f	0.075688116
7	0x3dbd31ed	0.09238038
8	0x3db851d9	0.08999986
9	0x3cac8dd2	0.021063719
10	0x3c7b543f	0.01533991
11	0x3c82865a	0.015933204
12	0x3cc42011	0.023941072
13	0x3c9de748	0.019275323
14	0x3c8fdf83	0.017562633
15	0x3cbe5a99	0.02323656
16	0x3cbb79f9	0.02288531
17	0x3cbaed74	0.022818305
18	0x3ce71c95	0.028211871
19	0x3cf9f8e6	0.030514192
20	0x3cb6661c	0.022265486
21	0x3cf4b0a2	0.029869381
22	0x3cc83c40	0.024442792
23	0x3cc91295	0.024544993
24	0x3ca74982	0.020420793
25	0x3cb9ed69	0.022696214
26	0x3cb633f4	0.02224157
27	0x3cf278b5	0.029598573
28	0x3bd2f078	0.0064373575
29	0x3c868921	0.01642281
30	0x3d0b92f0	0.034075677
31	0x3c0fbe66	0.008773422
32	0x3c370a98	0.011171959
33	0x3cd4d3b1	0.025979849
34	0x3c79c63c	0.015245017
35	0x3c105f22	0.008811744
36	0x3bfa386e	0.0076361215
37	0x3bf6e2e8	0.0075343736
38	0x3c079087	0.008274204
39	0x3c1bd1e5	0.009510492
40	0x3c092140	0.008369744
41	0x3c0d09dd	0.008608309
42	0x3c4220dd	0.0118486555
43	0x3c3c9a10	0.011511341
44	0x3c3bbd90	0.011458769
45	0x3e28e145	0.16492184
46	0x3e10842c	0.1411292
47	0x3decd38b	0.11563786
48	0x3e1422fa	0.14466467
49	0x3e0be9d4	0.13663417
50	0x3de8d533	0.113687895
51	0x3dfa6dbd	0.12227962
52	0x3df6dcbb	0.1205382
53	0x3dd96933	0.10615768
54	0x3d1044a5	0.035221715
55	0x3cedd495	0.029032031
56	0x3cdeba8d	0.027188564
57	0x3d2d7c50	0.04235488
58	0x3d0f33e7	0.034961607
59	0x3cfb6b98	0.030690953
60	0x3d2f41d8	0.042787403
61	0x3d161de7	0.03664961
62	0x3d02b472	0.031910367
63	0x3d03aab8	0.032145232
64	0x3cf7e734	0.030261613
65	0x3cf7131d	0.030160481
66	0x3cfa4e5f	0.030554948
67	0x3ce508a3	0.02795822
68	0x3cbf2bea	0.02333637
69	0x3c9eb3bd	0.019372815
70	0x3c8de9bb	0.017323365
71	0x3c8a6973	0.016895985
72	0x3ba5f9ba	0.00506517
73	0x3bf34363	0.0074238046
74	0x3c7b83c6	0.015351241
75	0x3b904db4	0.004403794
76	0x3b82562a	0.0039775567
77	0x3c55a9d8	0.013040982
78	0x3b8fe419	0.004391205
79	0x3ba3f337	0.0050033587
80	0x3c777b0f	0.015105023
81	0x3c8d5a4c	0.017254971
82	0x3c622364	0.013802383
83	0x3c481323	0.012211594
84	0x3c9fdd2f	0.019514648
85	0x3c7bd25d	0.015369979
86	0x3c51f97a	0.0128158275
87	0x3caa713f	0.020805953
88	0x3c88281a	0.016620684
89	0x3c5f76d2	0.013639169
90	0x3d8944d9	0.06702585
91	0x3d7e5e7f	0.062101837
92	0x3d56ed3b	0.052472334
93	0x3d92658a	0.07148273
94	0x3d8487ee	0.06471239
95	0x3d779068	0.06044045
96	0x3da2e65f	0.07954096
97	0x3d8e17c9	0.069381304
98	0x3d7f4723	0.0623237
99	0x3cd3a4c8	0.02583541
100	0x3cd7c838	0.026340589
101	0x3cd844f0	0.02640006
102	0x3cd432bd	0.0259031
103	0x3cdcb0a5	0.0269397
104	0x3cdec787	0.027194751
105	0x3cc5ab8d	0.024129653
106	0x3ccf1412	0.025278125
107	0x3cda92e0	0.026681364
108	0x3c900678	0.01758121
109	0x3c865a49	0.016400473
110	0x3c5ff975	0.013670315
111	0x3cad1c83	0.02113176
112	0x3c96eaad	0.018422449
113	0x3c81f3d1	0.015863331
114	0x3ca52ddf	0.020163475
115	0x3c97b9a6	0.018521141
116	0x3c8ca2f2	0.017167542
117	0x3afdd056	0.0019364457
118	0x3abfc910	0.0014632065
119	0x3a8c1593	0.0010687582
120	0x3a7597df	0.0009368639
121	0x3a440e07	0.0007478897
122	0x3aa8436e	0.0012837478
123	0x3a6a7bf7	0.0008944864
124	0x3a9a89f0	0.0011790376
125	0x3b8ac690	0.0042350963
126	0x3c955557	0.01822917
127	0x3c9b84f8	0.018984303
128	0x3c9fc966	0.019505214
129	0x3c96fbd8	0.018430635
130	0x3c9ea59c	0.019366078
131	0x3c9e50bf	0.019325612
132	0x3c7da746	0.015481776
133	0x3c88f787	0.016719593
134	0x3c89d6b6	0.016826015
135	0x3e24e954	0.16104633
136	0x3e06f71b	0.13180201
137	0x3dda40c9	0.10656888
138	0x3e26715f	0.16254185
139	0x3e123a9f	0.14280175
140	0x3dcb59bc	0.09929225
141	0x3e140459	0.14454783
142	0x3e0d6707	0.13808833
143	0x3e09f339	0.13471688
144	0x3d16d836	0.03682729
145	0x3d18931e	0.037249677
146	0x3d39aade	0.045328967
147	0x3d376cc6	0.04478147
148	0x3d38363b	0.044973593
149	0x3d4302b0	0.047609985
150	0x3d79d34c	0.060992524
151	0x3d98bb20	0.07457566
152	0x3d993451	0.07480682
153	0x3d1b3488	0.037891895
154	0x3d16f2e3	0.03685273
155	0x3ce10b32	0.027471159
156	0x3d3105aa	0.043218292
157	0x3cec8676	0.02887271
158	0x3cd17e16	0.025572818
159	0x3d0db704	0.034598365
160	0x3cf25bfb	0.029584875
161	0x3cc2d3f6	0.023782711
162	0x3d090ffd	0.033462513
163	0x3ca4ba87	0.020108474
164	0x3ceddf32	0.029037092
165	0x3cb949d5	0.022618214
166	0x3c1d95f2	0.009618269
167	0x3c7f4cc9	0.015582272
168	0x3ce870ec	0.028374158
169	0x3ce67d9b	0.028136065
170	0x3c604ac6	0.013689702
171	0x3ca2d6a4	0.01987774
172	0x3cbad347	0.022805823
173	0x3cd0b2ed	0.025475943
174	0x3cb63863	0.022243684
175	0x3cd4e2e1	0.02598709
176	0x3cf4c970	0.02988121
177	0x3cd96a02	0.026539806
178	0x3cf9517e	0.030434366
179	0x3d01c76c	0.031684324
180	0x3e1a398c	0.15061015
181	0x3e187e17	0.1489185
182	0x3e170e59	0.14751567
183	0x3e690fd0	0.22759938
184	0x3e86c7d7	0.2632434
185	0x3e75a2b9	0.23987855
186	0x3e83d647	0.25749418
187	0x3eb481f8	0.35255408
188	0x3eba039b	0.36330876
189	0x3d590e87	0.05299237
190	0x3d6190a9	0.0550696
191	0x3d7a508a	0.061111964
192	0x3d6a090b	0.05713753
193	0x3d5b3fef	0.05352777
194	0x3d58ffb9	0.05297825
195	0x3d7e25c3	0.06204773
196	0x3d884b7a	0.06655021
197	0x3d84c81c	0.0648348
198	0x3d296ebe	0.041365378
199	0x3d246c39	0.04014227
200	0x3d18aec7	0.037276056
201	0x3d4b417f	0.04962301
202	0x3d678798	0.056525797
203	0x3d83ef6b	0.0644215
204	0x3d91c630	0.071178794
205	0x3db4cbf0	0.088279605
206	0x3db7835b	0.08960601
207	0x3d21e801	0.039527897
208	0x3cab4045	0.02090467
209	0x3d00eea0	0.03147757
210	0x3d452f20	0.048140645
211	0x3ca29740	0.019847512
212	0x3d0c5937	0.03426477
213	0x3d9c309f	0.07626461
214	0x3d261f9f	0.0405575
215	0x3cf432ce	0.029809382
216	0x3cd4ba8c	0.025967859
217	0x3cdff025	0.02733619
218	0x3ce7662c	0.028246962
219	0x3c9513d4	0.018197931
220	0x3c9eccd8	0.019384786
221	0x3ca989f0	0.020695657
222	0x3c7259d0	0.014791921
223	0x3c6badf2	0.0143847335
224	0x3c8072b6	0.015679698

exp_avg f4 [5]
0	0xbb17fed8	-0.002319267
1	0xbcd616b8	-0.02613388
2	0x3ceaa6f8	0.02864407
3	0xbae9bcff	-0.0017832814
4	0x3d51d20f	0.051225718

exp_avg_sq f4 [5]
0	0x3d1fcc39	0.03901312
1	0x3d732bb5	0.059367854
2	0x3cfcb0d2	0.030846033
3	0x3ddefd94	0.1088821
4	0x3dd4e191	0.10394586

exp_avg f4 [50, 125]
0	0x3b87e042	0.0041466067
1	0xb7aa8c78	-2.033099e-05
2	0xbade36bb	-0.0016953567
3	0xba3736d7	-0.0006989068
4	0x3b3a960a	0.0028470778
5	0xba1b93e9	-0.0005934821
6	0xba8ebe61	-0.0010890478
7	0xbaad99d6	-0.0013244699
8	0x3c1360bb	0.00899523
9	0x3b0ee5ad	0.0021804378
10	0x3c3e7300	0.011624098
11	0x3a5e9b64	0.0008491783
12	0x3af984d7	0.0019036782
13	0x3a183926	0.00058068556
14	0x3b110e38	0.002213372
15	0x3c3af5ce	0.0114111435
16	0xba2e3c85	-0.00066465914
17	0x3a720122	0.0009231736
18	0x3adac31f	0.0016690231
19	0x3b49dc17	0.003080135
20	0x3c9f8f2e	0.019477453
21	0x3a0e1f54	0.00054215384
22	0x3c38c40d	0.011277211
23	0xba764671	-0.0009394652
24	0xb9c85a41	-0.00038214217
25	0x3a593473	0.00082857086
26	0xbad87067	-0.0016512991
27	0xba0fc6db	-0.0005484649
28	0xbb69bb43	-0.0035664595
29	0xbabc5154	-0.0014367499
30	0x3b1ad1a7	0.0023623498
31	0x3ae76e0f	0.0017656701
32	0x39ac032c	0.0003280876
33	0x393058f7	0.0001681781
34	0xb9adbd47	-0.00033138154
35	0x3a9a02c0	0.0011750087
36	0x3b3a5847	0.0028433965
37	0x3ad11b10	0.00159535
38	0xb881da0b	-6.191813e-05
39	0x3b313dbd	0.0027044856
40	0xbb429532	-0.0029690978
41	0x3980b562	0.00024549203
42	0xbb04dc15	-0.002027278
43	0xbb1c557b	-0.0023854661
44	0xba5b6330	-0.0008368967
45	0x3b8ac4d3	0.004234889
46	0x3b1fc91b	0.0024381343
47	0xbb3fa710	-0.0029243864
48	0x3b044efa	0.0020188675
49	0xba79e6b5	-0.0009532974
50	0x3ac1851a	0.0014764399
51	0x3b1e2e02	0.002413631
52	0xbb81d37d	-0.003961979
53	0xbb44c828	-0.003002653
54	0xbb8ab167	-0.004232574
55	0x39b01139	0.00033582168
56	0x3ad73af2	0.0016420765
57	0x3b0d1dd1	0.0021532665
58	0xbaa1ae6b	-0.0012335306
59	0xbb3f349f	-0.0029175652
60	0xbafde628	-0.001937096
61	0x3a1630da	0.00057293253
62	0xbb18bcfa	-0.0023305998
63	0xba3e850d	-0.0007267751
64	0xba1c00e8	-0.0005951063
65	0xbb9eb40e	-0.0048432415
66	0x3a723435	0.0009239347
67	0x38718ec9	5.7591857e-05
68	0xbb1c56f8	-0.0023855548
69	0x3aae9d42	0.0013322013
70	0xbaaee98c	-0.0013344749
71	0x383a93e7	4.44836e-05
72	0x3adac1e0	0.0016689859
73	0xbabf6d40	-0.0014604703
74	0x3abc65ac	0.0014373562
75	0x397e2f07	0.00024240847
76	0x3aa52072	0.001259817
77	0x3a7f5253	0.00097397453
78	0x3ada6899	0.0016663253
79	0x39ef5483	0.00045648598
80	0xb9e2f557	-0.00043288872
81	0x3ab89032	0.001408106
82	0x399670a0	0.00028694142
83	0x3a6c021c	0.0009003
84	0x3a8c281d	0.0010693107
85	0xb9e28abe	-0.0004320945
86	0x3adbe80b	0.0016777528
87	0xba59294e	-0.0008284048
88	0xba6d82d2	-0.0009060326
89	0x3bcc9d1f	0.006244316
90	0x3b11bdaa	0.0022238293
91	0x3b6de1ad	0.0036297843
92	0x3bb586da	0.005539757
93	0x3c27a472	0.010232078
94	0x3c462273	0.012093174
95	0x3b69e24b	0.003568786
96	0x3b9ae246	0.004726681
97	0x3c034ebf	0.00801438
98	0x3ba9c062	0.0051804045
99	0x3c2b2c2f	0.010447546
100	0xb9078d10	-0.00012927153
101	0xb7be992e	-2.2721095e-05
102	0xba4d4518	-0.0007830425
103	0x3a4d2607	0.0007825796
104	0xb78ad295	-1.6548942e-05
105	0xbad1f39c	-0.0016018036
106	0xb9ce2c9b	-0.00039324615
107	0xbb1292d3	-0.0022365346
108	0xbad53f2a	-0.0016269435
109	0x3bd2ae47	0.006429467
110	0x3c6ebda8	0.014571585
111	0x3aa5bb12	0.0012644252
112	0xbabaae07	-0.0014242538
113	0x3b9de984	0.004819097
114	0x3b86fcc9	0.00411949
115	0x3c690057	0.014221272
116	0x3bae4664	0.00531845
117	0x3b764bc2	0.0037581776
118	0xba7c3a77	-0.0009621749
119	0xbb16d5b2	-0.0023015556
120	0xbb5c2bbd	-0.0033595406
121	0x3b781dbf	0.0037859527
122	0xba7972a6	-0.000951568
123	0x3a66e394	0.00088077155
124	0x3a562156	0.00081684196
125	0x3b7ffa1f	0.0039058996
126	0x3a888930	0.0010416862
127	0xb958b515	-0.00020666824
128	0x375c6037	1.3135424e-05
129	0xb9c7d5fe	-0.00038115674
130	0x3b87642c	0.0041318145
131	0x3b68b7b4	0.0035509886
132	0x3bc6cbb8	0.0060667656
133	0xbb0f8ae0	-0.0021902844
134	0x3a9da95b	0.0012028621
135	0xba96af96	-0.001149642
136	0xbb154906	-0.002277912
137	0xbb2e9a25	-0.002664217
138	0xbb7d4e7a	-0.0038651512
139	0xbb86ffdf	-0.0041198577
140	0x3b4a4a33	0.003086698
141	0xbadd8369	-0.0016900125
142	0x3998d748	0.00029152096
143	0x3b3281e3	0.0027238063
144	0xba98627d	-0.0011626031
145	0x3a105763	0.00055061857
146	0x3aeb6f53	0.0017962254
147	0xba902475	-0.0010997193
148	0x3afbb004	0.0019202237
149	0x3b61387f	0.003436595
150	0x3b29ec10	0.0025928058
151	0x3b40cf0f	0.0029420292
152	0x3b30808c	0.0026932089
153	0x3b16d5bf	0.0023015586
154	0x3b22ca3f	0.0024839786
155	0x3b722e02	0.0036953692
156	0x3b64cc4d	0.0034911812
157	0x3b7b3a3d	0.0038334273
158	0x3be0673e	0.006848245
159	0x3b3169ba	0.0027071075
160	0x3aed5469	0.0018106821
161	0x3b74a71c	0.003733105
162	0x38c5d3c3	9.433136e-05
163	0x3b16a5cf	0.0022987013
164	0xba17c781	-0.0005789921
165	0x3b057f8d	0.0020370216
166	0x3aeeab5d	0.0018209029
167	0x39dfeed3	0.00042711812
168	0x3abce09d	0.0014410202
169	0x3ae32bcd	0.0017331779
170	0x3aa105f4	0.0012285099
171	0x3b0b9ace	0.0021301988
172	0x3add2ea1	0.0016874858
173	0x3ac7a76f	0.0015232394
174	0x3abf7204	0.0014606123
175	0xb892428d	-6.9742186e-05
176	0x3a51237d	0.00079780055
177	0x3b064ab1	0.0020491297
178	0x3b641a4e	0.0034805718
179	0x3aaa1642	0.0012976604
180	0xb90c715e	-0.00013393673
181	0x3b830c58	0.003999274
182	0x3b37ef84	0.0028066346
183	0x3b9e6d89	0.004834835
184	0x3b424e1a	0.0029648603
185	0x3b8ef0b3	0.0043621897
186	0x3b647c58	0.0034864154
187	0x3b7ea9db	0.0038858566
188	0x3b78c7c3	0.0037960864
189	0x3b54e6cf	0.0032486205
190	0x3afb03b1	0.001915088
191	0x3b13aec8	0.0022534598
192	0x3b2dbaa6	0.0026508956
193	0x3b0662f9	0.002050577
194	0x3b251b32	0.0025193212
195	0x3b0e29f6	0.002169249
196	0x3a8e4805	0.0010855204
197	0xbb1c5e4b	-0.0023859914
198	0x3b2aa1b1	0.0026036317
199	0x3a7de64d	0.00096855016
200	0x3ad71332	0.0016408919
201	0x389e8029	7.557899e-05
202	0xba7ff0ec	-0.0009763378
203	0xb8642332	-5.4392214e-05
204	0x39f2da1e	0.00046320347
205	0x365f9160	3.3314209e-06
206	0xb95470f1	-0.0002025997
207	0x3b4e6b91	0.003149722
208	0x3b9a5a4c	0.0047104713
209	0xb9435b61	-0.0001863069
210	0xbaf99e8b	-0.0019044442
211	0x3ac7990c	0.0015228107
212	0xbb252520	-0.002519913
213	0xb89b225f	-7.397378e-05
214	0xb8da25c6	-0.00010402086
215	0xbaac22d3	-0.0013132937
216	0x3a67f64e	0.0008848653
217	0xbb61d56e	-0.003445949
218	0xbb264ed0	-0.0025376566
219	0x395b44aa	0.00020911047
220	0x3be4fcaa	0.0069881277
221	0x3b74c372	0.003734794
222	0x3a34cf68	0.0006897361
223	0x3b6e7cb7	0.0036390254
224	0xba17a5eb	-0.00057849166
225	0x3bb4bcfc	0.0055156928
226	0x3b929f01	0.004474521
227	0x3b36bce9	0.0027883595
228	0xbae74369	-0.0017643991
229	0x3b0ab168	0.0021162871
230	0x3b62e41c	0.0034620827
231	0x3a9700de	0.0011520644
232	0xb8ab2d69	-8.162374e-05
233	0xba1dacf0	-0.00060148444
234	0x3b4605f8	0.003021596
235	0x3a66a64f	0.00087985856
236	0x3b1d3df8	0.0023993235
237	0x3bdc1cbc	0.0067172926
238	0x3bdd624c	0.0067561027
239	0x3b2966b5	0.0025848572
240	0x3baa6994	0.005200574
241	0x38c8cb49	9.574608e-05
242	0x3b32dc41	0.0027291926
243	0x3b603afa	0.003421484
244	0xb8b3bc34	-8.570441e-05
245	0x3bab3e68	0.0052259453
246	0xb9f9a8af	-0.0004761866
247	0x3b36c4ba	0.0027888254
248	0x3a9916a1	0.0011679718
249	0x3b99675d	0.0046815113
250	0xbb7f23db	-0.0038931284
251	0x3b2e66a3	0.002661147
252	0x387de582	6.0533646e-05
253	0x3a9bf0a3	0.0011897277
254	0x3afc1f2a	0.0019235362
255	0xba508697	-0.0007954626
