models/base_model_blocks_3.pth (torch, 34606 bytes, 30 tensors)

conv1.weight f4 [5, 3, 3, 3]
-0.2822563 -0.027003506 0.05317058 -0.19507213 -0.16287507 -0.04668806 -0.15758495 0.12407191
0.14320704 -0.13092443 -0.13212645 -0.0960363 0.20552357 0.01226754 -0.10823187 -0.118302085
-0.13833106 -0.18754207 0.2348491 -0.026108652 0.20893794 0.15209632 0.07884087 0.13181652
0.33561248 0.046196327 0.027152598 0.105496086 -0.026340961 -0.19048919 -0.25796616 -0.05502001
-0.030569155 0.095365964 0.25478846 0.052850388 0.043197166 -0.05684339 0.01907961 -0.21852054
0.20106606 -0.27437347 0.027495304 -0.030486401 0.155607 0.17102084 0.11160445 -0.24059986
-0.16647108 0.1578922 -0.06443415 0.06990196 -0.0070519643 0.28264558 0.40392122 -0.028969608
-0.21981019 0.1351044 -0.21393658 0.02247425 -0.120648116 0.03920362 0.06004477 0.23281056
-0.21264656 -0.24302192 -0.035311777 -0.030215506 0.17804287 0.093894176 0.1016915 -0.05245765
-0.00889534 -0.18221596 -0.23983113 0.02070042 -0.10400758 -0.06561878 -0.22824258 0.16636948
0.372029 0.02978653 -0.03423239 0.3738967 -0.22898974 0.13158661 0.20351554 -0.12332379
-0.17826444 0.27698797 0.019416364 0.024243923 -0.21206337 -0.118669495 0.027852222 -0.1453905
-0.16828527 -0.06690036 0.073337965 0.035371926 0.1143319 -0.10531226 -0.069856085 -0.06307341
0.0790432 -0.20978452 -0.036578115 0.4043913 0.03806412 0.10000129 0.032580238 -0.09469144
-0.08504044 0.05796878 -0.099998936 0.095918484 0.050545894 -0.08598992 0.029224306 -0.14859407
-0.021073248 0.07298182 0.13930298 0.12526257 0.1254636 -0.10845509 0.013624402 -0.021372402
-0.2794328 0.07941168 0.21781687 0.2907998 0.13005608 -0.054455306 -0.051906973
00000000: e683 90be 7536 ddbc 65c9 593d fdc0 47be
00000010: b9c8 26be fb3b 3fbd f35d 21be 6a19 fe3d
00000020: dea4 123e 0e11 06be 284c 07be aeae c4bd
00000030: c574 523e cbfd 483c aca8 ddbd 5d48 f2bd
00000040: a8a6 0dbe 070b 40be 487c 703e d0e1 d5bc
00000050: d4f3 553e 23bf 1b3e 5277 a13d e9fa 063e
00000060: 66d5 ab3e 5c38 3d3d 206f de3c 550e d83d
00000070: 00c9 d7bc 990f 43be 2414 84be a95c 61bd
00000080: 2a6c fabc 3b4f c33d a273 823e a679 583d
00000090: 83ef 303d 9dd4 68bd d84c 9c3c d9c3 5fbe
000000a0: 43e4 4d3e ae7a 8cbe d53d e13c 9ebe f9bc
000000b0: 7157 1f3e 1620 2f3e e090 e43d cf5f 76be
000000c0: 6577 2abe 7eae 213e 0df6 83bd c228 8f3d
000000d0: 2a14 e7bb ecb6 903e c3ce ce3e ac51 edbc
000000e0: ec15 61be cf58 0a3e 3112 5bbe eb1b b83c
000000f0: 5c16 f7bd fa93 203d 81f1 753d e465 6e3e
00000100: 05c0 59be bdda 78be 15a3 10bd 8286 f7bc
00000110: df50 363e 974b c03d a243 d03d d5dd 56bd
00000120: c3bd 11bc d296 3abe 4b96 75be ed93 a93c
00000130: ed01 d5bd 2463 86bd 6cb8 69be c35c 2a3e
00000140: 967a be3e e202 f43c 4337 0cbd 636f bf3e
00000150: 497c 6abe a4be 063e 6166 503e 2f91 fcbd
00000160: f48a 36be 5ed1 8d3e 110f 9f3c 319b c63c
00000170: 2427 59be fe08 f3bd 582a e43c 3fe1 14be
00000180: f952 2cbe 0e03 89bd 3732 963d 27e2 103d
00000190: d826 ea3d f4ad d7bd b510 8fbd a22c 81bd
000001a0: 67e1 a13d c1d1 56be efd2 15bd 600c cf3e
000001b0: 1fe9 1b3d 7acd cc3d db72 053d 96ed c1bd
000001c0: af29 aebd ac70 6d3d 3ecc ccbd e970 c43d
000001d0: 3609 4f3d 7c1b b0bd d067 ef3c 0b29 18be
000001e0: cea1 acbc 7e77 953d 71a5 0e3e d544 003e
000001f0: 8879 003e b41d debd e238 5f3c 2d15 afbc
00000200: d111 8fbe 97a2 a23d 630b 5f3e b6e3 943e
00000210: 6c2d 053e 870c 5fbd 689c 54bd

conv1.bias f4 [5]
0.3641359 0.24273005 0.088174716 0.042683978 0.05088482
00000000: 0570 ba3e 3a8e 783e f294 b43d 65d5 2e3d
00000010: 9a6c 503d

conv2.weight f4 [5, 5, 3, 3]
-0.032704588 0.06790259 0.032843158 -0.058888756 0.117513664 0.034652505 -0.042232573 0.008522979
0.0021926514 -0.05026163 -0.03302324 -0.15526664 0.11325085 -0.020628914 -0.08534158 -0.021170609
-0.06160193 0.067657694 0.08479442 0.0898349 0.105615176 0.17666116 -0.29209715 0.07629562
-0.33524555 0.116355516 0.08244422 0.039701186 0.043915734 0.03548016 0.22593097 -0.10565902
0.10938472 0.2576415 -0.2857545 0.2267767 0.021441115 -0.008127943 -0.09239334 -0.052691203
-0.17380527 -0.036914527 -0.18681097 -0.14186975 -0.14593542 0.24458702 -0.032781843 -0.27072456
0.031954613 0.05400519 -0.15537722 0.067937635 0.0032921655 -0.20495011 0.29801702 -0.09277183
-0.14589293 0.13418917 0.12615547 -0.018615367 0.018225247 0.12439066 0.0808147 0.04550995
-0.10437063 -0.04267277 -0.05477952 0.17018579 -0.022334987 -0.29950574 -0.08552419 -0.012074315
0.042052638 0.22703825 0.01905561 0.07008809 0.026561527 0.1287187 -0.25138745 -0.21412013
-0.06562976 0.09105214 -0.19570474 -0.050000273 0.0790383 -0.013914711 -0.14235495 -0.015917769
0.028281212 0.14052376 0.06874185 0.041984137 -0.17219745 -0.026282456 -0.12018526 0.003235447
0.2972952 0.28796005 0.14865807 0.027092746 0.069781646 -0.027100528 0.08016268 0.14333619
0.14734606 -0.1061798 0.0036735777 0.014736081 -0.10720303 0.06408321 -0.09713863 0.02558189
-0.07846901 0.25123262 -0.15287311 0.0057959375 0.14211656 -0.23375264 -0.059760366 0.020779
-0.39208925 -0.16913974 -0.076338336 -0.35967007 -0.37489542 -0.13846494 -0.094238885 0.031885955
-0.11445342 0.08639301 0.024238776 -0.006849563 -0.03954207 0.06379969 0.032503765 -0.06850365
-0.03576772 0.060201745 -0.1793848 0.04803865 0.015375982 -0.18631005 0.04066163 0.13534471
-0.09651081 0.07539448 0.14576775 0.07742158 0.02596978 0.22770521 -0.08227048 0.033401437
0.15867352 0.20054959 0.36993185 -0.034916267 0.20845337 -0.21201949 0.081195116 0.041039977
0.046754196 -0.14184289 0.046683785 0.14719483 -0.0030291812 -0.040827412 -0.047109105 -0.1333113
-0.14711721 -0.0442536 -0.11894009 0.17011371 0.14189534 -0.057822485 -0.090317674 0.10085433
-0.0092821475 -0.057712883 -0.07465233 -0.12369144 -0.25744846 -0.14503375 -0.025950145 -0.09573879
0.017938605 0.18973203 -0.22910267 0.16358693 0.21823956 -0.22822793 -0.085330196 0.08615515
-0.10118445 0.025794007 0.049210187 -0.014498308 0.26446223 0.29201266 0.21823508 -0.07740372
0.10572464 -0.053680554 -0.07222008 0.04069552 0.021651674 0.19294539 -0.068737775 0.10391281
0.040127717 0.093780845 -0.059865616 -0.10830655 0.037797026 -0.08791728 -0.092008606 -0.120012544
0.2380204 0.008436699 -0.059699412 -0.023047311 -0.008020129 -0.07051386 -0.03242685 -0.16220915
0.032620713
00000000: 3ff5 05bd 8310 8b3d 8c86 063d 5635 71bd
00000010: 01ab f03d c9ef 0d3d 10fc 2cbd f7a3 0b3c
00000020: 96b2 0f3b 24df 4dbd 6043 07bd 38fe 1ebe
00000030: 10f0 e73d f8fd a8bc 91c7 aebd fc6d adbc
00000040: 4e52 7cbd 1e90 8a3d b2a8 ad3d 5cfb b73d
00000050: c54c d83d aae6 343e c28d 95be e140 9c3d
00000060: 4ea5 abbe cd4b ee3d 84d8 a83d b69d 223d
00000070: fce0 333d a553 113d 735a 673e c263 d8bd
00000080: 1905 e03d 96e9 833e 6a4e 92be 2738 683e
00000090: 47a5 af3c 102b 05bc b838 bdbd bbd2 57bd
000000a0: 02fa 31be b033 17bd 604b 3fbe 4e46 11be
000000b0: 1870 15be 0575 7a3e 4146 06bd 699c 8abe
000000c0: d7e2 023d 8c34 5d3d 351b 1fbe e322 8b3d
000000d0: 5fc1 573b 71de 51be b095 983e 28ff bdbd
000000e0: f564 15be e368 093e e62e 013e 417f 98bc
000000f0: 1d4d 953c 88c0 fe3d 2d82 a53d a468 3a3d
00000100: 45c0 d5bd a4c9 2ebd 7d60 60bd 2f45 2e3e
00000110: ddf7 b6bc d158 99be 4e27 afbd 59d3 45bc
00000120: 633f 2c3d b77c 683e 831a 9c3c 588a 8f3d
00000130: 8f97 d93c d6ce 033e dbb5 80be 4f42 5bbe
00000140: e568 86bd 8b79 ba3d d366 48be 16cd 4cbd
00000150: d5de a13d 87fa 63bc 7fc5 11be fb65 82bc
00000160: 00ae e73c 76e5 0f3e 87c8 8c3d 8ff7 2b3d
00000170: 8754 30be 4e4e d7bc b123 f6bd cb09 543b
00000180: 1437 983e 806f 933e d239 183e 9bf1 dd3c
00000190: aee9 8e3d ed01 debc 552c a43d b9c6 123e
000001a0: e3e1 163e cc74 d9bd 68c0 703b 9a6f 713c
000001b0: 438d dbbd 0f3e 833d 9ef0 c6bd 1d91 d13c
000001c0: 5cb4 a0bd 90a1 803e c58a 1cbe d9eb bd3b
000001d0: 0187 113e da5c 6fbe 49c7 74bd b938 aa3c
000001e0: ecbf c8be f832 2dbe 4657 9cbd ad26 b8be
000001f0: 4bf2 bfbe c1c9 0dbe 5100 c1bd d99a 023d
00000200: 8e66 eabd d2ee b03d 6690 c63c 4d72 e0bb
00000210: def6 21bd 69a9 823d ab22 053d a44b 8cbd
00000220: 2c81 12bd 1b96 763d a6b0 37be 2dc4 443d
00000230: 8beb 7b3c 10c8 3ebe cf8c 263d ce97 0a3e
00000240: 76a7 c5bd 6c68 9a3d 2444 153e 358f 9e3d
00000250: 93be d43c 8e2b 693e 6d7d a8bd f2cf 083d
00000260: 507b 223e df5c 4d3e b567 bd3e 5c04 0fbd
00000270: cd74 553e a31b 59be a049 a63d 8919 283d
00000280: 5481 3f3d 433f 11be 7f37 3f3d 3eba 163e
00000290: 3a85 46bb a53a 27bd 7af5 40bd c282 08be
000002a0: e5a5 16be 4343 35bd dd96 f3bd 4a32 2e3e
000002b0: 034d 113e 45d7 6cbd 79f8 b8bd b78c ce3d
000002c0: 2614 18bc 5864 6cbd 52e3 98bd f051 fdbd
000002d0: 49d0 83be ba83 14be 6695 d4bc b312 c4bd
000002e0: fbf3 923c 1d49 423e e499 6abe 5583 273e
000002f0: 317a 5f3e 95b4 69be 99c1 aebd 1c72 b03d
00000300: cb39 cfbd f44d d33c 9f90 493d 508a 6dbc
00000310: 9867 873e af82 953e 0479 5f3e d785 9ebd
00000320: 2986 d83d 24e0 5bbd 1fe8 93bd 58b0 263d
00000330: da5e b13c 7a93 453e 64c6 8cbd 3dd0 d43d
00000340: f65c 243d 2c10 c03d a635 75bd d3cf ddbd
00000350: 0ed1 1a3d fa0d b4bd 026f bcbd 23c9 f5bd
00000360: 9fbb 733e 153a 0a3c 5f87 74bd b7cd bcbc
00000370: dc66 03bc 9269 90bd 04d2 04bd 281a 26be
00000380: 4c9d 053d

conv2.bias f4 [5]
-0.10871522 0.30937052 -0.021541076 0.07872942 -0.0987664
00000000: 16a6 debd d065 9e3e e976 b0bc e43c a13d
00000010: 0a46 cabd

conv3.weight f4 [10, 5, 3, 3]
-0.15275839 -0.13987333 -0.0021009927 -0.050389867 0.08197122 0.1001769 -0.023002075 -0.14583458
-0.18520859 -0.0970854 -0.10247063 -0.07594514 -0.067438714 0.098624244 0.099425 0.050766937
0.26510194 0.23473775 -0.021829534 -0.015404005 0.009581791 0.036064386 -0.1511408 -0.11808892
-0.015086276 -0.3503487 -0.08743268 -0.2395206 -0.06609768 0.010396951 -0.17997967 0.121868104
0.107252255 -0.20581912 0.059892826 0.13370942 -0.11476073 0.01734985 -0.044795454 -0.25315678
-0.07828674 -0.19053037 -0.31233472 -0.10810948 -0.14843227 -0.06670521 -0.19106925 -0.11738902
-0.08093118 -0.15890981 0.093998216 -0.13136978 0.20375429 0.19441822 0.1197322 -0.16006292
0.07235054 0.30610722 -0.12945154 -0.26237842 0.031191401 0.15234773 -0.25917703 -0.064004205
-0.008690622 0.098932974 0.042996995 -0.12859781 0.029214434 0.1645976 0.20920373 -0.16922724
-0.13914427 -0.2955777 -0.36795056 0.3499035 -0.031449053 -0.06293091 0.20337369 0.023880852
0.054833096 -0.086207815 -0.33274493 0.1341575 -0.15964502 -0.16804512 0.19910805 -0.16968532
0.06958911 0.24086718 0.10849594 -0.006358411 0.16023485 -0.11425829 -0.079365276 -0.022639161
0.106284894 0.32337406 0.22297974 -0.014035777 -0.047575545 0.109531865 -0.058275335 -0.0425861
0.0105032 -0.14462821 -0.18500341 -0.25666034 -0.18899925 0.012420124 -0.09578603 0.14228565
0.17588003 0.0901025 -0.3394906 0.13355356 -0.13057019 0.1426205 0.022722857 0.05027324
0.06254555 0.00404366 -0.06123121 -0.02998249 -0.04427571 -0.03798202 0.17521973 0.015369404
0.15628482 0.18912919 0.06681532 -0.053240336 -0.0062010833 -0.097072676 -0.030169003 0.04102686
0.11062652 -0.1060019 0.013380363 -0.042555954 -0.108984254 0.088285856 0.10397731 0.25197956
-0.033307724 0.06498394 0.040473286 -0.029410305 -0.040978756 -0.03238972 0.005538935 -0.012461482
0.011624659 -0.18395914 -0.08871186 0.15708078 0.087652154 0.12573951 -0.14017582 -0.3499183
0.054062743 0.14864832 0.15471217 -0.0012076056 0.0992147 0.044452265 -0.028277602 -0.18405464
-0.19430439 0.0065747253 -0.120448574 0.2348992 0.0068905046 0.1792564 -0.052994307 -0.232778
-0.042490676 0.03365678 0.012701372 0.02890745 0.16522685 0.16854797 0.035556994 -0.050529223
-0.13566908 0.07007765 0.09079642 0.23044235 0.13773729 -0.015248372 5.263997e-05 0.03761737
-0.15423435 0.011419231 -0.17322592 -0.0371751 -0.124980055 -0.07921092 -0.12792133 -0.04581501
-0.118184514 -0.1256303 0.062347695 0.1944959 -0.013356757 -0.12196811 0.18454978 0.14564624
0.08470481 0.0509324 0.0115523245 -0.06112464 -0.022825385 0.2757637 -0.109823056 -0.16582534
-0.019146549 0.18381095 0.13537149 0.034435436 -0.15590206 -0.06464475 0.21812695 0.035448663
0.06992663 -0.04555489 0.174496 0.0073589818 -0.008764385 -0.0790928 -0.018247701 0.25484076
0.032672066 0.30219296 0.06773144 0.0104065435 0.054527327 -0.24674712 -0.10917743 -0.18016374
0.0521788 -0.30359071 -0.16315864 -0.11457581 0.019477434 -0.08362179 0.11327633 0.2103516
0.10339022 -0.2856397 -0.11810682 -0.072423466 0.056468815 0.1378123 0.048826244 0.08273522
00000000: b26c 1cbe f43a 0fbe cfb0 09bb 9b65 4ebd
00000010: 87e0 a73d 8c29 cd3d d96e bcbc a955 15be
00000020: 52a7 3dbe b6d4 c6bd 1fdc d1bd 2089 9bbd
00000030: 4f1d 8abd 82fb c93d 569f cb3d fef0 4f3d
00000040: 71bb 873e 185f 703e dad3 b2bc 1461 7cbc
00000050: f2fc 1c3c 40b8 133d a7c4 1abe 9bd8 f1bd
00000060: 6e2c 77bc e860 b3be e80f b3bd e344 75be
00000070: 385e 87bd f957 2a3c 974c 38be fc95 f93d
00000080: 12a7 db3d 3fc2 52be 2e52 753d 1feb 083e
00000090: ac07 ebbd 4621 8e3c 707b 37bd c49d 81be
000000a0: cc54 a0bd 651a 43be 56ea 9fbe 8168 ddbd
000000b0: a1fe 17be be9c 88bd a8a7 43be a869 f0bd
000000c0: 3fbf a5bd 41b9 22be 2382 c03d cd85 06be
000000d0: f7a4 503e 9215 473e 2836 f53d 89e7 23be
000000e0: 852c 943d 16ba 9c3e f28e 04be 7756 86be
000000f0: 1c85 ff3c 0b01 1c3e dab2 84be a314 83bd
00000100: 1c63 0ebc 5f9d ca3d 9e1d 303d 25af 03be
00000110: 1c53 ef3c 468c 283e 8139 563e e849 2dbe
00000120: d67b 0ebe f655 97be 0464 bcbe 8d26 b33e
00000130: b9d0 00bd ece1 80bd 3141 503e c7a1 c33c
00000140: ab98 603d b98d b0bd 8b5d aabe 9560 093e
00000150: fc79 23be 0514 2cbe fbe2 4b3e fdc1 2dbe
00000160: bc84 8e3d e3a5 763e 1f33 de3d 385a d0bb
00000170: 9b14 243e 4000 eabd 438a a2bd c375 b9bc
00000180: e5ab d93d 4991 a53e cd54 643e 51f6 65bc
00000190: 93de 42bd 3e52 e03d 1eb2 6ebd c36e 2ebd
000001a0: 9d15 2c3c 6b19 14be 8971 3dbe fc68 83be
000001b0: 0589 41be c77d 4b3c 772b c4bd 54b3 113e
000001c0: e519 343e a987 b83d b6d1 adbe 44c2 083e
000001d0: 31b4 05be 1c0b 123e 4925 ba3c 50eb 4d3d
000001e0: e217 803d ae80 843b 94cd 7abd d79d f5bc
000001f0: 725a 35bd 0993 1bbd cd6c 333e f4cf 7b3c
00000200: 2109 203e 15ab 413e 78d6 883d 8a12 5abd
00000210: 7532 cbbb 0ace c6bd fc24 f7bc c80b 283d
00000220: 2890 e23d 8617 d9bd 4f39 5b3c 274f 2ebd
00000230: 2333 dfbd 37cf b43d 0ef2 d43d 7703 813e
00000240: ae6d 08bd 4d16 853d 51c7 253d e1ed f0bc
00000250: 57d9 27bd 15ab 04bd f47f b53b 3e2b 4cbc
00000260: 5b75 3e3c c95f 3cbe 90ae b5bd c9d9 203e
00000270: f982 b33d dcc1 003e 408a 0fbe 7e28 b3be
00000280: e570 5d3d 4437 183e de6c 1e3e 8548 9eba
00000290: 1431 cb3d 9413 363d 6ea6 e7bc d278 3cbe
000002a0: bbf7 46be cb70 d73b bead f6bd 6a89 703e
000002b0: bec9 e13b fd8e 373e 8f10 59bd 5b5d 6ebe
000002c0: b40a 2ebd b1db 093d 6a19 503c 51cf ec3c
000002d0: 3a31 293e d797 2c3e 36a4 113d bbf7 4ebd
000002e0: d6ec 0abe df84 8f3d 79f3 b93d 14f9 6b3e
000002f0: 010b 0d3e 4fd4 79bc bdc9 5c38 ac14 1a3d
00000300: 9cef 1dbe ba17 3b3c 2362 31be eb44 18bd
00000310: 8bf5 ffbd 5639 a2bd cffd 02be 85a8 3bbd
00000320: b90a f2bd 3ba5 00be 4c60 7f3d ef29 473e
00000330: 4dd6 5abc 6bca f9bd 9efa 3c3e 4a24 153e
00000340: b779 ad3d 7e9e 503d f645 3d3c d55d 7abd
00000350: 4dfc babc e630 8d3e e9ea e0bd 1ece 29be
00000360: 39d9 9cbc f038 3c3e d39e 0a3e 2c0c 0d3d
00000370: caa4 1fbe 7764 84bd ac5c 5f3e 9e32 113d
00000380: b135 8f3d c497 3abd 14af 323e 9d23 f13b
00000390: 7f98 0fbc 68fb a1bd 347c 95bc 7d7a 823e
000003a0: 25d3 053d 09b9 9a3e c8b6 8a3d 3580 2a3c
000003b0: 0c58 5f3d 47ab 7cbe 6b98 dfbd d87c 38be
000003c0: 70b9 553d 3e70 9bbe 0f13 27be b9a6 eabd
000003d0: 248f 9f3c e741 abbd 6cfd e73d 6966 573e
000003e0: 40be d33d 5e3f 92be fde1 f1bd c152 94bd
000003f0: d84b 673d ab1e 0d3e 07fe 473d 1571 a93d

conv3.bias f4 [10]
0.2898942 -0.19306782 -0.1687053 -0.18237722 -0.18700312 -0.11939098 0.08015227 -0.14740829
-0.15816677 -0.2608741
00000000: 036d 943e 92b3 45be 15c1 2cbe 18c1 3abe
00000010: bf7d 3fbe 4283 f4bd e026 a43d 33f2 16be
00000020: 78f6 21be 4a91 85be

fc1.weight f4 [50, 10]
0.38261142 -0.032702725 -0.5514203 -0.6348505 -0.42188665 -0.33394253 0.20463997 -0.37580016
0.27277982 -0.5886836 -0.18375467 -0.13391595 -0.4215786 0.086764924 0.06980102 0.072047345
-0.3484238 -0.037800696 -0.104832724 0.4857807 -0.06626457 -0.021442903 0.24228626 0.32786176
0.095241316 -0.6893439 -0.042746585 0.09370566 -0.24686524 0.080481544 -0.5747154 -0.4773326
-0.007769066 0.051461082 0.04658557 0.27678227 -0.55573475 -0.14270973 0.01931446 0.24288149
-0.2812259 0.01679998 0.27821335 0.012653969 0.3309972 0.329706 -0.38565165 -0.3139982
0.061057236 0.24389009 -0.29824683 -0.17234275 0.11305681 0.13332395 -0.22177997 0.2786055
-0.4550193 -0.20318432 0.1503082 0.27213055 -0.10208778 -0.4221377 0.13674279 0.060275353
0.29938543 0.41351485 0.19385652 0.22322163 0.23417751 0.31108263 0.57338154 -0.12685993
-0.5045383 -0.4280221 -0.42323804 -0.42666784 -0.05836153 -0.46042755 -0.26065224 -0.49759865
-0.1321961 -0.00014065727 0.17882837 0.3357297 -0.13780005 -0.24605256 -0.030044617 0.40031317
0.003456324 -0.031938188 0.10078112 0.19192691 -0.525109 -0.3432096 -0.39349195 -0.26129797
0.3117492 -0.50098205 0.02969514 -0.5488146 -0.037307817 0.46153396 0.2905613 -0.1579611
0.47089076 -0.4744175 -0.10397998 -0.18352595 0.12636559 0.20812029 -0.35961595 -0.42940703
0.115416504 0.08915994 0.16004317 0.18007833 -0.35181108 0.19048427 -0.12467634 0.31368247
-0.30208588 -0.009283807 0.14803511 0.11261579 0.11691633 0.1384221 -0.044551723 0.2825261
0.21766816 0.41534016 -0.16262516 0.56932503 -0.089159675 0.16427118 -0.12497065 -0.06955163
-0.2475989 -0.2108058 0.06328105 -0.31500345 -0.17371777 -0.33383545 -0.16916335 0.473305
0.14410707 0.1546673 -0.34435073 0.17461577 -0.16583812 0.37243795 0.7679339 -0.17752734
-0.20050636 -0.1789162 -0.12788554 -0.09574112 0.20130272 -0.21590234 0.20149466 -0.25273737
0.8897773 -0.12749708 -0.21575376 -0.57974094 -0.14077638 -0.097744726 -0.101540156 -0.2692031
0.24522895 -0.47376215 -0.16236112 0.006307388 -0.3477281 -0.089026816 -0.37521008 0.19469747
0.021360818 0.43998423 0.06818815 0.001364609 -0.20390163 -0.106159195 0.28086922 0.37869325
0.054845233 0.08920316 -0.1860586 0.30647853 -0.06816683 0.4171866 0.21040441 0.16199002
-0.3192107 -0.52096564 -0.20610376 -0.18159403 0.33312228 -0.30211994 0.13539821 -0.46697396
-0.3272108 -0.46559992 -0.18001337 0.2995351 0.2238447 0.11442679 -0.53091156 0.050583657
-0.18973035 0.2541744 0.32634303 -0.14170428 -0.5075511 -0.63161 -0.3919095 -0.23092017
0.1844805 -0.42717552 -0.30608267 -0.42871812 0.17371258 0.28101596 -0.21694006 -0.37473497
-0.17263196 0.025093531 0.61855483 -0.073988475 0.17655252 -0.23491214 0.6436544 -0.24075721
-0.05757813 -0.13026588 -0.4045829 -0.31645247 0.02168275 -0.144706 0.2252427 -0.15427712
0.47100827 -0.08190404 0.03276677 0.013887187 -0.26141685 -0.03114268 -0.07835355 0.34972176
-0.16307932 -0.3240503 -0.23424935 -0.25687534 0.06659261 -0.10773626 -0.047108002 0.059109524
00000000: a5e5 c33e 4bf3 05bd e129 0dbf 9085 22bf
00000010: 8701 d8be 84fa aabe 248d 513e e168 c0be
00000020: cca9 8b3e f8b3 16bf 2f2a 3cbe 4321 09be
00000030: 26d9 d7be cfb1 b13d d6f3 8e3d 8f8d 933d
00000040: 9b64 b2be e7d4 1abd 8ab2 d6bd 3fb8 f83e
00000050: b8b5 87bd 07a9 afbc e419 783e 7fdd a73e
00000060: e10d c33d d878 30bf 0b17 2fbd c1e8 bf3d
00000070: 3eca 7cbe 82d3 a43d 8c20 13bf f064 f4be
00000080: a693 febb dbc8 523d 83d0 3e3d 68b6 8d3e
00000090: a244 0ebf 8022 12be 5c39 9e3c edb5 783e
000000a0: d7fc 8fbe 1da0 893c fb71 8e3e 9852 4f3c
000000b0: 7778 a93e 3acf a83e 2274 c5be 5fc4 a0be
000000c0: 2717 7a3d 53be 793e cfb3 98be 9e7a 30be
000000d0: 548a e73d 1386 083e 4a1a 63be 61a5 8e3e
000000e0: 4af8 e8be 8d0f 50be 65ea 193e b254 8b3e
000000f0: 6613 d1bd 6f22 d8be 4d06 0c3e 4ae3 763d
00000100: 0c49 993e 38b8 d33e 5382 463e 3694 643e
00000110: 3bcc 6f3e 3946 9f3e 22c9 123f 92e7 01be
00000120: 6c29 01bf b625 dbbe a8b2 d8be 3574 dabe
00000130: 800c 6fbd 29bd ebbe 3674 85be 40c5 febe
00000140: 6a5e 07be 667d 13b9 c91e 373e c3e4 ab3e
00000150: 751b 0dbe 34f5 7bbe 2120 f6bc d9f5 cc3e
00000160: 7f83 623b 9ed1 02bd 5566 ce3d 7d88 443e
00000170: 8b6d 06bf 2bb9 afbe c777 c9be d9c8 85be
00000180: 979d 9f3e 5c40 00bf 3943 f33c 1d7f 0cbf
00000190: 15d0 18bd 2e4e ec3e 73c4 943e 8ec0 21be
000001a0: 9818 f13e dae6 f2be 75f3 d4bd 3aee 3bbe
000001b0: fb65 013e 7c1d 553e 951f b8be 3ddb dbbe
000001c0: 7d5f ec3d 7d99 b63d 5be2 233e 7466 383e
000001d0: 9520 b4be 4f0e 433e 4f56 ffbd fd9a a03e
000001e0: 00ab 9abe 1c1b 18bc 8496 173e 1ba3 e63d
000001f0: d471 ef3d 86be 0d3e de7b 36bd 43a7 903e
00000200: 67e4 5e3e 77a7 d43e 3687 26be 49bf 113f
00000210: 5999 b6bd b436 283e 9df0 ffbd 1671 8ebd
00000220: 918a 7dbe 7add 57be 7f99 813d 2248 a1be
00000230: 12e3 31be 7bec aabe 2839 2dbe 0855 f23e
00000240: ce90 133e 1b61 1e3e bd4e b0be 7ace 323e
00000250: 78d1 29be 30b0 be3e 5197 443f bac9 35be
00000260: 8a51 4dbe cf35 37be 6df4 02be ec13 c4bd
00000270: 4d22 4e3e 8115 5dbe 9e54 4e3e cb66 81be
00000280: 72c8 633f 988e 02be 8eee 5cbe e769 14bf
00000290: af27 10be 632e c8bd 49f4 cfbd fdd4 89be
000002a0: 4c1d 7b3e f490 f2be fe41 26be 35ae ce3b
000002b0: 6b09 b2be b153 b6bd 891b c0be c65e 473e
000002c0: e2fc ae3c 9d45 e13e 3ba6 8b3d aedc b23a
000002d0: 97cb 50be fe69 d9bd 17ce 8f3e 15e4 c13e
000002e0: 65a5 603d 25b0 b63d 2586 3ebe c1ea 9c3e
000002f0: 0d9b 8bbd 7b99 d53e 4174 573e b6e0 253e
00000300: 966f a3be 015e 05bf dd0c 53be c9f3 39be
00000310: 018f aa3e 77af 9abe d4a5 0a3e 3617 efbe
00000320: 2d88 a7be 1d63 eebe 6d55 38be aa5c 993e
00000330: 8c37 653e 9858 ea3d d2e9 07bf cf30 4f3d
00000340: ac48 42be 2623 823e 6f16 a73e ed1a 11be
00000350: deee 01bf 31b1 21bf 5da8 c8be 5676 6cbe
00000360: 75e8 3c3e c0b6 dabe deb6 9cbe f180 dbbe
00000370: b6e1 313e 53e1 8f3e 8925 5ebe 43dd bfbe
00000380: 6fc6 30be f390 cd3c 9c59 1e3f 4587 97bd
00000390: 2fca 343e cf8c 70be 89c6 243f 0f89 76be
000003a0: 0cd7 6bbd 6b64 05be 7d25 cfbe 0f06 a2be
000003b0: 06a0 b13c cf2d 14be 06a6 663e d2fa 1dbe
000003c0: ff27 f13e 4ebd a7bd 7336 063d 1587 633c
000003d0: 6ed8 85be ef1e ffbc d377 a0bd bb0e b33e
000003e0: 44fe 26be ece9 a5be 10df 6fbe 2a85 83be
000003f0: b561 883d d4a4 dcbd 52f4 40bd d41c 723d

fc1.bias f4 [50]
0.30045483 0.024798436 0.010465355 0.17645475 -0.0205751 0.0037324696 -0.008385001 0.21394159
0.00410208 0.21778196 -0.10085533 0.056172717 0.0039099716 -0.088573165 0.0026848253 0.21111533
0.32317197 -0.015648263 0.03201232 0.34883383 0.0055650435 0.35202304 0.23739623 0.31784406
-0.040635217 -0.16387077 0.089574836 0.035333034 0.23672424 -0.007470232 0.2415884 0.15083925
-0.22583644 0.26079062 0.2758933 0.21848454 -0.044366468 0.079721116 -0.07507969 -0.020223383
0.035472706 0.0027191516 -0.04197585 -0.08031388 -0.030285463 -0.03668137 -0.07531026 0.08173074
0.00109895 -0.09082382
00000000: 37d5 993e 1726 cb3c e176 2b3c 8eb0 343e
00000010: 1d8d a8bc 739c 743b 3e61 09bc 8113 5b3e
00000020: be6a 863b 3c02 5f3e 3d8d cebd 5d15 663d
00000030: 381f 803b d965 b5bd e5f3 2f3b 9e2e 583e
00000040: cc76 a53e c930 80bc 5a1f 033d 599a b23e
00000050: f85a b63b 5d3c b43e ff17 733e 75bc a23e
00000060: 1d71 26bd bdcd 27be 0373 b73d 5fb9 103d
00000070: d767 723e d9c8 f4bb f362 773e 9b75 1a3e
00000080: ab41 67be 5986 853e e341 8d3e 69ba 5f3e
00000090: 9db9 35bd d344 a33d 61c3 99bd 82ab a5bc
000000a0: d44b 113d cb33 323b deee 2bbd 9b7b a4bd
000000b0: 3819 f8bc 343f 16bd 443c 9abd 7262 a73d
000000c0: a50a 903a d701 babd

fc2.weight f4 [3, 50]
0.14633729 -0.44736397 -0.22067186 -0.19089569 -0.12440948 -0.20245229 0.12027399 0.019774962
-0.05539497 0.17345317 0.22591679 -0.10928158 -0.013393026 0.3925291 -0.12315351 0.104875445
0.1085441 -0.1280774 -0.14480905 0.14481652 -0.2477255 0.1667373 0.18397243 -0.045235176
-0.45868403 0.6770528 0.22295113 0.15720338 -0.006469516 0.10931344 0.08933218 -0.24076211
-0.22848715 0.03953455 0.26650122 -0.1644419 0.14018147 -0.2838942 0.14081381 0.018238444
-0.046617918 -0.24229543 0.3295116 0.22480841 -0.23072322 -0.2959991 -0.12931797 0.028697189
-0.089138746 0.19194303 -0.65086836 0.5156829 0.3641037 0.08209863 0.041251954 0.46535704
0.19765894 -0.82509196 0.26205683 -0.57760537 0.22337262 0.103211455 0.1425507 -0.26005816
0.11639952 -0.44498318 -0.36854154 0.44117793 0.008456163 -0.4088692 0.1637758 -0.5610931
-0.15796652 -0.32164308 0.34949785 -0.18374105 -0.2203659 0.22053199 -0.31191126 0.21338591
-0.6182261 0.040106125 0.08351592 -0.48718792 -0.22176374 0.16611405 0.13678624 0.34361878
0.11495165 0.3057792 0.1270765 0.35618675 0.09363125 -0.015310803 0.70112497 0.20203248
0.25358158 0.02127489 0.09101515 -0.040745374 0.22920261 -0.44984075 -0.37682375 -0.09052949
-0.22514625 -0.16012914 0.008836389 0.31944668 -0.1938906 0.11746612 -0.47210777 -0.15456042
-0.11033041 -0.38255286 -0.10200911 0.2595408 0.23761526 -0.40136337 -0.2013424 0.09006472
-0.17177029 0.23565322 0.09545936 0.08087434 0.15672342 -0.42983392 -0.1319808 -0.115620285
0.01480756 -0.1376325 0.16293573 0.23014943 -0.22609495 0.05501539 0.08018377 0.13167615
-0.31388992 -0.17661077 -0.2687401 -0.20113525 -0.15432261 -0.20697841 -0.28111416 -0.21790926
-0.53446645 0.11768774 -0.34806883 -0.18993907 -0.19332069 -0.23739034
00000000: 71d9 153e e40c e5be cef7 61be 297a 43be
00000010: 66ca febd a74f 4fbe 3652 f63d 1aff a13c
00000020: d6e5 62bd b59d 313e bb56 673e 05cf dfbd
00000030: 6c6e 5bbc 93f9 c83e e837 fcbd f0c8 d63d
00000040: 5e4c de3d b926 03be d348 14be c84a 143e
00000050: c1ab 7dbe 2fbd 2a3e 4563 3c3e 8548 39bd
00000060: a2d8 eabe 5553 2d3f 4d4d 643e ecf9 203e
00000070: 3cfe d3bb badf df3d caf3 b63d 588a 76be
00000080: 89f8 69be fbee 213d d972 883e 7563 28be
00000090: bb8b 0f3e 955a 91be 7f31 103e ca68 953c
000000a0: 6ef2 3ebd 4b1c 78be bfb5 a83e 2d34 663e
000000b0: b542 6cbe 328d 97be ee6b 04be 5e16 eb3c
000000c0: 608e b6bd b78c 443e 4f9f 26bf cb03 043f
000000d0: cd6b ba3e 5423 a83d cff7 283d 4743 ee3e
000000e0: 1b67 4a3e 3a39 53bf 502c 863e f2dd 13bf
000000f0: cbbb 643e 8760 d33d d0f8 113e 5826 85be
00000100: df62 ee3d d6d4 e3be 7ab1 bcbe 13e2 e13e
00000110: b88b 0a3c 4e57 d1be d8b4 273e cca3 0fbf
00000120: fac1 21be 67ae a4be 62f1 b23e 9d26 3cbe
00000130: 99a7 61be 23d3 613e d5b2 9fbe d681 5a3e
00000140: 1144 1ebf 5246 243d 650a ab3d b270 f9be
00000150: 0916 63be cd19 2a3e b111 0c3e cdee af3e
00000160: c56b eb3d 178f 9c3e 5820 023e 1c5e b63e
00000170: bec1 bf3d 2ada 7abc ed7c 333f 9ae1 4e3e
00000180: 72d5 813e ae48 ae3c 2766 ba3d 9fe4 26bd
00000190: 17b4 6a3e 8751 e6be 0bef c0be 8667 b9bd
000001a0: bd8c 66be e5f8 23be 80c6 103c 848e a33e
000001b0: 428b 46be 1492 f03d 1cb8 f1be 1645 1ebe
000001c0: e9f4 e1bd f8dd c3be 27ea d0bd 88e2 843e
000001d0: 6a51 733e 807f cdbe b42c 4ebe da73 b83d
000001e0: 8de4 2fbe 144f 713e 3280 c33d 72a1 a53d
000001f0: 1b7c 203e 3113 dcbe fa25 07be 54ca ecbd
00000200: 689b 723c 89ef 0cbe a0d8 263e 4bac 6b3e
00000210: 6f85 67be d157 613d 6337 a43d 1dd6 063e
00000220: 2eb6 a0be 74d9 34be 4d98 89be 66f6 4dbe
00000230: bf06 1ebe 26f2 53be 32ee 8fbe 9b23 5fbe
00000240: cbd2 08bf 4506 f13d 1436 b2be 637f 42be
00000250: dcf5 45be 7416 73be

fc2.bias f4 [3]
-0.0975919 -0.011770233 0.20188734
00000000: 43de c7bd efd7 40bc 8ebb 4e3e

exp_avg f4 [5, 3, 3, 3]
-0.07644962 -0.06412285 -0.034692306 -0.08130946 -0.06224442 -0.027057834 -0.06991074 -0.065313816
-0.04740347 -0.10465274 -0.09436425 -0.064811856 -0.100189485 -0.08391428 -0.05042017 -0.08168332
-0.07931994 -0.060914487 -0.09836766 -0.08910849 -0.06219485 -0.094274156 -0.079007246 -0.04753148
-0.0857325 -0.08368938 -0.06399915 0.010491015 0.025845885 0.03384537 -0.005727275 0.011683181
0.021515476 0.015449869 0.03519172 0.03510041 0.010655214 0.019089218 0.014554815 0.009254869
0.021885376 0.018785542 0.043975975 0.05850799 0.045650125 0.006965783 0.006667965 -0.00664264
0.014701001 0.017889157 0.0039146678 0.059605096 0.06813051 0.04883414 -0.012784632 -0.007702158
-0.012457079 0.046727832 0.041463803 0.020884199 0.051077824 0.042184807 0.021100428 0.010427143
0.020944597 0.016531978 0.06363681 0.06255824 0.042370275 0.066333845 0.061040353 0.043499537
0.037955537 0.050516192 0.052775715 0.09324988 0.089930005 0.07239623 0.107648335 0.09572254
0.07437159 -0.09081923 -0.0808238 -0.053200036 0.015197395 0.00571779 0.025706276 0.0745366
0.07935239 0.08908257 -0.08620846 -0.07034313 -0.040188868 -0.005068196 -0.008031221 0.016642693
0.055323835 0.0650787 0.07511517 -0.11736433 -0.09779877 -0.06569176 -0.052243754 -0.050159268
-0.023855044 0.007268493 0.021442786 0.033150677 0.017136408 0.011777912 0.014730535 0.028117038
0.021868996 0.032651134 0.02452212 0.02830195 0.038785636 0.008376385 0.00809091 0.01157891
0.020990973 0.01822739 0.0292173 0.017356448 0.023750992 0.035293084 0.0036185558 0.0029788597
0.006016822 0.020793373 0.019781303 0.0301675 0.018752513 0.029129181 0.042400517
00000000: 9e91 9cbd d752 83bd 8519 0ebd 9385 a6bd
00000010: 01f4 7ebd 64a8 ddbc 5d2d 8fbd 40c3 85bd
00000020: 242a 42bd 2d54 d6bd 0b42 c1bd 14bc 84bd
00000030: 2530 cdbd 40db abbd 6185 4ebd 9649 a7bd
00000040: 7e72 a2bd 7881 79bd fc74 c9bd 837e b6bd
00000050: 07c0 7ebd cf12 c1bd 8dce a1bd 5fb0 42bd
00000060: 8594 afbd 5665 abbd fd11 83bd 82e2 2b3c
00000070: c0ba d33c 71a1 0a3d ddab bbbb d06a 3f3c
00000080: 3941 b03c 7321 7d3c 3125 103d 73c5 0f3d
00000090: 3593 2e3c fe60 9c3c 5277 6e3c bca1 173c
000000a0: f648 b33c 23e4 993c 2720 343d 13a6 6f3d
000000b0: a0fb 3a3d 3941 e43b f27e da3b 81aa d9bb
000000c0: 78dc 703c 488c 923c 9d46 803b 7924 743d
000000d0: 0288 8b3d 4f06 483d a276 51bc 6262 fcbb
000000e0: c718 4cbc af65 3f3d f3d5 293d 5715 ab3c
000000f0: fb36 513d fac9 2c3d ceda ac3c 9cd6 2a3c
00000100: 0194 ab3c 126e 873c 0454 823d 891e 803d
00000110: 748c 2d3d 0ada 873d 7305 7a3d 922c 323d
00000120: 4477 1b3d 11ea 4e3d 592b 583d cbf9 be3d
00000130: 392d b83d 7a44 943d bb76 dc3d 2e0a c43d
00000140: 2250 983d 6fff b9bd f386 a5bd 48e8 59bd
00000150: 7ffe 783c 4d5c bb3b f895 d23c a5a6 983d
00000160: 8183 a23d ec70 b63d 108e b0bd 0f10 90bd
00000170: 159d 24bd 1c13 a6bb 6295 03bc 4256 883c
00000180: 3f9b 623d fb47 853d fbd5 993d b65c f0bd
00000190: b94a c8bd 6789 86bd 8cfd 55bd ce73 4dbd
000001a0: a76b c3bc 8a2c ee3b c8a8 af3c 01c9 073d
000001b0: a761 8c3c 25f8 403c 5858 713c b455 e63c
000001c0: 9c26 b33c 32bd 053d 9de2 c83c 7ed9 e73c
000001d0: b0dd 1e3d 1b3d 093c bc8f 043c 78b5 3d3c
000001e0: 43f5 ab3c 9b51 953c 1e59 ef3c 1c2f 8e3c
000001f0: 7191 c23c 7b8f 103d 4b25 6d3b f938 433b
00000200: c328 c53b dd56 aa3c 660c a23c d521 f73c
00000210: df9e 993c 52a0 ee3c 2aac 2d3d

exp_avg_sq f4 [5, 3, 3, 3]
0.07002348 0.066244245 0.061113093 0.06918807 0.06705295 0.064320795 0.07422493 0.072016254
0.068470456 0.07338033 0.06920493 0.06363769 0.07142557 0.069406055 0.0665577 0.07535115
0.07312353 0.06999254 0.0704619 0.0666462 0.061739758 0.067869514 0.06647076 0.06393694
0.07052915 0.06869229 0.065898314 0.060038872 0.057839036 0.055781774 0.054563012 0.050940108
0.0480526 0.04993663 0.046876013 0.046089232 0.057484936 0.056823038 0.058110468 0.052865274
0.049737424 0.04959202 0.049506318 0.046644513 0.04810803 0.056043915 0.05635241 0.059551794
0.05134836 0.04865091 0.050233282 0.047626298 0.04463288 0.04728577 0.05218137 0.055040006
0.06060061 0.051036783 0.049717583 0.047168788 0.04905578 0.044910435 0.046234753 0.050487965
0.05781599 0.06522239 0.04981256 0.04986946 0.0462671 0.048561037 0.042225808 0.04117046
0.05801448 0.06864314 0.07609394 0.058485553 0.05928713 0.054320022 0.057398323 0.04814437
0.04413697 0.086240105 0.08375462 0.081056446 0.09078803 0.08215862 0.08019893 0.10878979
0.09524664 0.08965379 0.08944023 0.08641503 0.08336735 0.100984305 0.08995317 0.08421938
0.1241396 0.10810959 0.09755137 0.08929543 0.08542298 0.082129575 0.10143404 0.09024092
0.08351796 0.12409282 0.10812855 0.09710839 0.012997682 0.013040234 0.012971151 0.012750777
0.015093042 0.013881915 0.01277455 0.014926884 0.01467714 0.011160402 0.010907462 0.0119304
0.009663036 0.011523778 0.010575731 0.009750067 0.011181357 0.011231149 0.011041252 0.010546866
0.011738722 0.009052741 0.010366061 0.009602056 0.009086265 0.009940068 0.010151062
00000000: 7868 8f3d 10ab 873d b951 7a3d 7ab2 8d3d
00000010: 0f53 893d 9fba 833d 3d03 983d 427d 933d
00000020: 3d3a 8c3d 6d48 963d 50bb 8d3d 7a54 823d
00000030: 9247 923d c324 8e3d 674f 883d b451 9a3d
00000040: cac1 953d 4058 8f3d 544e 903d ce7d 883d
00000050: d4e2 7c3d 2cff 8a3d d221 883d 5ff1 823d
00000060: 9671 903d 8bae 8c3d b2f5 863d 52eb 753d
00000070: a0e8 6c3d 6e7b 643d 777d 5f3d 93a6 503d
00000080: ced2 443d 5a8a 4c3d 1001 403d 10c8 3c3d
00000090: 5375 6b3d 46bf 683d 3e05 6e3d 4289 583d
000000a0: 78b9 4b3d 0121 4b3d 23c7 4a3d 510e 3f3d
000000b0: ed0c 453d 4e8e 653d c9d1 663d 95ec 733d
000000c0: a852 523d 2d46 473d 6ac1 4d3d cb13 433d
000000d0: f7d0 363d b9ae 413d 22bc 553d a171 613d
000000e0: 5838 783d f20b 513d aaa4 4b3d 0f34 413d
000000f0: b7ee 483d 01f4 373d a760 3d3d 78cc 4e3d
00000100: 76d0 6c3d 5193 853d 4108 4c3d eb43 4c3d
00000110: 9282 3d3d f0e7 463d f8f4 2c3d 5ba2 283d
00000120: 97a0 6d3d c694 8c3d 24d7 9b3d 8c8e 6f3d
00000130: 10d7 723d ac7e 5e3d 811a 6b3d 0833 453d
00000140: f8c8 343d a79e b03d 8b87 ab3d ec00 a63d
00000150: 13ef b93d c742 a83d 563f a43d 2ecd de3d
00000160: ac10 c33d 689c b73d 702c b73d 5dfa b03d
00000170: 80bc aa3d dcd0 ce3d 5e39 b83d 367b ac3d
00000180: e73c fe3d 9068 dd3d 03c9 c73d 86e0 b63d
00000190: 3ef2 ae3d 8d33 a83d a6bc cf3d 3bd0 b83d
000001a0: 770b ab3d 6024 fe3d 8072 dd3d c3e0 c63d
000001b0: 3bf4 543c b5a6 553c f384 543c a3e8 503c
000001c0: ce48 773c f970 633c 594c 513c e48f 743c
000001d0: 6378 703c 1eda 363c 36b5 323c b977 433c
000001e0: b651 1e3c 3ace 3c3c d545 2d3c bfbe 1f3c
000001f0: 0332 373c da02 383c 5ee6 343c c3cc 2c3c
00000200: c553 403c f351 143c 69d6 293c f151 1d3c
00000210: 8fde 143c abdb 223c a450 263c

exp_avg f4 [5]
-0.0007940031 0.0061174566 -0.028591948 -0.008275301 0.0036172415
00000000: a524 50ba f274 c83b a939 eabc 2195 07bc
00000010: 3e0f 6d3b

exp_avg_sq f4 [5]
0.017321438 0.012054043 0.06733844 0.048118636 0.014790226
00000000: b0e5 8d3c 527e 453c bce8 893d 0c18 453d
00000010: b452 723c

exp_avg f4 [5, 5, 3, 3]
0.000717205 0.007971847 0.012308231 0.010525432 0.013307728 0.010836647 0.011454699 0.017822413
0.016463444 -0.017901355 -0.031816192 -0.037698507 -0.0062398594 -0.0020828096 0.003628346 0.0069610025
0.005828583 -0.018914904 -0.035837717 -0.039387982 -0.05012717 -0.033200655 -0.021725604 -0.027729258
-0.006088799 -0.004772896 -0.020793408 -0.018461158 -0.030057998 -0.019688709 -0.033049118 -0.015227977
0.002141996 -0.017832704 0.00327312 0.0037689735 0.012459395 -0.0007221183 -0.009831494 0.012907838
-0.0013724614 -0.009522412 0.017963324 0.014723588 0.0005567426 -0.041656382 -0.055780802 -0.048716623
-0.020074252 -0.026275408 -0.035443578 0.009750882 0.005409135 0.0012810964 -0.0011071564 -0.00029458498
-0.0074970135 0.020223878 0.0064127585 -0.02059519 0.006806688 -0.0013934814 0.022650704 0.026833545
0.022184547 0.022247849 0.04458479 0.022260701 0.028756851 -0.007187907 0.0053854985 0.033750795
0.0068950998 0.004756915 0.0078042317 0.033491895 -0.015891533 0.0010739226 0.010350908 -0.024629055
0.015961176 -0.02052994 -0.008404197 -0.0022062843 0.019424558 0.026520362 0.0012613982 0.019588143
0.015391483 0.00693005 0.00610996 -9.5197815e-05 -0.0113050975 -0.012855607 -0.017007373 -0.012767151
-0.009762694 -0.0071196435 -0.009133619 0.0004276588 -0.013522819 -0.011680741 0.011443257 0.008365643
0.011832613 -0.012738722 -0.014026175 -0.018464524 -0.017757734 -0.017602112 -0.011859388 -0.0009125208
0.007975794 0.019842777 -0.01039023 0.00019416599 -0.0068071284 0.00045244014 -0.0003773568 0.0031710593
-0.0040659835 0.0074405447 0.011050987 0.0023320364 0.0037965223 -0.004864895 0.014369536 0.004925819
0.0010148395 -0.011702432 -0.010592013 -0.011255345 -0.0073394612 -0.0032271917 -0.0030161466 0.0009112519
0.00078488357 0.0060501783 0.019089082 0.018445067 0.0018944108 0.046517454 0.055484638 0.0384919
0.020933785 0.032047056 0.013155239 -0.018264718 -0.019565871 -0.0096529545 0.025117474 0.022106944
0.01395586 -0.01747097 -0.007343856 -0.024418384 -0.033273883 -0.048578873 -0.025728019 -0.027535604
-0.034584444 -0.038217403 -0.035162345 -0.013556703 -0.038834848 -0.021658078 0.0061684838 0.006169469
-0.03573897 -0.02424683 0.008420008 0.06295356 0.06529907 0.040436618 0.055383157 0.05267339
0.05148052 0.03266065 0.013393077 -0.004084674 0.044425678 0.05469025 0.05818823 0.04128314
0.050831504 0.04747175 0.06275301 0.05826704 0.05334981 0.029786024 0.036316458 0.021655861
0.023848334 0.04292803 0.04692171 0.04932633 0.044172365 0.04943219 -0.015335437 0.0033391388
-0.042978887 -0.0026593348 -0.008543978 -0.004992091 -0.0010622063 -0.010793035 -0.0016222785 -0.02486141
0.003214409 0.023860436 0.009586337 0.019110423 0.021462766 0.0010884216 -9.040164e-05 0.02367029
0.07826198 0.075219244 0.06555814 0.02729092 0.04202976 0.026249714 0.03864862 0.029535037
0.03548462
00000000: d002 3c3a 5a9c 023c 76a8 493c dd72 2c3c
00000010: a808 5a3c 318c 313c 7dac 3b3c 4f00 923c
00000020: 58de 863c dda5 92bc b251 02bd c069 1abd
00000030: bc77 ccbb bf7f 08bb 8bc9 6d3b 1f19 e43b
00000040: b3fd be3b 6ef3 9abc 92ca 12bd 4b55 21bd
00000050: 2652 4dbd 69fd 07bd e5f9 b1bc 7828 e3bc
00000060: 8c84 c7bb f465 9cbb f056 aabc db3b 97bc
00000070: 313c f6bc 374a a1bc 835e 07bd c47e 79bc
00000080: bb60 0c3b e415 92bc d781 563b e200 773b
00000090: 7e22 4c3c 8a4c 3dba 4614 21bc 667b 533c
000000a0: 2ae4 b3ba e403 1cbc d227 933c 343b 713c
000000b0: 5df2 113a e29f 2abd 697a 64bd 158b 47bd
000000c0: c272 a4bc 863f d7bc 492d 11bd 2ac2 1f3c
000000d0: 1d3f b13b 76ea a73a 011e 91ba 8772 9ab9
000000e0: 82a9 f5bb 8cac a53c 1e22 d23b 3eb7 a8bc
000000f0: a30a df3b 7aa5 b6ba f88d b93c 06d2 db3c
00000100: 5ebc b53c 1f41 b63c 8a9e 363d 135c b63c
00000110: 7d93 eb3c 8988 ebbb d678 b03b 463e 0a3d
00000120: 4af0 e13b e5df 9b3b a4ba ff3b cc2e 093d
00000130: f62e 82bc ddc2 8c3a db96 293c dfc2 c9bc
00000140: 03c1 823c 682e a8bc c2b1 09bc 4f97 10bb
00000150: 4020 9f3c 3b41 d93c 8055 a53a 5077 a03c
00000160: 8f2c 7c3c 7915 e33b 0f36 c83b f0a4 c7b8
00000170: 0439 39bc 53a0 52bc 0c53 8bbc 502d 51bc
00000180: b5f3 1fbc e64b e9bb 2da5 15bc 6437 e039
00000190: d08e 5dbc 9460 3fbc 807c 3b3c 0d10 093c
000001a0: 93dd 413c 13b6 50bc 0bce 65bc ea42 97bc
000001b0: ab78 91bc 4e32 90bc e14d 42bc 3c36 6fba
000001c0: e8ac 023c 528d a23c c93b 2abc 0999 4b39
000001d0: 550e dfbb 7d35 ed39 f9d7 c5b9 8cd1 4f3b
000001e0: f13b 85bb d0cf f33b 330f 353c 14d5 183b
000001f0: 13cf 783b b269 9fbb 346e 6b3c c468 a13b
00000200: 5d04 853a 8fbb 3fbc 1f8a 2dbc 5768 38bc
00000210: dd7f f0bb 4b7f 53bb 8baa 45bb 14e1 6e3a
00000220: a5c0 4d3a 9340 c63b b560 9c3c 1c1a 973c
00000230: e14d f83a 1689 3e3d dc43 633d afa9 1d3d
00000240: 547d ab3c c643 033d 1289 573c e49f 95bc
00000250: 9b48 a0bc 6d27 1ebc 29c3 cd3c 9f19 b53c
00000260: 1fa7 643c 481f 8fbc bba4 f0bb 1009 c8bc
00000270: 324a 08bd a4fa 46bd 91c3 d2bc 5992 e1bc
00000280: 6ba8 0dbd da89 1cbd 6406 10bd ef1c 5ebc
00000290: 4a11 1fbd 486c b1bc fe20 ca3b 4229 ca3b
000002a0: 0763 12bd 4aa1 c6bc 13f4 093c cced 803d
000002b0: 85bb 853d dea0 253d 73d9 623d 0dc0 573d
000002c0: 3ddd 523d 2cc7 053d a36e 5b3c bbd8 85bb
000002d0: b3f7 353d e202 603d c856 6e3d 8318 293d
000002e0: b234 503d bd71 423d a684 803d 6ba9 6e3d
000002f0: 5585 5a3d d201 f43c 91c0 143d a267 b13c
00000300: 955d c33c 4dd5 2f3d fb30 403d 680a 4a3d
00000310: 15ee 343d 6879 4a3d 7c41 7bbc 74d5 5a3b
00000320: a10a 30bd 3c48 2ebb 0bfc 0bbc b294 a3bb
00000330: bb39 8bba 45d5 30bc a2a2 d4ba 28aa cbbc
00000340: d6a8 523b f676 c33c 0310 1d3c 768d 9c3c
00000350: afd2 af3c 5ea9 8e3a 0396 bdb8 32e8 c13c
00000360: d147 a03d 8c0c 9a3d 5943 863d 3591 df3c
00000370: 6627 2c3d a409 d73c 044e 1e3d 76f3 f13c
00000380: 5258 113d

exp_avg_sq f4 [5, 5, 3, 3]
0.041336622 0.043290194 0.044135053 0.036027107 0.039467312 0.03520109 0.03171546 0.028580109
0.03165625 0.023708556 0.027742302 0.02538812 0.023849213 0.01312486 0.013981798 0.012413049
0.019231636 0.024137953 0.04165834 0.038624264 0.036633633 0.0444875 0.020205053 0.032628596
0.01881155 0.06026217 0.058835138 0.048193093 0.044789046 0.04031171 0.08042843 0.028402552
0.06858039 0.07757013 0.035003554 0.08460209 0.018136354 0.020861628 0.021641226 0.010064797
0.010093545 0.007959255 0.0045469967 0.0042265807 0.0043247407 0.03959977 0.036432363 0.027735945
0.03364139 0.033302486 0.030376159 0.030595409 0.027117062 0.026932286 0.043557737 0.026008762
0.027449355 0.04519133 0.0444283 0.037354328 0.020929921 0.026056608 0.026110116 0.050849225
0.026278863 0.02979704 0.05140105 0.06599113 0.044312283 0.022603508 0.0465112 0.045747332
0.042534776 0.04981208 0.054954406 0.04729696 0.031638317 0.047860492 0.030472554 0.029661143
0.042156927 0.029924814 0.025066854 0.026544899 0.034526445 0.03146817 0.025764821 0.028650029
0.027986947 0.025772888 0.012765312 0.011427402 0.010119216 0.010960592 0.010579195 0.01024899
0.009185191 0.00882596 0.008631225 0.008425739 0.008574564 0.006155034 0.014535562 0.015682574
0.015765335 0.007851692 0.008761569 0.01012316 0.0067302883 0.007923434 0.005721837 0.013027582
0.013403148 0.018809652 0.0067186877 0.009225461 0.01293006 0.0023536594 0.0040397462 0.005990786
0.0016838553 0.0020415625 0.0036828753 0.0019635265 0.001980969 0.0041266773 0.007871812 0.0067952904
0.0052471957 0.0108337365 0.010222527 0.008214988 0.011393405 0.01082214 0.009916988 0.03343808
0.034718562 0.03599452 0.028848056 0.031677853 0.033877455 0.025138661 0.028203504 0.030146679
0.012045925 0.012849989 0.012588424 0.01342629 0.012369574 0.013231053 0.012957136 0.013645201
0.015172226 0.01234948 0.015042392 0.009840358 0.014231149 0.009779439 0.013474361 0.012270556
0.011858463 0.011146896 0.010645794 0.015125544 0.007739089 0.011112933 0.01385223 0.009694808
0.011413572 0.013830692 0.010437507 0.02637218 0.026689576 0.028053842 0.023126962 0.023426663
0.024354888 0.020722266 0.020278519 0.020770382 0.023973098 0.025757667 0.027834926 0.027954932
0.031821188 0.036679506 0.031504776 0.040556412 0.049246505 0.020615557 0.01609388 0.021872677
0.023327699 0.023902118 0.02895487 0.059258804 0.087136686 0.077264965 0.030456722 0.022142602
0.03423945 0.02946399 0.03698155 0.037179813 0.06664291 0.10174111 0.060222343 0.028408883
0.023264365 0.04338231 0.02022701 0.0186094 0.05416945 0.024894617 0.025288599 0.025817428
0.03614604 0.032553364 0.028788533 0.024288833 0.016561713 0.015418462 0.030044934 0.03184456
0.034796942
00000000: 9750 293d 0f51 313d f5c6 343d 2991 133d
00000010: 7aa8 213d 052f 103d 12e8 013d d520 ea3c
00000020: fca9 013d 7238 c23c d343 e33c bffa cf3c
00000030: 6d5f c33c a709 573c e913 653c 1a60 4b3c
00000040: aa8b 9d3c f5bc c53c efa1 2a3d 7a34 1e3d
00000050: 260d 163d 8638 363d 1185 a53c 90a5 053d
00000060: ae1a 9a3c 77d5 763d 1dfd 703d 1f66 453d
00000070: b874 373d e41d 253d a9b7 a43d 78ac e83c
00000080: e073 8c3d 17dd 9e3d e35f 0f3d dc43 ad3d
00000090: b192 943c 01e6 aa3c f148 b13c d1e6 243c
000000a0: 655f 253c 8967 023c f9fe 943b 217f 8a3b
000000b0: 8eb6 8d3b 5e33 223d 1a3a 153d 7e36 e33c
000000c0: 8ecb 093d 3068 083d 6cd7 f83c 39a3 fa3c
000000d0: 9a24 de3c 19a1 dc3c 9969 323d 5410 d53c
000000e0: 78dd e03c 8b1a 393d 73fa 353d da00 193d
000000f0: 3a75 ab3c ab74 d53c e2e4 d53c 4747 503d
00000100: c546 d73c ec18 f43c e889 523d 5c26 873d
00000110: cc80 353d fe2a b93c 8782 3e3d 8e61 3b3d
00000120: f238 2e3d c007 4c3d df17 613d 75ba 413d
00000130: 2e97 013d 5d09 443d 94a1 f93c edfb f23c
00000140: beac 2c3d e224 f53c 0159 cd3c b074 d93c
00000150: 9a6b 0d3d c5e4 003d bf10 d33c 77b3 ea3c
00000160: e244 e53c aa21 d33c 9925 513c ff39 3b3c
00000170: 11cb 253c 0e94 333c 5c54 2d3c 61eb 273c
00000180: 7c7d 163c c29a 103c fb69 0d3c 1c0c 0a3c
00000190: 547c 0c3c 2bb0 c93b 9126 6e3c be78 803c
000001a0: 4e26 813c 62a4 003c af8c 0f3c 9cdb 253c
000001b0: c089 dc3b 4ad1 013c 3f7e bb3b a471 553c
000001c0: e198 5b3c b316 9a3c 7028 dc3b 6326 173c
000001d0: 9ad8 533c da3f 1a3b d95f 843b 5b4e c43b
000001e0: cfb4 dc3a bccb 053b 655c 713b 82ae 003b
000001f0: 25d3 013b 1439 873b c6f8 003c 07ab de3b
00000200: abf0 ab3b fc7f 313c 637c 273c 2898 063c
00000210: 67ab 3a3c 584f 313c dd7a 223c 5ef6 083d
00000220: 0d35 0e3d fd6e 133d c252 ec3c a3c0 013d
00000230: 16c3 0a3d 98ef cd3c 090b e73c 2bf6 f63c
00000240: 455c 453c c388 523c ad3f 4e3c f1f9 5b3c
00000250: c1a9 4a3c 0fc7 583c 2b4a 543c 1f90 5f3c
00000260: ee94 783c 7955 4a3c 5d74 763c 7439 213c
00000270: c429 693c f139 203c 91c3 5c3c 710a 493c
00000280: 004a 423c 78a1 363c b26b 2e3c 21d1 773c
00000290: 2f98 fd3b 0513 363c 77f4 623c f9d6 1e3c
000002a0: feff 3a3c 209a 623c 1402 2b3c 780a d83c
000002b0: 19a4 da3c 2cd1 e53c c174 bd3c 46e9 bf3c
000002c0: e783 c73c bec1 a93c 231f a63c a626 aa3c
000002d0: 3b63 c43c be01 d33c 1206 e43c be01 e53c
000002e0: ef56 023d 403d 163d 270b 013d 7b1e 263d
000002f0: b4b6 493d f5e1 a83c 50d7 833c 542e b33c
00000300: bb19 bf3c 60ce c33c c332 ed3c 5cb9 723d
00000310: b874 b23d 183d 9e3d 6080 f93c 6764 b53c
00000320: aa3e 0c3d 775e f13c f779 173d dc49 183d
00000330: 147c 883d a55d d03d b4ab 763d bfb9 e83c
00000340: e994 be3c a6b1 313d 1db3 a53c be72 983c
00000350: c9e0 5d3d ccef cb3c 092a cf3c 127f d33c
00000360: df0d 143d ad56 053d eed5 eb3c 60f9 c63c
00000370: 6eac 873c b89d 7c3c cb20 f63c 716f 023d
00000380: 3d87 0e3d

exp_avg f4 [5]
-0.014147374 -0.008264962 0.004757411 -0.016118817 0.03901881
00000000: 63ca 67bc c369 07bc 0ee4 9b3b 9c0b 84bc
00000010: 30d2 1f3d

exp_avg_sq f4 [5]
0.11032072 0.10300793 0.015434337 0.024537124 0.10128595
00000000: d4ef e13d d2f5 d23d 4de0 7c3c 1402 c93c
00000010: 026f cf3d
