models/base_model_nfeatures_15.pth (torch, 271286 bytes, 24 tensors)

conv1.weight f4 [15, 3, 3, 3]
-0.2706581 0.03539554 0.31486437 -0.30883056 -0.25804776 0.2327858 -0.20128258 0.005105177
0.23506656 -0.20145425 -0.13514166 0.088134564 0.11210827 -0.062194195 0.13656925 -0.042615123
-0.13910618 -0.009512741 0.05433989 -0.13436142 0.23021835 -0.058452494 -0.098676965 0.19411713
0.24074535 -0.11675389 -0.021744955 0.042868335 -0.111685924 -0.19874078 -0.27753696 -0.21955267
-0.030807141 0.10019352 0.15763931 -0.082705945 0.0024141879 -0.114259794 0.029155541 -0.15049297
0.11625853 -0.20177676 0.12327934 -0.032958582 0.11751701 0.17727473 0.14113176 -0.11422245
-0.07731015 0.13549358 0.09337835 0.15677121 0.002540246 0.27954987 0.043733377 0.0021044044
-0.15450716 -0.037394643 -0.20372105 -0.023113852 -0.21482234 -0.054482877 -0.027635245 -0.0018691749
-0.112038404 -0.14562935 -0.05250387 0.04267182 0.15281893 0.22652382 0.10725132 -0.06952552
-0.18031098 -0.05282474 -0.082796425 -0.006985269 -0.07968207 -0.10307738 -0.1263821 0.07339432
0.25089437 -0.021303609 -0.13773681 0.17377739 -0.020996606 0.14180392 -0.03596214 0.25117692
-0.08646239 0.028049994 0.21089278 0.1645168 -0.14992262 0.21703444 0.19187954 -0.18419416
0.20106362 0.06502824 -0.07907898 -0.029827261 0.002128964 -0.26148903 -0.043817587 -0.18228565
-0.18048745 -0.17422917 -0.20839109 0.0060866657 0.16549267 0.07352042 0.03166787 -0.09259595
-0.13662428 -0.10132031 -0.21982315 0.16567028 0.09926388 0.16591468 0.024810636 -0.22743444
0.10523489 0.059561737 -0.09656657 0.035864078 0.20969154 -0.1328097 0.21282431 -0.07550711
-0.41444123 0.21237773 0.14346027 -0.04760943 0.08274597 -0.0052611493 -0.17455924 0.277445
-0.18624121 -0.19000538 0.21600896 -0.20701122 0.03689593 0.04709173 -0.17318806 0.06396722
0.23602521 -0.03765095 -0.041517086 0.0073255436 -0.3323065 0.08104697 -0.05227524 -0.24105169
0.26878187 0.16807047 -0.023688545 -0.10043691 -0.011106465 -0.023040509 -0.014483821 0.060432084
-0.098614715 0.2761711 -0.3298523 -0.05042575 -0.22824839 0.124239236 0.08179699 0.16177164
0.15907434 0.2696661 0.20976327 -0.17386174 0.036489915 -0.010130184 -0.27030185 0.03915412
0.0047078007 0.10670983 0.05347573 -0.020882806 -0.20934755 0.018403826 -0.04636938 -0.02190361
0.17211933 0.1675712 0.04310891 0.020037195 -0.03874074 0.15605627 0.07266162 -0.017619945
0.23097928 0.15445824 0.28366974 -0.26860803 -0.031236576 0.21427847 0.14412896 -0.017835159
-0.12803034 -0.11586656 0.083561935 0.058150835 -0.32068992 0.029200172 0.0748551 0.20520824
0.03131138 -0.15715711 -0.03964164 0.09646177 0.0073056757 0.025946029 -0.13264544 -0.062036943
-0.21805374 -0.11449109 -0.16256322 -0.221481 0.009572994 0.0008012284 -0.2081696 -0.21186559
0.08457928 0.07508011 -0.016279574 0.068538204 0.015736258 0.062157616 0.044685565 0.15669344
-0.109879844 -0.15962262 0.0146340225 0.17808373 0.06854177 0.28279138 0.16953851 0.09937128
0.16026178 0.20124404 0.06462725 0.100280836 -0.05365639 -0.32031736 0.11096648 0.13982025
-0.15534577 0.09904553 0.015263941 0.06387399 -0.16451788 -0.046601593 -0.17051816 0.15439323
00000000: b393 8abe eafa 103d e735 a13e 0a1f 9ebe
00000010: d61e 84be 675f 6e3e 051d 4ebe 5449 a73b
00000020: 4ab5 703e 064a 4ebe 9362 0abe e57f b43d
00000030: 0599 e53d 57bf 7ebd cfd8 0b3e 328d 2ebd
00000040: da71 0ebe 54db 1bbc 8193 5e3d 0a96 09be
00000050: 5cbe 6b3e e26b 6fbd 2617 cabd a4c6 463e
00000060: f385 763e aa1c efbd 7a22 b2bc b596 2f3d
00000070: 97bb e4bd b482 4bbe 5319 8ebe 6ad2 60be
00000080: 425f fcbc 4332 cd3d 336c 213e bc61 a9bd
00000090: 5a37 1e3b 0a01 eabd 9ad7 ee3c d41a 1abe
000000a0: f418 ee3d 919e 4ebe e179 fc3d 94ff 06bd
000000b0: c2ac f03d 8287 353e d884 103e 76ed e9bd
000000c0: c954 9ebd d4be 0a3e 263d bf3d a288 203e
000000d0: 417a 263b 2921 8f3e c521 333d 0cea 093b
000000e0: 2037 1ebe 202b 19bd 409c 50be 4359 bdbc
000000f0: 63fa 5bbe 7029 5fbd 4f63 e2bc 1aff f4ba
00000100: 6474 e5bd dc1f 15be 4c0e 57bd a5c8 2e3d
00000110: 917c 1c3e dcf5 673e 94a6 db3d 6563 8ebd
00000120: 71a3 38be c15e 58bd 2c91 a9bd afe4 e4bb
00000130: 5a30 a3bd 3c1a d3bd 4f6a 01be c34f 963d
00000140: 3a75 803e e884 aebc e10a 0dbe b3f2 313e
00000150: 1301 acbc 0c35 113e 094d 13bd 439a 803e
00000160: 3213 b1bd 1ac9 e53c 47f4 573e 1877 283e
00000170: 5185 19be 473e 5e3e 127c 443e 659d 3cbe
00000180: 9fe3 4d3e 872d 853d 29f4 a1bd 4d58 f4bc
00000190: 1786 0b3b e4e1 85be 127a 33bd 17a9 3abe
000001a0: b4d1 38be 2269 32be 7964 55be a772 c73b
000001b0: e976 293e e091 963d 2bb6 013d f2a2 bdbd
000001c0: 3ce7 0bbe 0681 cfbd 5219 61be 78a5 293e
000001d0: dc4a cb3d 8ae5 293e ad3f cb3c 93e4 68be
000001e0: 6485 d73d 02f7 733d b2c4 c5bd 36e6 123d
000001f0: 61b9 563e 44ff 07be 9eee 593e 79a3 9abd
00000200: a431 d4be 8c79 593e 40e7 123e 1b02 43bd
00000210: b876 a93d b865 acbb a8bf 32be 450d 8e3e
00000220: 04b6 3ebe c590 42be 7431 5d3e c0fa 53be
00000230: 3020 173d 42e3 403d 3658 31be 3f01 833d
00000240: 98b0 713e e237 1abd d20d 2abd 1d0b f03b
00000250: 1424 aabe f4fb a53d 901e 56bd 41d6 76be
00000260: c79d 893e aa1a 2c3e 7b0e c2bc deb1 cdbd
00000270: e4f7 35bc 73bf bcbc 8c4d 6dbc a287 773d
00000280: 83f6 c9bd 4c66 8d3e 67e2 a8be 3b8b 4ebd
00000290: f2b9 69be 2471 fe3d 2e85 a73d 77a7 253e
000002a0: 62e4 223e ad11 8a3e 2fcc 563e d008 32be
000002b0: 7376 153d 12f9 25bc 0165 8abe 1260 203d
000002c0: e543 9a3b af8a da3d 5e09 5b3d 6b12 abbc
000002d0: 345f 56be 9fc3 963c d2ed 3dbd 336f b3bc
000002e0: 0d40 303e c997 2b3e f892 303d 0b25 a43c
000002f0: 9cae 1ebd 37cd 1f3e 9ecf 943d b457 90bc
00000300: d585 6c3e 4d2a 1e3e 293d 913e fe86 89be
00000310: d9e3 ffbc d16b 5b3e 8b96 133e 0a1b 92bc
00000320: 631a 03be 724b edbd 8522 ab3d 922f 6e3d
00000330: 7831 a4be 3335 ef3c a14d 993d 1c22 523e
00000340: 5d40 003d cbed 20be 465f 22bd c08d c53d
00000350: 7364 ef3b c48c d43c 35d4 07be 731a 7ebd
00000360: 7b49 5fbe 4e7a eabd f976 26be eacb 62be
00000370: 0cd8 1c3c 8709 523a 692a 55be 4bf3 58be
00000380: e737 ad3d 9ac3 993d be5c 85bc c25d 8c3d
00000390: 53e9 803c fc98 7e3d 3608 373d 3f74 203e
000003a0: af08 e1bd 1d74 23be 8ac3 6f3c 955b 363e
000003b0: a15f 8c3d 08ca 903e 819b 2d3e 2b83 cb3d
000003c0: aa1b 243e eb12 4e3e 4b5b 843d 0a60 cd3d
000003d0: cec6 5bbd a300 a4be 6542 e33d 0a2d 0f3e
000003e0: f612 1fbe 62d8 ca3d 9c15 7a3c 5ed0 823d
000003f0: 6077 28be 50e1 3ebd 509c 2ebe 4219 1e3e

conv1.bias f4 [15]
-0.07661374 -0.1510702 0.08423798 0.049387034 -0.04049985 -0.017543135 0.22119877 -0.23771398
0.12960576 -0.007784206 -0.0047741057 -0.36330557 -0.1690352 0.24076526 -0.11621672
00000000: aae7 9cbd 26b2 1abe f684 ac3d 0f4a 4a3d
00000010: 2ce3 25bd 9fb6 8fbc ee81 623e 4b6b 73be
00000020: 5fb7 043e a712 ffbb 1a70 9cbb 3003 babe
00000030: 9017 2dbe 2b8b 763e 0803 eebd

conv2.weight f4 [15, 15, 3, 3]
0.2226046 -0.14339249 -0.031481262 0.21641095 -0.054363277 -0.007878366 -0.26201963 -0.15634304
0.016155984 -0.06997459 -0.044348937 0.05764993 -0.17306821 0.08474024 0.08383299 0.10514984
0.014540137 -0.025430154 0.006649362 -0.029306697 0.07708417 -0.107190296 -0.08491958 -0.06933491
-0.13177502 0.05464973 0.04402551 0.020581966 0.05406465 0.049451433 0.044361696 -0.08354054
-0.12098848 0.068866245 -0.21686363 -0.16421819 -0.07126071 -0.20027885 -0.08077283 0.15161952
0.133682 0.078663595 0.04523883 -0.10595541 -0.06493298 -0.028289892 -0.083896115 0.15828334
-0.03140966 0.07944811 0.17908016 0.09206132 0.06860659 -0.061626464 -0.13014974 -0.08718983
-0.12859365 -0.10269186 -0.09988901 0.048728727 -0.0072710514 0.079053074 0.121028736 0.13420047
-0.011156023 0.0719514 -0.038001787 -0.041793425 -0.07602869 0.006880435 0.08424802 0.012887696
-0.06693056 0.012367138 0.06258975 0.0017607156 0.101552226 0.03717305 0.060529705 0.07632869
0.042602986 -0.16090764 -0.17019394 -0.07303134 -0.07695266 0.0011640015 0.09870594 0.031191489
0.061928175 0.07062213 -0.05740493 0.040766083 0.14722277 -0.057773754 -0.037462063 0.0647523
-0.011686566 0.11575876 0.020388465 0.12095889 0.10031573 0.11226396 -0.02407605 -0.079655744
-0.010735158 0.15943451 0.06070411 0.03963429 -0.1026239 -0.14435756 -0.080609925 0.009639822
0.07193709 0.05245913 0.031127525 0.038679995 -0.033934627 -0.1387651 -0.009027433 0.031329352
-0.124847114 -0.010040488 -0.046474766 -0.01542354 0.08494113 -0.09385858 -0.086078145 -0.0650127
-0.015917402 -0.08907664 0.052515205 0.13451754 0.056001544 0.13622306 0.050342556 0.05785586
0.09554209 0.11954795 -0.06295283 0.096107095 -0.06522262 0.07568842 -0.13930511 -0.15658651
-0.20628145 -0.009948335 -0.048710257 -0.2591658 -0.0859724 -0.05167157 -0.013821632 0.07766845
0.035016228 0.13820156 0.09674108 -0.15114175 0.08678055 0.025683504 0.030526912 0.10073573
-0.036333386 -0.01933352 0.063576475 0.023171265 -0.057407245 -0.006674392 -0.12597987 0.090942025
0.1462411 -0.067307964 -0.070690595 -0.047562726 -0.046799734 0.07583561 -0.021047244 -0.19444682
0.046595465 -0.08652001 -0.11680476 -0.15665424 0.08670998 0.20361334 -0.009755661 0.11201494
0.08067933 0.22950923 0.26473323 -0.16075397 -0.08427844 -0.04886831 0.057770893 -0.07184019
-0.17332147 0.019675862 0.022474408 -0.0723191 0.028502924 -0.069516815 0.027333066 -0.09231315
-0.016190939 -0.032695193 -0.10703917 0.081331536 -0.10782282 -0.052086413 -0.012740438 -0.021720367
0.04895406 0.08931576 -0.36267334 -0.04664299 0.101582594 -0.19571933 -0.10940618 -0.15846823
0.062022075 0.026714072 0.10030114 0.030275494 0.069308914 0.17688836 0.09723172 0.015688851
0.17329003 -0.010204956 0.08564691 -0.032181557 -0.10302605 -0.022806926 -0.050194327 0.005872364
-0.17496863 -0.17557308 0.023052614 -0.080947496 -0.055593587 -0.07971886 -0.13556118 -0.010639278
0.004985135 -0.06438266 -0.006857105 0.11242416 -0.06322611 -0.0147584155 0.061613414 0.02607024
-0.020438632 0.021016778 0.19264632 0.03582571 -0.24319848 0.017868416 0.044745956 -0.33021665
00000000: 76f2 633e 7bd5 12be 7ff2 00bd d59a 5d3e
00000010: 07ac 5ebd 4314 01bc 7027 86be 6418 20be
00000020: 8e59 843c d64e 8fbd 3ba7 35bd 5522 6c3d
00000030: cb38 31be 4a8c ad3d a1b0 ab3d cd58 d73d
00000040: c139 6e3c e652 d0bc e4e2 d93b 9914 f0bc
00000050: 4ede 9d3d 9686 dbbd 51ea adbd 76ff 8dbd
00000060: 08f0 06be 65d8 5f3d 1854 343d 839b a83c
00000070: e572 5d3d 968d 4a3d 9cb4 353d 4d17 abbd
00000080: cfc8 f7bd bf09 8d3d 8011 5ebe d028 28be
00000090: 23f1 91bd e615 4dbe 3a6c a5bd 2642 1b3e
000000a0: efe3 083e 611a a13d 5a4c 393d 26ff d8bd
000000b0: 95fb 84bd 34c0 e7bc bad1 abbd 0715 223e
000000c0: 6aa7 00bd b1b5 a23d ca60 373e a58a bc3d
000000d0: 9d81 8c3d 086c 7cbd f945 05be 9590 b2bd
000000e0: 0eae 03be 1c50 d2bd 9c92 ccbd c697 473d
000000f0: 0042 eebb 94e6 a13d eadd f73d d96b 093e
00000100: c0c7 36bc 415b 933d c3a7 1bbd 952f 2bbd
00000110: eeb4 9bbd 4675 e13b 3a8a ac3d ea26 533c
00000120: e412 89bd 899f 4a3c 0e2f 803d d0c7 e63a
00000130: 9dfa cf3d c542 183d ffed 773d 3752 9c3d
00000140: 7880 2e3d f9c4 24be 5247 2ebe 7591 95bd
00000150: 5b99 9dbd 6991 983a 5726 ca3d 4b85 ff3c
00000160: 66a8 7d3d 56a2 903d 6f21 6bbd 56fa 263d
00000170: 91c1 163e 2ca4 6cbd d271 19bd db9c 843d
00000180: 0379 3fbc ee12 ed3d b605 a73c 4bb9 f73d
00000190: 5572 cd3d a6ea e53d 233b c5bc 8d22 a3bd
000001a0: 84e2 2fbc cd42 233e dfa4 783d 9157 223d
000001b0: 7b2c d2bd 78d2 13be d116 a5bd 58f0 1d3c
000001c0: c153 933d 62df 563d 27ff fe3c ea6e 1e3d
000001d0: 09ff 0abd 7018 0ebe cce7 13bc 3553 003d
000001e0: d8af ffbd dc80 24bc 535c 3ebd 04b3 7cbc
000001f0: 9df5 ad3d ed38 c0bd bd49 b0bd 6125 85bd
00000200: 3665 82bc d06d b6bd 2f1a 573d f7be 093e
00000210: e061 653d 0f7e 0b3e ff33 4e3d 44fa 6c3d
00000220: 92ab c33d 8ed5 f43d 6aed 80bd ccd3 c43d
00000230: 7093 85bd 8802 9b3d 00a6 0ebe 3758 20be
00000240: 723b 53be 57fe 22bc 6884 47bd 61b1 84be
00000250: 4c12 b0bd 91a5 53bd 2074 62bc a310 9f3d
00000260: 2d6d 0f3d b684 0d3e 3020 c63d e7c4 1abe
00000270: 00ba b13d 3666 d23c 9313 fa3c 894e ce3d
00000280: 51d2 14bd 5561 9ebc 6234 823d aad1 bd3c
00000290: dc23 6bbd dcb4 dabb de00 01be d03f ba3d
000002a0: 3ac0 153e c2d8 89bd 3bc6 90bd 22d1 42bd
000002b0: 14b1 3fbd b34f 9b3d 456b acbc 111d 47be
000002c0: e3da 3e3d 6731 b1bd 5637 efbd f869 20be
000002d0: 0195 b13d 0480 503e 35d6 1fbc 1768 e53d
000002e0: 343b a53d 7804 6b3e 1d8b 873e b09c 24be
000002f0: 2d9a acbd 232a 48bd 2ca1 6c3d f320 93bd
00000300: 2f7b 31be 462f a13c 401c b83c 091c 94bd
00000310: f77e e93c d55e 8ebd 98e9 df3c ad0e bdbd
00000320: dca2 84bc 65eb 05bd 5a37 dbbd 2691 a63d
00000330: 36d2 dcbd 9058 55bd 45bd 50bc e9ee b1bc
00000340: 0d84 483d 2eeb b63d 52b0 b9be b80c 3fbd
00000350: 890a d03d a66a 48be 5910 e0bd 7f45 22be
00000360: dc0a 7e3d 78d7 da3c af6a cd3d 5004 f83c
00000370: d5f1 8d3d 3922 353e 6d21 c73d e885 803c
00000380: f172 313e b032 27bc a667 af3d cfd0 03bd
00000390: 52ff d2bd 97d5 babc 9198 4dbd f66c c03b
000003a0: fa2a 33be 6ec9 33be d6d8 bc3c cdc7 a5bd
000003b0: 1ab6 63bd a443 a3bd 8dd0 0abe 5e50 2ebc
000003c0: 585a a33b 0edb 83bd 91b1 e0bb a33e e63d
000003d0: b17c 81bd 48cd 71bc 595e 7c3d 4291 d53c
000003e0: eb6e a7bc 612b ac3c 1445 453e fbbd 123d
000003f0: 0609 79be c960 923c 8947 373d 2812 a9be

conv2.bias f4 [15]
-0.17260256 0.05723147 0.03230737 0.0707987 -0.2571809 -0.0047821603 -0.14059483 -0.1785915
0.25958046 0.14142218 -0.08975562 0.057038393 0.13920403 -0.12556116 0.02426212
00000000: babe 30be 8c6b 6a3d bc54 043d e9fe 903d
00000010: 37ad 83be abb3 9cbb 17f8 0fbe b1e0 36be
00000020: bbe7 843e fad0 103e cbd1 b7bd 17a1 693d
00000030: 808b 0e3e 1b93 00be 5ac1 c63c

fc1.weight f4 [50, 375]
-0.068311706 -0.04979926 -0.0135660395 0.07993311 -0.037511993 -0.0747049 -0.14911129 -0.09558344
-0.03819378 -0.10286566 -0.043409012 -0.07788127 -0.050805233 -0.08015671 0.023752676 -0.059436597
-0.09752912 -0.06684984 -0.034571536 -0.003054717 0.003465058 -0.08368148 0.006580264 0.02620133
0.0151884975 -0.23042902 -0.046370298 -0.030626964 -0.07442866 -0.044542182 -0.14421807 0.015148327
0.15761083 0.1309928 0.05369363 -0.07495793 0.054386497 0.12468077 0.057483464 -0.039281692
-0.07226278 0.018911578 0.06806572 0.019023243 0.02778885 -0.08580155 -0.076452404 0.058004368
0.060680803 -0.016922396 -0.18496299 -0.2170265 -0.1425007 -0.15384431 -0.070895776 -0.14671122
-0.05594461 -0.04923945 -0.03343226 0.077354826 -0.07127652 -0.04526504 -0.022519678 0.029678635
-0.024896398 0.022642184 0.029400678 -0.041470896 -0.011961341 -0.014341408 0.032888222 0.07799652
0.15271749 0.076927654 0.12812445 0.037016995 0.006113726 -0.04042705 0.076309204 -0.005584793
-0.00082464784 0.013988434 -0.047401235 -0.017335013 0.001465956 0.08522177 0.0699709 -0.020591905
0.0044894945 0.08552452 0.039750893 0.077426024 0.08387902 0.06942243 0.044401236 0.048004847
0.1144787 0.21391018 0.0154073145 0.08962673 -0.2367525 -0.12190935 0.059642 -0.03630288
-0.20309646 -0.17228548 -0.057804156 0.0047369194 -0.063233875 -0.10995145 -0.07169053 -0.02419619
-0.037714116 -0.0050043636 0.07065602 -0.07474438 -0.05750969 0.019601272 0.0036803705 0.016637811
-0.23713487 -0.10907261 -0.063772075 -0.05278812 -0.08839906 -0.0040920833 -0.09173069 -0.047819097
0.022355843 0.044074524 -0.016936695 -0.14034064 -0.073717 -0.055203047 -0.063547656 0.009528707
0.0059303776 0.071315795 -0.008465741 0.05260916 0.035067093 0.052956093 0.025845535 -0.009663647
0.041891143 0.00085799483 0.010944755 -0.059227783 -0.050210863 0.047996163 -0.14669088 -0.19845429
0.0008791706 0.011996774 0.012868362 -0.040291477 -0.052033335 0.024706045 -0.0019406207 -0.0027244857
-0.075543836 -0.05766554 -0.031078093 0.019369764 0.054240894 -0.09695748 -0.025738996 -0.03442117
0.005774448 0.05742191 0.102991454 -0.02554589 0.010211051 -0.03143961 0.027384793 -0.026787734
0.017781915 -0.04056856 -0.0027083168 -0.0013983491 0.060132135 0.017952103 -0.005759906 0.07629125
0.090583734 0.05945264 -0.004323201 0.011521038 -0.037792847 0.031875517 0.00992078 0.057324942
0.044824515 0.027052194 -0.04190022 -0.021404592 0.0011685307 -0.004324311 -0.001155346 -0.06827183
0.0577107 -0.057357673 0.06992766 0.04210034 0.02169254 0.023742532 0.019954279 0.03958099
-0.009429479 0.010420997 0.08896956 0.05420184 0.10668129 0.13198037 -0.08607208 0.1262579
0.07255265 0.14555272 0.089442685 0.13712923 0.01696169 0.043082077 0.084026925 0.030475356
0.11986022 0.06548981 0.026407698 0.022139221 0.028734874 0.08458875 0.009640063 -0.03809367
0.01098065 0.09026464 0.06253431 -0.047521126 0.0002308073 0.11864225 0.18949488 0.113372415
-0.074439205 -0.033889547 -0.028234439 0.09896933 0.047661252 -0.10399905 -0.10947802 -0.03297097
-0.15484647 -0.050284408 -0.059979577 -0.1143488 0.01448478 -0.07282539 -0.14364006 -0.0384997
00000000: 02e7 8bbd 4ffa 4bbd 1844 5ebc f8b3 a33d
00000010: 2da6 19bd e2fe 98bd a1b0 18be 40c1 c3bd
00000020: 1571 1cbd 3bab d2bd a6cd 31bd 3780 9fbd
00000030: 2619 50bd 3429 a4bd f994 c23c ca73 73bd
00000040: 59bd c7bd 92e8 88bd e29a 0dbd a631 48bb
00000050: 0716 633b 3261 abbd 419f d73b 2ca4 d63c
00000060: 2dd9 783c 96f5 6bbe c8ee 3dbd 66e5 fabc
00000070: 0e6e 98bd dd71 36bd e7ad 13be b030 783c
00000080: bc64 213e fa22 063e daed 5b3d 8b83 99bd
00000090: 60c4 5e3d a258 ff3d c873 6b3d d7e5 20bd
000000a0: 82fe 93bd 74ec 9a3c 0a66 8b3d a2d6 9b3c
000000b0: 71a5 e33c b9b8 afbd 1493 9cbd fd95 6d3d
000000c0: 6f8c 783d d6a0 8abc f066 3dbe 323c 5ebe
000000d0: b4eb 11be 5d89 1dbe ce31 91bd 773b 16be
000000e0: 2d26 65bd 4eaf 49bd 44f0 08bd 356c 9e3d
000000f0: 6df9 91bd d667 39bd 307b b8bc 9c20 f33c
00000100: 88f3 cbbc 1a7c b93c b1d9 f03c 63dd 29bd
00000110: 80f9 43bc 3af8 6abc cdb5 063d a4bc 9f3d
00000120: f961 1c3e 3f8c 9d3d 0e33 033e 229f 173d
00000130: a755 c83b d696 25bd 0048 9c3d a400 b7bb
00000140: 2e2d 58ba bf2f 653c cc27 42bd 2802 8ebc
00000150: 5225 c03a c088 ae3d e74c 8f3d 5bb0 a8bc
00000160: 9c1c 933b 7b27 af3d d5d1 223d 8991 9e3d
00000170: c3c8 ab3d 592d 8e3d 12de 353d bba0 443d
00000180: cf73 ea3d 450b 5b3e f66e 7c3c 388e b73d
00000190: 3f6f 72be 9cab f9bd 2b4b 743d 54b2 14bd
000001a0: 85f8 4fbe 9b6b 30be 0dc4 6cbd 2938 9b3b
000001b0: c380 81bd 3a2e e1bd 7cd2 92bd 1737 c6bc
000001c0: 1e7a 1abd a5fb a3bb 1ab4 903d 9513 99bd
000001d0: 488f 6bbd d992 a03c 5f32 713b 054c 883c
000001e0: 7cd3 72be 7661 dfbd ef9a 82bd 5b38 58bd
000001f0: 910a b5bd e216 86bb 4ddd bbbd f5dd 43bd
00000200: 9a23 b73c 7d87 343d d3be 8abc 75b5 0fbe
00000210: f0f8 96bd 971c 62bd 4625 82bd 4b1e 1c3c
00000220: 9d53 c23b 040e 923d e4b3 0abc b47c 573d
00000230: 83a2 0f3d 7de8 583d 04ba d33c 4654 1ebc
00000240: 0c96 2b3d 0feb 603a a151 333c d598 72bd
00000250: e8a9 4dbd a097 443d 2236 16be 9a37 4bbe
00000260: 2478 663a 1e8e 443c d2d5 523c ad08 25bd
00000270: e820 55bd 5564 ca3c 6d5c feba 498d 32bb
00000280: bab6 9abd b432 6cbd 7c97 febc 57ad 9e3c
00000290: b32b 5e3d a591 c6bd 96da d2bc 36fd 0cbd
000002a0: 9537 bd3b 3d33 6b3d 2fed d23d 9d45 d1bc
000002b0: 414c 273c d2c6 00bd 1356 e03c f371 dbbc
000002c0: 61ab 913c 382b 26bd 047e 31bb cf48 b7ba
000002d0: 1d4d 763d 4a10 933c 98bd bcbb 963e 9c3d
000002e0: f783 b93d 9d84 733d a3a9 8dbb bcc2 3c3c
000002f0: accc 1abd e78f 023d c48a 223c 8fcd 6a3d
00000300: e999 373d 909c dd3c 919f 2bbd af58 afbc
00000310: 6229 993a f3b2 8dbb fb6e 97ba 1ad2 8bbd
00000320: 0e62 6c3d e1ef 6abd 3c36 8f3d 6871 2c3d
00000330: 8eb4 b13c b37f c23c 2877 a33c ad1f 223d
00000340: 1a7e 1abc d4bc 2a3c ac35 b63d c002 5e3d
00000350: b87b da3d dd25 073e 8f46 b0bd c049 013e
00000360: 7c96 943d c60b 153e ba2d b73d 9b6b 0c3e
00000370: 3ef3 8a3c d576 303d 4f16 ac3d 74a7 f93c
00000380: 4679 f53d 861f 863d f554 d83c 505d b53c
00000390: 6665 eb3c de3c ad3d 5bf1 1d3c 1c08 1cbd
000003a0: 2fe8 333c abdc b83d fd11 803d 83a5 42bd
000003b0: dd04 7239 b5fa f23d f20a 423e cc2f e83d
000003c0: 9573 98bd c4cf 0abd e94b e7bc 6fb0 ca3d
000003d0: 7238 433d 74fd d4bd 0336 e0bd 910c 07bd
000003e0: 1390 1ebe 06f7 4dbd 25ad 75bd b42f eabd
000003f0: 9251 6d3c 7a25 95bd 6116 13be ddb1 1dbd

fc1.bias f4 [50]
0.31457642 0.26030973 0.11078382 0.09291396 -0.07970275 -0.044995863 0.25626326 0.2832525
-0.011480366 0.25216493 0.018750826 -0.11663984 -0.108038604 0.23418605 0.06860721 0.15262711
-0.07769222 -0.015610866 0.069566764 0.2577452 -0.13774198 0.087161295 0.0965762 0.08051842
-0.11172441 0.1805786 -0.04570869 -0.027601186 -0.07274792 0.12737194 0.02856571 0.25698817
-0.09451381 -0.057116233 -0.15385376 0.1943513 0.15444994 -0.078924134 -0.06414025 0.13176508
0.15347159 0.01804777 -0.09098921 0.03255282 0.1325387 -0.03895366 0.11243388 0.1727206
0.1257286 0.202183
00000000: 2910 a13e 5147 853e a1e2 e23d ad49 be3d
00000010: 323b a3bd 954d 38bd f034 833e 7906 913e
00000020: 2518 3cbc c31b 813e 559b 993c dee0 eebd
00000030: 5843 ddbd 78ce 6f3e f081 8c3d 484a 1c3e
00000040: 191d 9fbd b8c4 7fbc 0579 8e3d 2ef7 833e
00000050: 3c0c 0dbe 9f81 b23d bec9 c53d d7e6 a43d
00000060: c4cf e4bd 99e9 383e 0939 3bbd e21b e2bc
00000070: ddfc 94bd ca6d 023e a302 ea3c f493 833e
00000080: 7590 c1bd b6f2 69bd d78b 1dbe 0704 473e
00000090: 2028 1e3e faa2 a1bd f75b 83bd 6ded 063e
000000a0: a827 1d3e ebd8 933c 8d58 babd 1b56 053d
000000b0: 3ab8 073e df8d 1fbd bc43 e63d abdd 303e
000000c0: 00bf 003e 0f09 4f3e

fc2.weight f4 [3, 50]
0.14694352 0.13572632 -0.32332876 0.26640052 0.12199073 -0.3796262 0.029936492 0.13647066
-0.2698037 0.2124876 0.35368684 0.06506897 0.11973974 -0.09551082 -0.31518373 -0.51561576
0.016625669 -0.32067612 0.5226224 0.1204685 0.0011061787 -0.38291186 -0.38225126 -0.36141297
0.079461955 0.009715242 -0.103108115 0.08972592 -0.27755043 -0.43546912 0.32964537 0.23425132
-0.16062994 -0.32097667 0.011648677 -0.29898602 -0.29819024 0.027626323 -0.30783758 0.28920004
-0.13271157 0.34214732 0.15490328 0.27543324 -0.2793918 0.3380897 -0.29127064 -0.25629577
0.41378134 0.26217112 -0.5113469 -0.39926633 0.13341075 -0.24659078 0.18833186 0.2546943
-0.5067917 -0.45269346 0.16639496 -0.40898544 -0.321617 0.10170637 0.13764809 -0.5437886
0.15879934 -0.07578051 0.034775846 0.24666159 -0.15993215 -0.45108017 0.052196134 -0.073618986
-0.12343403 -0.17617324 -0.016583316 -0.5270847 0.20943351 0.068803474 0.36889812 -0.090784356
-0.31349346 -0.4394415 0.24192068 0.25433514 0.093548715 -0.37010303 -0.47825924 0.07427933
0.25730294 -0.5196831 -0.42750818 -0.35468516 0.19623384 -0.33747613 -0.06396291 -0.06805127
-0.15337417 -0.48073006 -0.20696604 -0.39506572 0.23847218 0.09351887 0.21113971 -0.2608892
-0.22261795 -0.04655722 0.044937745 0.3129752 0.04782258 0.13314998 -0.25579283 -0.14793862
-0.2183515 0.28649002 0.12680572 0.3466557 -0.34332192 0.16389792 -0.39895543 0.08985826
-0.20790449 0.42795876 0.51928604 0.39712238 -0.35171565 -0.048226252 -0.26313052 0.09501569
-0.18815169 0.39628887 -0.20475185 0.17635487 -0.023679892 -0.0019964247 -0.24657336 0.4207613
0.4142517 0.00644373 -0.19406153 0.047227513 0.43629563 -0.30432826 -0.17008711 -0.24758174
0.43352267 -0.40016967 0.4816842 0.30373806 -0.25092468 0.13493757
00000000: 5d78 163e d7fb 0a3e 598b a5be a665 883e
00000010: 47d6 f93d 5e5e c2be 603d f53c f7be 0b3e
00000020: b623 8abe 5996 593e 7116 b53e e142 853d
00000030: 1c3a f53d 2d9b c3bd c35f a1be 65ff 03bf
00000040: 8e32 883c a92f a4be 95ca 053f 30b8 f63d
00000050: 33fd 903a 060d c4be 70b6 c3be 1f0b b9be
00000060: f3bc a23d ae2c 1f3c 592a d3bd 39c2 b73d
00000070: 171b 8ebe cff5 debe 47c7 a83e 94df 6f3e
00000080: 2d7c 24be 0e57 a4be 18da 3e3c b214 99be
00000090: 64ac 98be 9950 e23c e39c 9dbe 0712 943e
000000a0: 8be5 07be ef2d af3e f79e 1e3e 9605 8d3e
000000b0: 710c 8fbe 181a ad3e 6d21 95be 3339 83be
000000c0: 26db d33e 4b3b 863e a1e7 02bf a36c ccbe
000000d0: d49c 083e 4b82 7cbe 11da 403e 4b67 823e
000000e0: 1abd 01bf 70c7 e7be 7163 2a3e 8a66 d1be
000000f0: fcaa a4be 6e4b d03d 9ff3 0c3e bb35 0bbf
00000100: 4b9c 223e d032 9bbd 1e71 0e3d db94 7c3e
00000110: 41c5 23be fbf3 e6be 9dcb 553d 8dc5 96bd
00000120: fbca fcbd c266 34be bcd9 87bc 06ef 06bf
00000130: bd75 563e d6e8 8c3d 37e0 bc3e 26ed b9bd
00000140: 3782 a0be 7afe e0be 0eba 773e 3738 823e
00000150: 7896 bf3d 257e bdbe 65de f4be c31f 983d
00000160: 36bd 833e f409 05bf 5ae2 dabe 4b99 b5be
00000170: 86f1 483e acc9 acbe fcfe 82bd 775e 8bbd
00000180: 1e0e 1dbe 4022 f6be e8ee 53be 0e46 cabe
00000190: 0d32 743e d286 bf3d 0235 583e 4593 85be
000001a0: f6f5 63be c9b2 3ebd a410 383d 493e a03e
000001b0: 9ce1 433d 7858 083e 47f7 82be 397d 17be
000001c0: 8997 5fbe d2ae 923e 5cd9 013e db7c b13e
000001d0: e4c7 afbe dbd4 273e e343 ccbe 9b07 b83d
000001e0: eae4 54be 691d db3e eeef 043f a053 cb3e
000001f0: 1314 b4be e488 45bd 0bb9 86be 9697 c23d
00000200: d6aa 40be 60e6 ca3e 78aa 51be 5f96 343e
00000210: 55fc c1bc 73d6 02bb ba7d 7cbe 066e d73e
00000220: cc18 d43e ed25 d33b 11b8 46be a371 413d
00000230: 2462 df3e ead0 9bbe 512b 2ebe 1186 7dbe
00000240: aff6 dd3e 0ae3 ccbe 509f f63e 8e83 9b3e
00000250: 3379 80be 132d 0a3e

fc2.bias f4 [3]
-0.120695986 0.021460742 0.007933432
00000000: 752f f7bd 70ce af3c 3afb 013c

exp_avg f4 [15, 3, 3, 3]
-0.0093924515 -0.0104344385 -0.012344631 -0.0009119341 0.010531097 0.0026168332 -0.0010828719 0.022260092
0.023159983 -0.004260849 -0.007983011 -0.009639686 0.0038832529 0.013394624 0.006696819 -0.0013643699
0.02260682 0.02638734 0.005823236 0.0050154338 0.00486299 0.010047877 0.019984191 0.016417287
0.0058637587 0.028022941 0.03244084 0.0054533365 0.0067455554 -0.004318887 -0.0029303397 0.0015323473
-0.008585899 -0.0012542824 -0.0067264116 -0.013757229 0.0072505088 0.0070498106 -0.0032919515 0.0010147085
0.005143891 -0.0043164752 0.0037724576 -0.0011907049 -0.008496791 0.0052447845 0.0039736126 -0.0064436668
-0.0015322379 0.0015082888 -0.008069197 -0.0030743019 -0.0075706793 -0.0146796405 -0.015657255 -0.0068902327
-0.008638182 -0.01994584 -0.015298077 -0.017378338 -0.020902433 -0.017371466 -0.02068063 -0.014560893
-0.006024986 -0.0077442136 -0.02031091 -0.015590814 -0.018191785 -0.019571781 -0.016012255 -0.020348335
-0.020098347 -0.011357369 -0.010570755 -0.028293284 -0.023703739 -0.024661578 -0.030851744 -0.029366279
-0.033583447 0.033120073 0.039508436 0.04186507 0.024025273 0.02700196 0.031527653 0.012261182
0.013977674 0.015328223 0.019343896 0.02791402 0.03166297 0.016924854 0.022782698 0.030551244
0.009462839 0.015098323 0.019747714 0.0006341037 0.009999323 0.017325308 0.0036053036 0.011008243
0.021262888 0.008868738 0.013833287 0.017381564 0.0008810182 0.007827296 0.0036228367 0.011099272
0.010607793 0.007872071 0.015100243 0.013861203 0.013183746 0.004428974 0.012026171 0.008729161
0.020176364 0.019351507 0.016142288 0.02535653 0.02224202 0.019529903 0.0070576523 0.013052298
0.010158085 0.029032482 0.026885407 0.023641355 0.03468453 0.029893719 0.028369077 0.025762025
0.032445703 0.033818033 0.03657944 0.04691602 0.044740666 0.039308254 0.04484891 0.039646987
-0.0061647906 0.0033765477 0.00439431 0.017951816 0.032516412 0.029019957 0.028820422 0.036986966
0.030521423 -0.044648763 -0.03775396 -0.04078748 -0.011571153 -6.571632e-05 -0.004807124 0.0023275912
0.0050518895 -0.0035277267 -0.036944825 -0.03595072 -0.03751233 -0.032970954 -0.03190185 -0.03434764
-0.034163285 -0.034579515 -0.03074225 -0.032753766 -0.03317463 -0.037410244 -0.028850062 -0.030737389
-0.033546068 -0.030390056 -0.03251151 -0.028217914 -0.02727011 -0.027137248 -0.032975893 -0.027363993
-0.02983414 -0.033045303 -0.033272583 -0.037343364 -0.035356097 -0.0009225523 0.0018987934 0.00091572426
0.022774056 0.009468478 -1.0526088e-05 0.030129826 0.015589966 0.0012399364 -0.004318822 -0.0015903878
-0.0019378752 0.015264862 0.0036790713 -0.003877371 0.02211703 0.011075863 -0.0025381986 0.002524234
0.0052888244 0.0081696 0.0156205725 0.005713829 0.001248492 0.023857927 0.014817189 0.002289787
0.0022895145 0.0014775038 -0.0003946353 0.011993724 0.004320102 -0.00069493597 0.024326647 0.011669853
0.0050803344 0.0100200595 0.005706858 0.001501963 0.021441793 0.011035975 0.002447923 0.0337351
0.01873718 0.0084500145 0.010828127 0.0068082917 0.0015925785 0.023052858 0.013167271 0.0025523258
0.034039583 0.02013736 0.008521584 0.033894 0.032879014 0.0384759 0.024734896 0.029308995
0.0404375 0.018881813 0.014491724 0.016102992 0.022300916 0.020782601 0.024763944 0.012507585
00000000: cce2 19bc 35f5 2abc 2341 4abc dd0e 6fba
00000010: 9f8a 2c3c 2d7f 2b3b 27ef 8dba cc5a b63c
00000020: 01ba bd3c 989e 8bbb 2dcb 02bc c6ef 1dbc
00000030: 2c7e 7e3b 2075 5b3c fd70 db3b a8d4 b2ba
00000040: f031 b93c 432a d83c d8d0 be3b 8258 a43b
00000050: b859 9f3b da9f 243c e3b5 a33c 8c7d 863c
00000060: c624 c03b 5e90 e53c b0e0 043d e7b1 b23b
00000070: d209 dd3b 7385 8dbb f10a 40bb 0bd9 c83a
00000080: dfab 0cbc bc66 a4ba 3b69 dcbb 0066 61bc
00000090: ad95 ed3b 1902 e73b c8bd 57bb f8ff 843a
000000a0: 168e a83b 3871 8dbb 563b 773b 6d11 9cba
000000b0: 2036 0bbc 71dc ab3b 1435 823b 6525 d3bb
000000c0: 5fd5 c8ba c6b1 c53a aa34 04bc 3a7a 49bb
000000d0: 7613 f8bb e082 70bc a543 80bc 76c7 e1bb
000000e0: 2987 0dbc 7565 a3bc c9a4 7abc 045d 8ebc
000000f0: 943b abbc 9b4e 8ebc 6d6a a9bc d090 6ebc
00000100: 3f6d c5bb 2cc3 fdbb 1163 a6bc 9d70 7fbc
00000110: f006 95bc 0055 a0bc 222c 83bc 8db1 a6bc
00000120: 4aa5 a4bc 4214 3abc f630 2dbc 51c7 e7bc
00000130: 582e c2bc 1407 cabc ccbc fcbc 8d91 f0bc
00000140: cc8e 09bd eaa8 073d 99d3 213d b57a 2b3d
00000150: a6d0 c43c 3733 dd3c 2423 013d 20e3 483c
00000160: 9d02 653c 3a23 7b3c 1777 9e3c f1ab e43c
00000170: 08b1 013d fea5 8a3c c8a2 ba3c 9a46 fa3c
00000180: 060a 1b3c f55e 773c f5c5 a13c fb39 263a
00000190: 33d4 233c ceed 8d3c f546 6c3b eb5b 343c
000001a0: 822f ae3c 2f4e 113c 03a5 623c c863 8e3c
000001b0: 21f4 663a 0f3e 003c 1d6d 6d3b b9d9 353c
000001c0: 4fcc 2d3c dcf9 003c 0267 773c 191a 633c
000001d0: a300 583c ed20 913b 6b09 453c c104 0f3c
000001e0: e748 a53c 0d87 9e3c d53c 843c 7fb8 cf3c
000001f0: e634 b63c 2dfd 9f3c e143 e73b 4ed9 553c
00000200: 196e 263c 87d5 ed3c c93e dc3c 84ab c13c
00000210: 5e11 0e3d ace3 f43c 4466 e83c e20a d33c
00000220: c9e5 043d c784 0a3d 53d4 153d 032b 403d
00000230: fd41 373d b101 213d 7eb3 373d e164 223d
00000240: 0302 cabb 1249 5d3b 25fe 8f3b b00f 933c
00000250: ee2f 053d 43bb ed3c ce18 ec3c a57f 173d
00000260: 1008 fa3c 9fe1 36bd e5a3 1abd c610 27bd
00000270: ef94 3dbc 2ed1 89b8 1485 9dbb 808a 183b
00000280: 528a a53b 6f31 67bb 7553 17bd 1041 13bd
00000290: 87a6 19bd 8d0c 07bd 84ab 02bd 1cb0 0cbd
000002a0: cdee 0bbd 40a3 0dbd 2cd7 fbbc d028 06bd
000002b0: 1fe2 07bd 7c3b 19bd f756 ecbc facc fbbc
000002c0: 9a67 09bd 91f4 f8bc ca2a 05bd 4129 e7bc
000002d0: 9165 dfbc ef4e debc bb11 07bd 742a e0bc
000002e0: ba66 f4bc 835a 07bd d548 08bd 5bf5 18bd
000002f0: 8ed1 10bd 70d7 71ba efe0 f83a 370d 703a
00000300: a890 ba3c ad21 1b3c 3499 30b7 d3d2 f63c
00000310: 0f6d 7f3c 5d85 a23a e884 8dbb 8f74 d0ba
00000320: 4d00 feba 7919 7a3c 931c 713b 7e1b 7ebb
00000330: c62e b53c 8977 353c e857 26bb 9e6d 253b
00000340: e04d ad3b c9d9 053c 6eed 7f3c 123b bb3b
00000350: 71a4 a33a b371 c33c ccc3 723c 4010 163b
00000360: ae0b 163b cda8 c13a 0ee7 ceb9 5381 443c
00000370: a48f 8d3b 5d2c 36ba ad48 c73c e932 3f3c
00000380: ef78 a63b 2d2b 243c 9800 bb3b 84dd c43a
00000390: b3a6 af3c 3cd0 343c 556d 203b d12d 0a3d
000003a0: b77e 993c ee71 0a3c 7568 313c 1718 df3b
000003b0: 11be d03a 59d9 bc3c 8abb 573c ec44 273b
000003c0: 176d 0b3d 1bf7 a43c 1d9e 0b3c 6fd4 0a3d
000003d0: 25ac 063d e898 1d3d d6a0 ca3c 6b19 f03c
000003e0: cba1 253d 08ae 9a3c b26e 6d3c 6cea 833c
000003f0: 69b0 b63c 4640 aa3c c1dd ca3c 9dec 4c3c

exp_avg_sq f4 [15, 3, 3, 3]
0.06030448 0.04491338 0.032189135 0.08299041 0.065746285 0.044140015 0.08230346 0.07763299
0.06343737 0.066092685 0.0499008 0.03503986 0.08695842 0.070419736 0.047717877 0.086098835
0.082589105 0.06831447 0.06438273 0.050347123 0.037622187 0.08281873 0.06892319 0.049612805
0.08305992 0.080705725 0.068800226 0.011835788 0.012128749 0.012537277 0.0108464025 0.010064089
0.009749565 0.011226696 0.01127727 0.011478743 0.0118726455 0.011988152 0.012283446 0.010597274
0.00967084 0.009340524 0.010938147 0.010955628 0.0110537 0.012426307 0.012270084 0.012365483
0.010923111 0.00988604 0.009520079 0.011076831 0.010994598 0.010968071 0.012530782 0.013400184
0.013479861 0.013943047 0.014579652 0.014208506 0.013402177 0.013154652 0.0126579525 0.012967883
0.014165032 0.014381133 0.013795216 0.014703229 0.014431938 0.013053609 0.012956196 0.012557174
0.012937831 0.014179765 0.01451838 0.013679336 0.014555305 0.014393465 0.013139453 0.013077909
0.01273413 0.03286603 0.036728032 0.041087244 0.03238152 0.038261175 0.04536785 0.03408587
0.0398703 0.04418472 0.0386385 0.04337645 0.04900749 0.037926823 0.045038898 0.053640753
0.03920304 0.045997504 0.050984923 0.046639636 0.051756978 0.05755931 0.047891907 0.055604007
0.06418494 0.04976673 0.05700072 0.06148086 0.021942364 0.021524033 0.022559538 0.02189125
0.021959735 0.023002435 0.02186084 0.02165294 0.021909153 0.020020364 0.020009728 0.021894062
0.019509444 0.019842172 0.02164486 0.019501222 0.019415371 0.02034993 0.019338332 0.019514797
0.021913124 0.018642759 0.018953316 0.021278005 0.018909637 0.01883916 0.020303577 0.18799837
0.24009742 0.27466962 0.23856543 0.28910208 0.28539607 0.25418153 0.26747742 0.2379833
0.20340268 0.26365563 0.30293873 0.25692287 0.31122723 0.30710986 0.26763454 0.28060004
0.24863945 0.21178925 0.27271894 0.3131579 0.26146084 0.31323585 0.3109667 0.2697279
0.280594 0.2512165 0.022884427 0.02295515 0.024099775 0.019286897 0.02169317 0.023683935
0.017944755 0.02087396 0.02086596 0.025299152 0.02370701 0.024373686 0.021352705 0.021602012
0.023097211 0.01916708 0.020517625 0.020632671 0.029143326 0.027376572 0.02781813 0.025155978
0.024766378 0.025706101 0.022489453 0.02317478 0.02323166 0.009075753 0.009108832 0.009105863
0.008057308 0.008620649 0.009021529 0.0076743504 0.007265737 0.0075540296 0.0090115955 0.008965867
0.009030186 0.008131078 0.008390121 0.008758664 0.008235359 0.007583341 0.0076665836 0.008864613
0.009009936 0.009356804 0.0081192795 0.008326695 0.008718949 0.008384625 0.0076801106 0.007629753
0.010164711 0.010064027 0.009507903 0.011148896 0.011060035 0.010129987 0.009638348 0.008980969
0.008699064 0.009493414 0.009426233 0.00885537 0.01056078 0.010482095 0.009426797 0.008630902
0.007896556 0.007508679 0.0094107315 0.009381705 0.008878341 0.010485757 0.010455494 0.009392559
0.008346172 0.0075849732 0.007090503 0.08468207 0.08693881 0.09183418 0.07738854 0.07690655
0.08066309 0.07242913 0.07133527 0.07273952 0.08333704 0.085424155 0.09048915 0.07547506
00000000: d501 773d 18f7 373d c1d8 033d e0f6 a93d
00000010: fda5 863d 29cc 343d b78e a83d 0cfe 9e3d
00000020: 74eb 813d 9a5b 873d c864 4c3d f585 0f3d
00000030: 4217 b23d 3938 903d d273 433d 9654 b03d
00000040: 7a24 a93d 75e8 8b3d 18db 833d c938 4e3d
00000050: b919 1a3d de9c a93d 9a27 8d3d cc36 4b3d
00000060: 521b aa3d 0b49 a53d 22e7 8c3d e5ea 413c
00000070: a9b7 463c 2769 4d3c 1cb5 313c d9e3 243c
00000080: a4bc 1f3c 2df0 373c 4cc4 383c 5611 3c3c
00000090: 7c85 423c f469 443c 8240 493c 30a0 2d3c
000000a0: 7172 1e3c ff08 193c ea35 333c 3c7f 333c
000000b0: 941a 353c b697 4b3c 7608 493c 9898 4a3c
000000c0: d9f6 323c 0ff9 213c 1bfa 1b3c 997b 353c
000000d0: b022 343c 6db3 333c e94d 4d3c 728c 5b3c
000000e0: a3da 5c3c 6171 643c 7edf 6e3c cbca 683c
000000f0: ce94 5b3c 9c86 573c 4d63 4f3c 3e77 543c
00000100: 7314 683c d89e 6b3c 5405 623c d0e5 703c
00000110: ef73 6c3c cede 553c 3a46 543c 9bbc 4d3c
00000120: 32f9 533c 3f52 683c 80de 6d3c 4b1f 603c
00000130: 6079 6e3c 91d2 6b3c dc46 573c ba44 563c
00000140: d0a2 503c 889e 063d 2270 163d 194b 283d
00000150: 7ca2 043d c0b7 1c3d a4d3 393d a09d 0b3d
00000160: 0a4f 233d 09fb 343d 6743 1e3d 81ab 313d
00000170: 14bc 483d 2859 1b3d b57a 383d 68b6 5b3d
00000180: 5e93 203d e167 3c3d 91d5 503d 3409 3f3d
00000190: 20ff 533d 50c3 6b3d 4e2a 443d 07c1 633d
000001a0: 6573 833d 33d8 4b3d 9679 693d 5bd3 7b3d
000001b0: 79c0 b33c 2b53 b03c c8ce b83c 4755 b33c
000001c0: e7e4 b33c 9a6f bc3c 8115 b33c 8261 b13c
000001d0: d37a b33c bf01 a43c 71eb a33c 2d5b b33c
000001e0: 45d2 9f3c 0d8c a23c 9050 b13c 07c1 9f3c
000001f0: fc0c 9f3c e5b4 a63c 6c6b 9e3c 7fdd 9f3c
00000200: 2783 b33c b3b8 983c fc43 9b3c 364f ae3c
00000210: 62e8 9a3c 9554 9a3c b053 a63c a582 403e
00000220: 19dc 753e 7fa1 8c3e 7f4a 743e 3005 943e
00000230: 6f1f 923e 1524 823e cdf2 883e e5b1 733e
00000240: cb48 503e dffd 863e c91a 9b3e 658b 833e
00000250: 2d59 9f3e 813d 9d3e 6507 893e cfaa 8f3e
00000260: 579b 7e3e 48df 583e d1a1 8b3e 3b56 a03e
00000270: 32de 853e 7360 a03e 0737 9f3e c619 8a3e
00000280: 04aa 8f3e 739f 803e 1f78 bb3c 700c bc3c
00000290: e46c c53c 8eff 9d3c e0b5 b13c d004 c23c
000002a0: e100 933c deff aa3c 17ef aa3c 2b40 cf3c
000002b0: 3435 c23c 53ab c73c deeb ae3c b4f6 b03c
000002c0: 5d36 bd3c 4804 9d3c 9414 a83c d905 a93c
000002d0: fcbd ee3c d544 e03c d9e2 e33c e913 ce3c
000002e0: dce2 ca3c 9a95 d23c cd3b b83c 09d9 bd3c
000002f0: 5250 be3c 78b2 143c 363d 153c c230 153c
00000300: cd02 043c 9f3d 0d3c 09cf 133c 1e79 fb3b
00000310: 6b15 ee3b cb87 f73b 5fa5 133c 92e5 123c
00000320: 58f3 133c 3738 053c b876 093c 8080 0f3c
00000330: 99ed 063c ad7d f83b f737 fb3b e23c 113c
00000340: 699e 133c 484d 193c ba06 053c b16c 083c
00000350: ecd9 0e3c ab5f 093c 70a9 fb3b 0203 fa3b
00000360: e389 263c 97e3 243c 09c7 1b3c dca9 363c
00000370: 2635 353c 3ff8 253c 29ea 1d3c ea24 133c
00000380: 8586 0e3c 448a 1b3c 7d70 1a3c 1d16 113c
00000390: 1f07 2d3c 18bd 2b3c da72 1a3c a068 0d3c
000003a0: 8e60 013c 5d0b f63b 782f 1a3c b9b5 193c
000003b0: 7676 113c 74cc 2b3c 854d 2b3c 3fe3 193c
000003c0: 62be 083c 5e8b f83b 7357 e83b cb6d ad3d
000003d0: fa0c b23d 8f13 bc3d e27d 9e3d 2e81 9d3d
000003e0: b132 a53d b955 943d 3a18 923d 75f8 943d
000003f0: 9cac aa3d dcf2 ae3d 6052 b93d ab92 9a3d

exp_avg f4 [15]
0.0048882114 -0.0077586356 -0.00562164 -0.015582108 0.03772433 -0.033515714 0.006194974 -0.026335578
0.01796407 -0.043234322 0.0042676884 -0.011020567 -0.04053989 0.038500752 -0.028020194
00000000: 4a2d a03b 273c febb bc35 b8bb 194c 7fbc
00000010: d484 1a3d c647 09bd 35ff ca3b b6bd d7bc
00000020: 6329 933c 7916 31bd f7d7 8b3b 9c8f 34bc
00000030: 280d 26bd f7b2 1d3d 9b8a e5bc

exp_avg_sq f4 [15]
0.06762943 0.011000168 0.009883151 0.037451062 0.017204104 0.14775597 0.04320817 0.006112592
0.0086644115 0.08151673 0.01467937 0.027066408 0.01145119 0.03095204 0.07058989
00000000: 4c81 8a3d 0c3a 343c f1ec 213c 4966 193d
00000010: 9fef 8c3c 574d 173e 0dfb 303d 234c c83b
00000020: 2df5 0d3c 3ef2 a63d be81 703c 5fba dd3c
00000030: c69d 3b3c 228f fd3c 6f91 903d

exp_avg f4 [15, 15, 3, 3]
0.006764092 -0.0029334975 -0.0061004325 0.0051812152 -0.01232202 -0.021005658 0.007725028 -0.014870347
-0.02511053 0.0025772564 0.0020894215 0.00021352965 -0.010326405 -0.0069684116 -0.00561986 -0.010998614
-0.012575856 -0.015110733 -0.0067219944 -0.010929106 -0.0114480965 -0.0038792377 -0.009099367 -0.011052458
-0.014568384 -0.018867772 -0.016317006 -0.008048203 -0.00064937497 -0.00062581507 -0.014702676 -0.0024305712
-0.0016323357 -0.018209737 -0.0045690327 0.00393535 -0.010309857 -0.00333547 -0.0040149833 -0.017315833
-0.0021097818 -0.005588314 -0.026201855 -0.0041516195 -0.0021171602 -0.005442842 -0.0007471965 -0.0045938627
-0.0077092457 -0.0026762867 -0.016086755 -0.015442413 -0.008977288 -0.006569649 0.0037626266 -0.003518015
-0.008074018 -0.010544951 -0.016015593 -0.012485719 -0.009533129 -0.024717076 -0.029520178 0.006880452
0.008029752 0.009305144 -0.004745179 -0.007626668 -0.005356284 -0.012160768 -0.011488003 -0.010627459
-0.007520232 -0.006304175 -0.008397745 -0.013721186 -0.0114724 -0.018612688 -0.01629625 -0.016048726
-0.02067289 -0.0037105514 -0.003687372 -0.009859049 -0.022697521 -0.013558485 -0.010045729 -0.03344049
-0.028465163 -0.014216892 0.0049271546 -0.0040821224 -0.010117371 -0.0041091247 -0.00989476 -0.011041637
-0.009758749 -0.016596043 -0.018336609 -0.0028224404 -0.0043237656 -0.0042798775 -0.007726976 7.2966315e-05
-0.0011843619 -0.014677328 -0.010546372 0.0029555466 -0.010941379 -0.00014714792 -0.0016172573 -0.019700928
-0.010307699 -0.008954613 -0.023921886 -0.016828476 -0.012656052 -0.010047036 -0.008185164 -0.013224395
-0.018394329 -0.015608272 -0.020488149 -0.017561011 -0.015329691 -0.016921721 0.002714079 0.011366752
0.012319809 -0.013731778 -0.008400571 -0.0018350434 -0.029187523 -0.025770908 -0.018000081 -0.0049169753
-0.019686596 -0.016184643 0.0037269506 -0.004767022 0.0024685753 0.006019426 -0.0024734829 0.005525207
-0.015753802 -0.016071262 -0.012645383 -0.0038507446 -0.0046644453 -0.006437555 -0.0039086053 -0.0069059245
-0.007277686 -0.01106026 -0.012624813 -0.0026986247 -0.008009082 -0.009315052 -0.011413174 -0.007926472
-0.016305696 -0.016328659 -0.006320119 0.0002508656 -0.0008444166 -0.009313803 0.00027686462 0.0013323614
-0.019181022 -0.007383613 -0.011437191 -0.016706368 -0.004819446 -0.009265135 -0.015509174 0.0035144046
-0.0016635414 -0.011005475 0.003642878 0.0023613109 -0.011350652 -0.017995846 -0.008917175 -0.008724521
-0.00893525 -0.0023284901 -0.011051531 -0.0011979352 0.0017899158 -0.028248252 -0.02421624 -0.022146408
-0.01540812 -0.0077433162 -0.009118439 -0.01926576 -0.02495459 -0.027718132 -0.019206502 -0.020000894
-0.020618537 -0.0024901114 -0.0046333442 -0.004571566 0.0003404715 -0.0033375206 -0.006892562 -0.016873911
-0.016380766 -0.016280314 -0.00853553 -0.0054064044 -0.0067507247 -0.0053052315 -0.0031901505 -0.0027205118
-0.02155264 -0.01794127 -0.012721434 -0.009583006 0.00023155948 -0.0055724606 -0.020863274 -0.018064568
-0.018174872 -0.012242182 -0.01377474 -0.01042489 -0.000416485 0.0019517227 -0.0006040887 -0.0037887562
-0.011747214 -0.012226154 -0.002583296 -0.004894127 -0.0027138996 -0.0058046915 -0.00801528 -0.0031064325
-0.010220206 -0.007982865 -0.0077484967 -0.017658593 -0.016831165 -0.018288512 -0.0080874385 -0.00036312034
-0.0057573016 -0.009322062 -0.0020497453 -0.0058626235 -0.016340008 -0.013554006 -0.0152443 -0.010691096
00000000: 51a5 dd3b ec3f 40bb 23e6 c7bb 2fc7 a93b
00000010: 4ce2 49bc 0f14 acbc 3b22 fd3b c2a2 73bc
00000020: 99b4 cdbc 30e7 283b adee 083b eee6 5f39
00000030: 1530 29bc 4657 e4bb cd26 b8bb 8833 34bc
00000040: f70a 4ebc 0293 77bc 2d44 dcbb fe0f 33bc
00000050: cc90 3bbc cf3a 7ebb 8315 15bc 5e15 35bc
00000060: 3bb0 6ebc 9690 9abc 3eab 85bc 9cdc 03bc
00000070: d13a 2aba bd0d 24ba 7ee3 70bc 384a 1fbb
00000080: 19f4 d5ba 962c 95bc d3b7 95bb 1cf4 803b
00000090: adea 28bc e797 5abb 1f90 83bb efd9 8dbc
000000a0: 4444 0abb 2d1e b7bb 46a5 d6bc 4f0a 88bb
000000b0: 0ec0 0abb de59 b2bb 82df 43ba 1d88 96bb
000000c0: d79d fcbb a464 2fbb 5fc8 83bc 2d02 7dbc
000000d0: 7a15 13bc 3646 d7bb 6696 763b 7f8e 66bb
000000e0: e348 04bc bbc4 2cbc 2233 83bc e790 4cbc
000000f0: d730 1cbc 777b cabc 4dd4 f1bc 6a75 e13b
00000100: 398f 033c 9a74 183c 727d 9bbb 21e9 f9bb
00000110: c483 afbb f53d 47bc 2d38 3cbc cb1e 2ebc
00000120: 476c f6bb 4193 cebb b296 09bc d3ce 60bc
00000130: bcf6 3bbc a379 98bc b77f 85bc 9e78 83bc
00000140: 315a a9bc b92c 73bb d6a7 71bb d987 21bc
00000150: 27f0 b9bc 6824 5ebc d796 24bc e5f8 08bd
00000160: c62f e9bc f8ed 68bc f873 a13b 53c3 85bb
00000170: 54c3 25bc d6a5 86bb a21d 22bc fbe7 34bc
00000180: 29e3 1fbc 6df4 87bc a836 96bc b1f8 38bb
00000190: 60ae 8dbb 373e 8cbb 9332 fdbb 7e05 9938
000001a0: 973c 9bba 2d79 70bc b1ca 2cbc d8b1 413b
000001b0: 7843 33bc b84b 1ab9 26fa d3ba d763 a1bc
000001c0: a0e1 28bc 5eb6 12bc d5f7 c3bc dfdb 89bc
000001d0: 545b 4fbc 539c 24bc 111b 06bc 22ab 58bc
000001e0: b4af 96bc d6b9 7fbc c3d6 a7bc 1cdc 8fbc
000001f0: 6229 7bbc 6c9f 8abc b1de 313b 9d3b 3a3c
00000200: 06d9 493c 40fb 60bc 8ca2 09bc d785 f0ba
00000210: ac1a efbc 831d d3bc e874 93bc 941e a1bb
00000220: c945 a1bc a895 84bc db3f 743b ae34 9cbb
00000230: d2c7 213b 9b3e c53b 281a 22bb cc0c b53b
00000240: 1e0e 81bc e1a7 83bc 952e 4fbc c65c 7cbb
00000250: 34d8 98bb 20f2 d2bb c213 80bb 184b e2bb
00000260: a879 eebb 1836 35bc 4ed8 4ebc 69db 30bb
00000270: 8638 03bc 299e 18bc 52fe 3abc 09de 01bc
00000280: 8693 85bc aec3 85bc 0019 cfbb 9c86 8339
00000290: d75b 5dba ec98 18bc 2428 9139 a1a2 ae3a
000002a0: 8521 9dbc 3cf2 f1bb 0e63 3bbc cbdb 88bc
000002b0: 71ec 9dbb cbcc 17bc 311a 7ebc ed51 663b
000002c0: 300b daba 4f50 34bc 5abd 6e3b 39c0 1a3b
000002d0: 16f8 39bc 066c 93bc 5819 12bc 4bf1 0ebc
000002e0: 2865 12bc 9599 18bb 7b11 35bc 0904 9dba
000002f0: 9c9b ea3a e168 e7bc 2361 c6bc 626c b5bc
00000300: 5772 7cbc a5bb fdbb 8165 15bc 3ad3 9dbc
00000310: 916d ccbc 2311 e3bc f456 9dbc ead8 a3bc
00000320: 35e8 a8bc 2331 23bb 4fd3 97bb 13cd 95bb
00000330: 5081 b239 4eba 5abb 00db e1bb 283b 8abc
00000340: f530 86bc 4b5e 85bc 9cd8 0bbc 3528 b1bb
00000350: 2f35 ddbb 82d7 adbb d811 51bb 9d4a 32bb
00000360: 298f b0bc 92f9 92bc 906d 50bc 0a02 1dbc
00000370: c6ce 7239 3099 b6bb 75e9 aabc 25fc 93bc
00000380: 78e3 94bc 6f93 48bc 72af 61bc 28cd 2abc
00000390: ac5b dab9 f2d0 ff3a b55b 1eba c84c 78bb
000003a0: 6377 40bc 3550 48bc 844c 29bb ea5e a0bb
000003b0: aedb 31bb 4835 bebb 8552 03bc 4a95 4bbb
000003c0: a772 27bc 90ca 02bc 1ae7 fdbb c1a8 90bc
000003d0: 83e1 89bc cad1 95bc 2d81 04bc 3061 beb9
000003e0: bfa7 bcbb 90bb 18bc 0555 06bb 401b c0bb
000003f0: 7bdb 85bc 9f11 5ebc 3ac3 79bc b529 2fbc
