models/base_model_nfeatures_10.pth (torch, 180854 bytes, 24 tensors)

conv1.weight f4 [10, 3, 3, 3]
0	0xbe55aee3	-0.20867495
1	0x3ca5f203	0.020257002
2	0x3e8bec1a	0.2732857
3	0xbe3fa792	-0.18716267
4	0xbe86a3a2	-0.26296717
5	0x3e2bcbf3	0.16777019
6	0xbdb9833d	-0.09058235
7	0x3904897b	0.00012639716
8	0x3e338c9c	0.17534107
9	0xbded62f2	-0.11591138
10	0xbdfea500	-0.12433815
11	0x3de9c1a1	0.11413885
12	0x3e49ebb8	0.19718826
13	0xbdcd967c	-0.10038468
14	0x3de4ec93	0.111779355
15	0x3c6bd57a	0.0143941585
16	0xbe402cf6	-0.18767151
17	0xbd38c91e	-0.045113675
18	0x3dc1846c	0.094490856
19	0xbe25b7d9	-0.16183414
20	0x3e8bc8fa	0.2730177
21	0xbcadbdc0	-0.021208644
22	0xbe3a7da9	-0.18211998
23	0x3e33a1fa	0.17542258
24	0x3e8d1e55	0.27562204
25	0xbe3551c3	-0.17706971
26	0xbce52c28	-0.027975157
27	0x3e03ed8d	0.12883587
28	0x3c65aa13	0.0140176
29	0xbdc57c43	-0.09642842
30	0xbe8d5a78	-0.27608085
31	0xbe4695ac	-0.19393033
32	0xbc8a8270	-0.0169079
33	0x3e391d67	0.18077622
34	0x3e889c6d	0.26681843
35	0xbbd03f5d	-0.0063552097
36	0x3ba72cc7	0.0051017734
37	0xbd26c3b8	-0.040713996
38	0x3dd3f448	0.10349327
39	0xbe7be9bf	-0.24600886
40	0x3d85dcfc	0.0653629
41	0xbe81357d	-0.2523612
42	0x3e0d634a	0.13807407
43	0x3d26769e	0.040640466
44	0x3e2edcfe	0.1707649
45	0x3e031c6b	0.1280381
46	0x3e2e55f7	0.1702498
47	0xbdaa4fc3	-0.083159946
48	0xbe8ad896	-0.27118367
49	0xbc27c0de	-0.010238854
50	0xbd820444	-0.0634847
51	0x3d0479a8	0.032342583
52	0xbd7b0362	-0.061282523
53	0x3e3cfef8	0.18456638
54	0x3dffbf03	0.124876045
55	0x3d90477f	0.07044887
56	0xbd8cb7a4	-0.06870964
57	0xbd528a6d	-0.051401544
58	0xbe808ad6	-0.25105923
59	0xbd8b6c35	-0.06807748
60	0xbe847a56	-0.25874585
61	0xbdf6e61d	-0.120556094
62	0xbdff01d9	-0.12451524
63	0xbca68fc6	-0.020332228
64	0xbdf1db5e	-0.11809419
65	0xbe140a22	-0.1445699
66	0xbdc86fba	-0.09786935
67	0x3bfcfd9f	0.0077206637
68	0x3e0c1431	0.13679577
69	0x3e51107f	0.20416449
70	0x3df07e33	0.117428206
71	0xbd935ee6	-0.07195835
72	0xbe215e7a	-0.15758696
73	0xbcd801c5	-0.026368031
74	0xbd8dde91	-0.06927217
75	0xbd15ace4	-0.036541834
76	0xbdc77053	-0.09738221
77	0xbde8a873	-0.11360254
78	0xbe2e9e3a	-0.17052546
79	0x3d998b0c	0.07497224
80	0x3e6a1c4f	0.22862361
81	0xbd821ca6	-0.063531205
82	0xbe095076	-0.134096
83	0x3e3b5c9a	0.18297043
84	0xbdd973c4	-0.10617784
85	0x3e1d6a1d	0.1537251
86	0x3d5d50b3	0.05403204
87	0x3e149ed8	0.14513719
88	0xbca3a036	-0.019973855
89	0x3e0fc4dc	0.1403994
90	0x3e07054a	0.13185611
91	0x3e22f38a	0.15913215
92	0xbdf2527b	-0.11832138
93	0x3d998451	0.074959405
94	0x3e1f7110	0.15570474
95	0xbe060483	-0.13087659
96	0x3d52066a	0.05127565
97	0x3d9ac57b	0.07557198
98	0xbcca9a90	-0.024731904
99	0xbd597a9f	-0.053095456
100	0x3d20b5f3	0.03923602
101	0xbe561bb1	-0.20909001
102	0xbddfc3aa	-0.10925992
103	0xbe2f2c76	-0.17106804
104	0xbde7f5e5	-0.113261975
105	0xbe79de29	-0.24401154
106	0xbe28495d	-0.16434236
107	0x3d924b0d	0.07143221
108	0x3e679f02	0.2261925
109	0x3e3b1e5d	0.18273301
110	0x3e94834e	0.29006428
111	0xbd001032	-0.031265445
112	0xbd9e88c7	-0.07740932
113	0x3dcd8f8c	0.10037145
114	0xbdd2f180	-0.10299969
115	0x3e7b54f8	0.24544132
116	0x3e83f22d	0.25770703
117	0xbd22b373	-0.039721917
118	0xbd9869be	-0.07442044
119	0xbe205f99	-0.15661468
120	0xbda8b012	-0.08236708
121	0xbdbbed14	-0.091760784
122	0xbd7c55ac	-0.06160514
123	0xbd33dad0	-0.043909848
124	0x3dafebb0	0.08589876
125	0xbdfa99d0	-0.12236369
126	0x3d240d86	0.04005196
127	0xbd9443ec	-0.072395176
128	0xbe5a307a	-0.21307555
129	0xbafaf84f	-0.0019147488
130	0x3d0fc8ee	0.03510373
131	0x3d837c13	0.0642015
132	0xbda67dbc	-0.08129451
133	0xbe27bd7b	-0.16380875
134	0xbe23bdb4	-0.15990335
135	0x3ea67455	0.3251063
136	0xbdf84166	-0.12121849
137	0xbe33b455	-0.1754926
138	0x3e637385	0.22212036
139	0xbdce054b	-0.10059603
140	0x3ca5774f	0.020198492
141	0x3c54a4a5	0.012978707
142	0xbe03a46e	-0.12855694
143	0x3cf67b4c	0.03008809
144	0x3e8f25e7	0.27958605
145	0xbc2b0475	-0.010438074
146	0xbdb72ffa	-0.08944698
147	0x3baeba7e	0.00533229
148	0xbe7d9b4f	-0.24766277
149	0x3cdfc4d9	0.027315544
150	0xbdb525ba	-0.088450864
151	0xbe4d11fb	-0.2002639
152	0x3e5f5f5f	0.21813725
153	0x3e20ec71	0.15715195
154	0xbd917b04	-0.071035415
155	0xbe6a7fcb	-0.22900312
156	0xbcb7850e	-0.022402313
157	0x3d11da80	0.03560877
158	0xbdd4b668	-0.10386354
159	0x3d57ae48	0.052656442
160	0xbd0588f7	-0.032601323
161	0x3e7e02ce	0.24805757
162	0xbe98bb05	-0.29830185
163	0x3b2f5bdc	0.0026757633
164	0xbe0d5a5f	-0.13804005
165	0x3dda2119	0.10650844
166	0x3e151d4e	0.1456196
167	0x3e37f9f5	0.17966445
168	0x3e02c9b7	0.1277226
169	0x3e8dcc30	0.27694845
170	0x3d81d0c4	0.06338647
171	0xbe30baa9	-0.17258705
172	0x3d0f2242	0.03494478
173	0x3d4a6ac6	0.049418233
174	0xbe8d36bb	-0.2758082
175	0x3dbca513	0.09211173
176	0x3c717527	0.014737404
177	0x3e37bc38	0.17942894
178	0x3e0ac321	0.13550998
179	0xbddc7463	-0.107643865
180	0xbe3fa8a9	-0.18716682
181	0x3d00f845	0.03148677
182	0x3ce25478	0.027628168
183	0xbc038fdb	-0.008029903
184	0x3e6289ed	0.22122927
185	0x3e352336	0.17689213
186	0x3e0e7c26	0.13914546
187	0x3dc308ea	0.095231846
188	0xbdf08883	-0.117447875
189	0x3e24b013	0.16082792
190	0x3d93cce8	0.07216817
191	0xbe141a0c	-0.14463061
192	0x3e19cb84	0.15019041
193	0x3e48cd09	0.19609465
194	0x3e38a80f	0.1803286
195	0xbea2cf6d	-0.31798878
196	0xbdbf35a0	-0.093364
197	0x3e0bc253	0.13648348
198	0x3e35dc04	0.1775971
199	0x3c60fff8	0.013732903
200	0xbe57baf1	-0.21067406
201	0xbdc23cb6	-0.09484236
202	0x3e5e8449	0.2173015
203	0x3d43ef17	0.047835436
204	0xbe9db453	-0.3080164
205	0x3d183bf6	0.03716656
206	0x3d7cd12a	0.061722912
207	0x3e58a633	0.2115715
208	0x3d3a9b5c	0.04555832
209	0xbe7b4a81	-0.2454014
210	0xbc53f05b	-0.012935723
211	0x3e83e93b	0.25763878
212	0x3ce6b806	0.028163921
213	0x3cf44f7b	0.029823055
214	0xbda2d140	-0.079500675
215	0xbcfc3e6c	-0.030791484
216	0xbe38d2ed	-0.18049212
217	0xbd8e6266	-0.06952362
218	0xbd96d78c	-0.07365331
219	0xbe2a88b9	-0.16653718
220	0x3d487079	0.048935387
221	0xbc5d34eb	-0.013501386
222	0xbe3a2d5d	-0.18181367
223	0xbe7ca16c	-0.24670953
224	0x3c8af63e	0.01696312
225	0xba847944	-0.0010106941
226	0xbd84d8ae	-0.06486641
227	0x3dad32c5	0.08456949
228	0x3c4e5319	0.012593054
229	0x3d6a0145	0.057130117
230	0xbb580668	-0.0032962803
231	0x3e1f0526	0.15529308
232	0xbe291888	-0.16513264
233	0xbe744009	-0.23852552
234	0xbd7fabd7	-0.06241974
235	0x3de1e03a	0.11029096
236	0x3d92e069	0.07171709
237	0x3e9b4b5c	0.30330932
238	0x3e348d1b	0.17631952
239	0x3d9003a3	0.07031944
240	0x3e65eed8	0.22454393
241	0x3e4ed229	0.20197357
242	0x3d541d11	0.051785532
243	0x3e590905	0.21194847
244	0x3d9253c9	0.07144887
245	0xbe7b397d	-0.24533649
246	0x3e524fdf	0.20538281
247	0x3e58d8a6	0.21176395
248	0xbdd864b4	-0.105660826
249	0x3e0bc57d	0.13649555
250	0xba0d7041	-0.000539545
251	0x3d37fdca	0.044919766
252	0xbe08607c	-0.13318056
253	0x3cd2d919	0.025738286
254	0xbe039f8f	-0.12853836
255	0x3e293454	0.16523868

conv1.bias f4 [10]
0	0x3dc1f7cd	0.094710924
1	0xbc90a0a6	-0.017654728
2	0xbcf5410c	-0.029938243
3	0x3d89ead9	0.06734247
4	0xbe65bbcd	-0.22434922
5	0xbd9ac1d7	-0.07556503
6	0x3ceca5d8	0.028887674
7	0xbd20c2a8	-0.03924814
8	0x3e8ccfad	0.27502194
9	0xbcbabea9	-0.022795992

conv2.weight f4 [10, 10, 3, 3]
0	0xbdd02ea2	-0.101651445
1	0xbdd4e9a3	-0.10396125
2	0xbd015c03	-0.03158189
3	0x3bd6a37b	0.00655025
4	0xbd68552f	-0.056721862
5	0xbd41af1d	-0.04728614
6	0xbd1c8923	-0.03821672
7	0xbcfa12f2	-0.030526612
8	0xbc6425f0	-0.013925061
9	0x3d1ead34	0.038739398
10	0x3d74bccf	0.059750374
11	0x3db869e7	0.09004574
12	0x3e0b0f95	0.13580163
13	0x3d1c4104	0.03814794
14	0x3e566d46	0.20940122
15	0x3d50a539	0.05093882
16	0x3e0bb384	0.13642699
17	0x3c5abf47	0.013351268
18	0x3e2f6a7b	0.17130463
19	0x3c2c54ac	0.010518234
20	0x3d815141	0.06314326
21	0xbd0d4806	-0.034492515
22	0xbbe10125	-0.0068665915
23	0xbd2fad34	-0.04288979
24	0x3e1491c9	0.14508738
25	0xbd967a0f	-0.073474996
26	0xbe340820	-0.17581224
27	0x3d43b910	0.04778391
28	0x3dfa4ce2	0.122216955
29	0x3c31c746	0.010850733
30	0x3b8df831	0.0043325652
31	0x3d317022	0.04331983
32	0x3dc63d04	0.096796066
33	0xbd0644f9	-0.03278062
34	0xbdba9003	-0.09109499
35	0x3dcd2a6f	0.10017859
36	0xbd84efb0	-0.06491029
37	0xbda8c8ef	-0.0824145
38	0xbcc2ff29	-0.02380331
39	0xbd8365df	-0.06415915
40	0x3bb866dd	0.0056274966
41	0xbd3ae8bd	-0.045632113
42	0x3aaf26ff	0.0013363062
43	0x3ddefc9c	0.10888025
44	0x3dbda95e	0.0926082
45	0x3e0d7fd8	0.138183
46	0x3deb0884	0.114762336
47	0x3e67e82d	0.22647162
48	0x3dec4089	0.115357466
49	0x3daf3943	0.08555844
50	0x3d9c27f1	0.07624806
51	0x3df51220	0.11966348
52	0x3e48522c	0.19562596
53	0x3d1afdd5	0.03783973
54	0xbd307240	-0.043077707
55	0xbcead822	-0.028667513
56	0x3de9f2e9	0.114232846
57	0x3d966445	0.07343344
58	0x3db51c0d	0.08843241
59	0xbd583086	-0.05278065
60	0x3dd345eb	0.1031607
61	0xbd92d117	-0.07168787
62	0xbd77ef32	-0.06053085
63	0xbd5a2b19	-0.053263757
64	0xbd354e3a	-0.044264056
65	0x3dd6d1f6	0.104892656
66	0xbdf616d1	-0.12016071
67	0x3ce94311	0.028474363
68	0x3dbc2d89	0.09188373
69	0xbe0037ba	-0.12521258
70	0xbda1a893	-0.07893481
71	0xbda7d33c	-0.08194587
72	0xbe66c38e	-0.22535536
73	0xbe385ea6	-0.18004856
74	0xbdef656e	-0.11689268
75	0xbe04e661	-0.12978508
76	0x3e2877fb	0.16452019
77	0x3d9b9de6	0.07598476
78	0x3cef84d8	0.02923815
79	0x3d4b88f5	0.04969116
80	0x3e8c6742	0.2742253
81	0x3da50acd	0.08058701
82	0xbd430476	-0.047611676
83	0xbda97c38	-0.08275646
84	0xbdc32cca	-0.09530027
85	0xbdc712d8	-0.09720391
86	0x3d916178	0.07098669
87	0xbd35cfb6	-0.04438754
88	0xbde06bc6	-0.10958056
89	0xbdd79c3a	-0.10527845
90	0xbd6c0e5e	-0.05763089
91	0xbd3fd535	-0.04683419
92	0xbbfd0318	-0.007721316
93	0x3df3f3ac	0.11911711
94	0x3e3d5507	0.18489467
95	0x3e0ad10e	0.1355631
96	0x3ebf8375	0.3740498
97	0x3e1fe7ee	0.15615818
98	0x3de4f865	0.1118019
99	0x3dcb9389	0.099402495
100	0x3d3dfb68	0.046382338
101	0xbe3197a2	-0.17343
102	0xbd9c40bf	-0.07629537
103	0xbdcc422e	-0.0997356
104	0xbd337fd3	-0.043823075
105	0x3cf65351	0.030069025
106	0x3dc6620a	0.09686668
107	0x3ddecbed	0.108787395
108	0x3daba950	0.08381903
109	0x3dadcc88	0.08486277
110	0xbcdaf033	-0.026725864
111	0x3ced48bb	0.028965345
112	0xbd9c8c89	-0.076439925
113	0xbdbc9dac	-0.09209761
114	0xbd411a8d	-0.04714446
115	0xbe0e717c	-0.13910478
116	0xbc8439ce	-0.016140845
117	0xbd8a6e37	-0.06759303
118	0xbcd94b1a	-0.026525069
119	0x3dbd1719	0.09232921
120	0xbd41eb9d	-0.04734384
121	0x3cced938	0.025250062
122	0xbd3d994c	-0.046288773
123	0xbd9df715	-0.07713143
124	0xbd25f6f2	-0.04051871
125	0x3d515177	0.05110308
126	0x3cee2cab	0.029074034
127	0x3ddbfdbe	0.10741757
128	0x3e30e483	0.1727467
129	0xbdaa64a5	-0.08319978
130	0x3d08b725	0.033377785
131	0x3e077bc5	0.13230808
132	0xbe7950df	-0.24347256
133	0xbe0f39ab	-0.13986842
134	0xbce74d7e	-0.028235193
135	0x3e34752a	0.1762282
136	0xbe228a06	-0.15872964
137	0xbe4b7b64	-0.19871289
138	0x3e80e048	0.25171113
139	0x3e061696	0.13094553
140	0xbd2820dd	-0.041046966
141	0x3e269e6f	0.16271375
142	0x3ece99c8	0.403517
143	0x3e3294e2	0.17439607
144	0x3d8b566f	0.06803595
145	0xbdbb18be	-0.091355786
146	0xbd981d36	-0.074274465
147	0xbe3f7bfc	-0.1869964
148	0xbe87df0f	-0.26537368
149	0xbe4489ee	-0.19193241
150	0xbd660926	-0.05616107
151	0xbd17232e	-0.036898784
152	0xbe065423	-0.13118033
153	0xbbb550e6	-0.0055333255
154	0x3e1b4190	0.15161729
155	0x3dd638d4	0.10460058
156	0xbe2d91a8	-0.16950095
157	0xbdb040ff	-0.08606147
158	0x3ddc0def	0.10744845
159	0xbccaf72c	-0.024776064
160	0x3d4387a6	0.047736786
161	0xbcbe4ab5	-0.023228982
162	0x3ddb30fe	0.10702704
163	0x3cd0f8af	0.025509207
164	0xbc71e69f	-0.014764457
165	0xbd4ae7fd	-0.049537648
166	0xbd3a36e0	-0.04546249
167	0xbdb5f211	-0.08884061
168	0x3b12ede2	0.0022419621
169	0x3d0dbf2b	0.03460614
170	0xbd764a42	-0.06012941
171	0xbd291ef6	-0.041289292
172	0xbd7efd21	-0.06225312
173	0x3d42a770	0.047522962
174	0x3c960e39	0.018317329
175	0x3d2a0eb5	0.041517932
176	0x3ca4f02c	0.020134054
177	0xbcba5608	-0.022746101
178	0x3caff8d8	0.021480963
179	0x3db87f04	0.09008601
180	0xbd7cb988	-0.061700374
181	0xbd0205aa	-0.031743683
182	0x3dc3faae	0.09569298
183	0xbe13b794	-0.14425498
184	0xbd9e3cdd	-0.077264525
185	0x3c73261a	0.014840627
186	0xbe1a6afe	-0.15079877
187	0x3d117aa5	0.035517354
188	0x3d64f12f	0.055894073
189	0x3d18116b	0.037125986
190	0x3e0cae66	0.13738403
191	0x3e02cda7	0.12773763
192	0x3da95665	0.082684316
193	0xbbf205a7	-0.0073859277
194	0x3d590915	0.052987177
195	0xbcaea19d	-0.021317298
196	0x3b2f2c81	0.0026729407
197	0x3e10e4d9	0.14149798
198	0xbe0c5708	-0.13705075
199	0x3d49705a	0.049179412
200	0xbcb37332	-0.021905515
201	0x3ddd88d0	0.108171105
202	0x3e13d2af	0.14435838
203	0x3e1717ad	0.14755125
204	0xbc867901	-0.016415121
205	0x3e3538eb	0.17697494
206	0x3d941df5	0.07232276
207	0x3ce9d68c	0.028544687
208	0x3d056080	0.032562733
209	0xbb4615f8	-0.0030225497
210	0xbc4a3c77	-0.0123435175
211	0x3d3e8d2d	0.046521354
212	0xbd5e170f	-0.05422121
213	0xbe266652	-0.1624997
214	0xbd24e2ba	-0.040255286
215	0xbdd42000	-0.10357666
216	0x3e23c026	0.15991268
217	0x3d7c0563	0.061528575
218	0x3da5f365	0.081030644
219	0x3e0490f7	0.12945925
220	0x3e14c74e	0.14529154
221	0xbc3a5611	-0.011373059
222	0xbe17f7ef	-0.14840673
223	0xbe428c31	-0.18998791
224	0xbdd35cdb	-0.10320445
225	0xbe0da467	-0.13832246
226	0xbe26bcd6	-0.16282973
227	0xbdfc8e38	-0.123318136
228	0xbe866035	-0.26245275
229	0xbe8f9d0e	-0.2804951
230	0xbd8aec4d	-0.06783352
231	0xbeaed3e4	-0.34146035
232	0xbedf77be	-0.43646044
233	0xbdedeeeb	-0.116178356
234	0xbdc3d1cb	-0.09561499
235	0x3d4a8e14	0.049451903
236	0x3dac7ded	0.08422456
237	0x3d45a8b8	0.048256606
238	0xbdb70db7	-0.08938163
239	0x3dfaba2d	0.122425415
240	0xbcc0687c	-0.023487322
241	0xbc02b6a4	-0.007978115
242	0x3dc2bea7	0.0950902
243	0x3d23ed6b	0.04002134
244	0x3ca93fca	0.0206603
245	0x3d60fbee	0.05492776
246	0x3c9d7ce4	0.019224592
247	0x3d75d049	0.06001309
248	0xbd935ef3	-0.071958445
249	0xbe840f34	-0.2579285
250	0xbe7476de	-0.23873469
251	0xbe400c2d	-0.18754645
252	0x3d630db9	0.05543301
253	0xbc90e735	-0.017688373
254	0xbd876cb5	-0.06612531
255	0x3db7acc1	0.08968497

conv2.bias f4 [10]
0	0xbdcc21f6	-0.09967415
1	0xbea337bd	-0.31878462
2	0x3e83eb33	0.2576538
3	0x3e920bed	0.28524724
4	0xbe59f08f	-0.21283172
5	0x3e2f4303	0.17115407
6	0x3e05a46b	0.13051002
7	0xbdaaffe2	-0.08349587
8	0x3e43487e	0.19070622
9	0xbe81783c	-0.25287044

fc1.weight f4 [50, 250]
0	0xbde82dc9	-0.11336858
1	0xbde6f63a	-0.11277433
2	0xbe316f0f	-0.17327522
3	0xbdafc798	-0.08582991
4	0xbdd30a8d	-0.10304747
5	0xbe7c0089	-0.24609579
6	0xbda5c962	-0.08095051
7	0xbd92db45	-0.071707286
8	0xbe3684f1	-0.1782415
9	0xbe499c02	-0.19688419
10	0xbe2a6903	-0.16641621
11	0xbe232744	-0.15932947
12	0xbe008633	-0.12551193
13	0xbe13133c	-0.14362806
14	0xbe695f50	-0.22790265
15	0xbdba6858	-0.09101933
16	0xbdbba8fb	-0.0916309
17	0xbe1a0cd7	-0.1504396
18	0xbdfd45d9	-0.12366838
19	0xbe50d7db	-0.20394842
20	0x3d0c15a8	0.03420034
21	0xbd3b75f6	-0.045766793
22	0xbb574335	-0.0032846455
23	0xbc952dbc	-0.018210284
24	0x3d960692	0.07325472
25	0xbe81388f	-0.25238463
26	0xbe258a3b	-0.16166012
27	0xbe057de3	-0.13036303
28	0xbe0832ea	-0.13300672
29	0xbdbb469d	-0.09144328
30	0xbe337339	-0.17524423
31	0xbdcba553	-0.099436425
32	0xbe198344	-0.1499148
33	0x3d894449	0.067024775
34	0x3ab69dd7	0.0013932538
35	0x3c26444e	0.010148121
36	0xbd8da653	-0.069164895
37	0xbde4d1e7	-0.11172848
38	0x3cec0498	0.028810784
39	0xbb8026d7	-0.00391088
40	0x3d556002	0.052093513
41	0xbd9b8a16	-0.07594697
42	0xbd80d9bd	-0.0629153
43	0xbc9bd54e	-0.01902261
44	0x3d253021	0.040329102
45	0x3db79d4e	0.0896555
46	0xbdd3fbe6	-0.1035078
47	0xbdd5c318	-0.10437602
48	0xbe079c63	-0.1324325
49	0xbdfa8266	-0.12231903
50	0xbdde45c6	-0.10853152
51	0xbdcafad9	-0.09911127
52	0xbdf60db4	-0.120143324
53	0xbdb14aed	-0.08656869
54	0xbc717aa4	-0.014738712
55	0xbc0550c9	-0.008136936
56	0x3b8bc8df	0.004265889
57	0xbd97296c	-0.073809475
58	0x3d0984b6	0.03357383
59	0x3cc51dca	0.024062056
60	0x3dc57787	0.09641939
61	0xbd223828	-0.039604336
62	0xbe24e941	-0.16104604
63	0xbe1b9b86	-0.15196046
64	0x3d7bd478	0.061481923
65	0x3de55980	0.111987114
66	0x3d643810	0.055717528
67	0x3b80d003	0.003931047
68	0x3c2567cb	0.010095547
69	0x3d2ce038	0.04220602
70	0x3d73f8e1	0.05956352
71	0x3e1c78cf	0.1528046
72	0x3e083738	0.13302314
73	0x3e1fb7f6	0.1559752
74	0x3e00b268	0.12568057
75	0xbda0cb97	-0.07851332
76	0xbccc103e	-0.024910089
77	0xbd41d570	-0.04732269
78	0xbcd9d416	-0.026590388
79	0x3d835c33	0.0641407
80	0xbdf00b55	-0.117209114
81	0xbe098cb5	-0.13432582
82	0xbdbe09e8	-0.09279233
83	0xbdb4bb11	-0.088247426
84	0xbccd677b	-0.025073757
85	0xbdaaa668	-0.08332521
86	0xbd86ba9f	-0.06578564
87	0xbe2da8f5	-0.16958983
88	0xbe2a11dd	-0.16608377
89	0xbdf5c50c	-0.12000474
90	0x3cc1bcaa	0.023649532
91	0xbdcf9f3c	-0.101377934
92	0xbc83c971	-0.016087266
93	0xbdb0e921	-0.08638216
94	0xbc6ba8cb	-0.014383505
95	0x3e10a3e5	0.14125021
96	0x3e06209d	0.13098378
97	0x3c80868d	0.015689159
98	0x3dc9b92d	0.098497726
99	0x3d832a57	0.0640456
100	0xbe3cbb41	-0.18430807
101	0xbe2fdba8	-0.17173636
102	0xbe3a1fef	-0.18176244
103	0xbe07ad91	-0.13249804
104	0xbe1edeb9	-0.1551465
105	0xbd804d0e	-0.06264697
106	0xbddf97a4	-0.10917595
107	0xbde34476	-0.11097042
108	0x3c895127	0.01676233
109	0xbd679277	-0.056536164
110	0xbdbf86c9	-0.0935188
111	0x3d9f84ca	0.077889994
112	0x3da22d66	0.07918815
113	0x3d886ec4	0.06661752
114	0x3ddec7ea	0.10877974
115	0x3daf89e5	0.08571223
116	0xbcc46263	-0.023972696
117	0x3cc58c80	0.024114847
118	0xbc8e7730	-0.017390817
119	0x3d34ce8a	0.044142283
120	0x3c8dbc0a	0.017301578
121	0xbd9a1587	-0.07523637
122	0xbbd23119	-0.0064145443
123	0xbc3b4020	-0.011428863
124	0x3c9751bc	0.018471591
125	0xbe170d88	-0.14751256
126	0xbc1cddc9	-0.009574362
127	0x3dbb10f8	0.09134096
128	0xbd1519d3	-0.03640158
129	0xbcc5c9b6	-0.024144035
130	0xbd6208a7	-0.055184033
131	0x3d9207b2	0.07130374
132	0x3dfebf02	0.124387756
133	0x3e2a5ce0	0.16636992
134	0x3dabae78	0.08382887
135	0xbcaa6a21	-0.02080256
136	0x3da23318	0.079199016
137	0x3dbf6f19	0.09347362
138	0x3d991895	0.07475392
139	0x3c9e7d8a	0.019346971
140	0x3d3f7c66	0.046749495
141	0x3d901779	0.07035727
142	0x3e09f708	0.13473141
143	0x3e10912a	0.14117876
144	0xbc34bf17	-0.0110318875
145	0x3cad3f28	0.02114828
146	0x3e09c7dd	0.13455148
147	0x3de0d417	0.10977953
148	0x3d657c72	0.056026883
149	0xbd09307b	-0.0334935
150	0x3d2ab367	0.041674998
151	0x3d4a69a0	0.049417138
152	0x3c4ebe30	0.012618586
153	0x3c6ecff2	0.014575945
154	0x3d74bddf	0.059751388
155	0x3d0164bb	0.031590205
156	0x3d91b096	0.07113759
157	0x3d7d777d	0.06188153
158	0x3cbdbcf8	0.023161396
159	0x3d81bd31	0.063349135
160	0x3cf02824	0.029316016
161	0x3d2855e4	0.041097537
162	0x3d837572	0.06418885
163	0x3d7697de	0.060203426
164	0xbc6cfc63	-0.014464471
165	0x3d53ce19	0.051710222
166	0x3d887b54	0.06664148
167	0xbd2eca59	-0.042673443
168	0xbd1b1cfe	-0.037869446
169	0xbddbf0cf	-0.1073929
170	0x3d670265	0.056398768
171	0x3cc94c6a	0.02457257
172	0xbdc4bb4a	-0.09606035
173	0xbd9f41d4	-0.077762276
174	0xbd86cb54	-0.065817505
175	0x3d5aaa31	0.053384963
176	0xbc19cecf	-0.009387686
177	0xbda61f38	-0.08111423
178	0xbd77b58a	-0.060475864
179	0xbe1601b5	-0.14649089
180	0x3caa4639	0.020785438
181	0x3c52716a	0.012844423
182	0xbe1fda29	-0.15610565
183	0xbe35b00e	-0.17742941
184	0xbde27ca4	-0.110589296
185	0xbdb7f326	-0.08981924
186	0xbd38ff0b	-0.045165103
187	0xbdeff7cb	-0.11717185
188	0xbdefceff	-0.11709403
189	0xbde1fe67	-0.110348515
190	0x3d1fa881	0.038979057
191	0xbddde680	-0.1083498
192	0xbde91281	-0.113804825
193	0xbd720f26	-0.059096478
194	0xbced2c87	-0.028951896
195	0x3d806b33	0.06270447
196	0x3d5ae504	0.053441063
197	0x3dda4040	0.10656786
198	0x3d77c7ad	0.06049316
199	0x3d3b2398	0.04568824
200	0x3d437622	0.047720082
201	0x3d9d0d7c	0.076685876
202	0x3d38436c	0.044986174
203	0xbcb83b93	-0.022489345
204	0xbcaeadfe	-0.0213232
205	0x3d8781dd	0.06616566
206	0x3d2a14bd	0.041523684
207	0x3ce8052a	0.028322775
208	0x3d137d7f	0.036008354
209	0x3c99ba1a	0.018765498
210	0xbbe9b1e5	-0.0071318024
211	0x3d28c7d8	0.04120621
212	0x3d1a339c	0.037646875
213	0x3ce3f97a	0.02782892
214	0x3d1a1b0f	0.03762346
215	0x3b65d834	0.0035071494
216	0x3d68ac4a	0.056804933
217	0x3db22939	0.08699269
218	0x3db50f5a	0.08840819
219	0x3dd2c109	0.10290725
220	0xbd902ea4	-0.07040146
221	0x3cd108d8	0.025516912
222	0x3c8b5edd	0.017013008
223	0x3d9142a9	0.070927925
224	0xbc0669d2	-0.0082039405
225	0xbe982558	-0.2971599
226	0xbdadeffe	-0.084930405
227	0xbdda392d	-0.10655437
228	0x3cf24902	0.029575828
229	0xbdc5b732	-0.09654082
230	0xbda38528	-0.07984382
231	0xbdba3c0e	-0.09093486
232	0xbc767ced	-0.015044433
233	0xbcefe4ab	-0.029283842
234	0xbdf9d24b	-0.12198313
235	0x3d09fd92	0.03368909
236	0x3d8ccd60	0.0687511
237	0xbb860b8e	-0.004090733
238	0xbd9c7927	-0.076402955
239	0xbd652b27	-0.055949356
240	0xbc2e4a96	-0.0106379
241	0x3d2c5f82	0.04208327
242	0x3c572f1e	0.013133792
243	0x3ccdc514	0.025118388
244	0xbc8d6737	-0.01726113
245	0xbc0e1df1	-0.008674131
246	0x3c7b25da	0.015328849
247	0xbdd4bfe7	-0.10388165
248	0x3cc06c13	0.023489034
249	0x3d584007	0.052795436
250	0xbd85817e	-0.06518839
251	0xbdc92f80	-0.09823513
252	0xbd840315	-0.064459
253	0xbd82c296	-0.063847706
254	0x3d0fd168	0.035111815
255	0xbb6759ae	-0.0035301256

fc1.bias f4 [50]
0	0x3e36d2fb	0.1785392
1	0x3db51131	0.088411696
2	0x3dd45104	0.10367015
3	0xbd84ea23	-0.064899705
4	0xbe0d6237	-0.13806997
5	0x3e11fc1e	0.14256331
6	0xbe3241b7	-0.1740788
7	0x3e9b137b	0.302883
8	0x3e97ceb0	0.29649878
9	0xbdc24df4	-0.09487525
10	0xbdfda7c1	-0.12385512
11	0xbdb4a7c9	-0.08821065
12	0x3e3a61af	0.18201326
13	0xbc4c699b	-0.01247635
14	0x3ebcb5cb	0.36857447
15	0x3d119043	0.03553797
16	0x3e5e7327	0.21723615
17	0xbddf23e0	-0.108955145
18	0xbc0fc640	-0.008775294
19	0x3eafcd9b	0.34336552
20	0x3e7b6ae6	0.24552497
21	0x3d982fef	0.074310176
22	0xbda1f827	-0.079086594
23	0x3ead6951	0.33869413
24	0xbde903a3	-0.11377647
25	0x3d925815	0.071457066
26	0x3d8d9eeb	0.06915077
27	0x3e024d33	0.12724762
28	0x3e59f6a2	0.21285489
29	0xbd08d370	-0.033404768
30	0xbdbd5607	-0.09244924
31	0x3e53059a	0.20607606
32	0xbdbf468b	-0.09339627
33	0xbe16d30f	-0.1472895
34	0x3eabc078	0.3354528
35	0x3eaee658	0.34160113
36	0x3d2036c3	0.039114725
37	0xbd772698	-0.06033954
38	0x3dca5a8b	0.09880551
39	0x3e410c2f	0.18852304
40	0x3e2ddb25	0.16978128
41	0xbd0dee2e	-0.034650974
42	0xbdf300f0	-0.11865413
43	0xbe1b7ee1	-0.15185119
44	0x3cde69da	0.027150083
45	0x3d5c24d4	0.05374606
46	0x3e9ecc81	0.310154
47	0xbe1d6379	-0.15369977
48	0x3d333eff	0.04376125
49	0x3e22c45f	0.15895222

fc2.weight f4 [3, 50]
0	0xbea09b22	-0.31368357
1	0x3ea16e6b	0.31529555
2	0x3ee225a7	0.4416935
3	0xbd8925e4	-0.0669668
4	0x3cad761a	0.02117448
5	0x3e7e6f13	0.24847059
6	0xbe550203	-0.20801549
7	0xbde537ea	-0.111923054
8	0xbdc65c0c	-0.09685525
9	0x3e26d05b	0.16290419
10	0x3d4ee3e9	0.05051032
11	0xbdae48c8	-0.08509976
12	0xbf2195fa	-0.6311947
13	0xbe78435a	-0.24244443
14	0x3e04c156	0.12964377
15	0xbd6ad999	-0.057336424
16	0x3e465d23	0.19371466
17	0xbdfc9bdd	-0.12334416
18	0xbebb7b3f	-0.36617467
19	0x3e0cd1d3	0.13751917
20	0x3e1c9d5b	0.15294401
21	0x3ef20157	0.47266647
22	0x3d05fc63	0.032711398
23	0x3d8360a2	0.064149156
24	0xbe009d13	-0.12559919
25	0xbed4056d	-0.4141039
26	0x3eab1f19	0.33422163
27	0x3ed6e15c	0.4196881
28	0xbe30e747	-0.17275725
29	0xbe26a14b	-0.16272466
30	0xbe8e1843	-0.27752885
31	0xbebdfe4d	-0.3710808
32	0xbeb7ee84	-0.3592416
33	0xbda43616	-0.080181286
34	0x3e4cd4b7	0.2000302
35	0x3d42dcef	0.04757398
36	0x3e9e3350	0.30898523
37	0xbe0654fe	-0.1311836
38	0xbecc0985	-0.39851013
39	0x3f01c4af	0.5069074
40	0xbe33ee8e	-0.1757147
41	0xbebf4a7d	-0.37361518
42	0xbe804197	-0.2505004
43	0x3dd4c5d1	0.10389293
44	0xbed4dbac	-0.41573846
45	0xbed34d97	-0.41270134
46	0x3e0f5719	0.13998069
47	0x3be5e0e4	0.0070153344
48	0x3ebd268c	0.3694347
49	0x3f086fd0	0.5329561
50	0xbece6e07	-0.4031832
51	0xbdab8233	-0.08374443
52	0xbea68e66	-0.32530516
53	0x3e56780f	0.20944236
54	0xba412d54	-0.000736912
55	0xbede8be6	-0.4346611
56	0x3e14efbd	0.14544578
57	0xbf0dcbcb	-0.5538909
58	0xbf26474b	-0.64952534
59	0x3df66764	0.12031439
60	0x3e4651ae	0.19367096
61	0x3e3785ce	0.17922136
62	0xbda67a1b	-0.081287585
63	0x3e53562b	0.20638339
64	0xbf039fbc	-0.5141561
65	0x3dd078de	0.101793036
66	0xbefe329a	-0.4964798
67	0x3eb9f591	0.36320165
68	0x3c709e5a	0.014686191
69	0xbef45a33	-0.47725067
70	0xbeffe6fe	-0.4998092
71	0xbe29a9b1	-0.16568638
72	0x3e1fc2a1	0.15601589
73	0xbf042bc4	-0.5162928
74	0x3ea5e93b	0.32404503
75	0x3d105df5	0.035245854
76	0x3da6ee46	0.08150916
77	0xbe5852df	-0.21125363
78	0xbee74f6d	-0.45177785
79	0x3e5803eb	0.21095245
80	0x3df97c7f	0.12181949
81	0xbe8a5db6	-0.2702462
82	0x3e9da89f	0.3079271
83	0x3e40bc1e	0.18821761
84	0xbeefc31e	-0.4682855
85	0xbf0be105	-0.5464023
86	0xbd7940e8	-0.060852915
87	0x3e362786	0.17788514
88	0x3e49f448	0.19722092
89	0xbead53ee	-0.33853096
90	0xbecf0aef	-0.4043803
91	0x3e139e9a	0.1441597
92	0x3eb1d240	0.3473072
93	0x3dff39a2	0.124621645
94	0xbe0040ba	-0.12524691
95	0x3d87ad96	0.06624906
96	0xbed747b1	-0.42046884
97	0x3e7a09a0	0.24417734
98	0xbe4eb107	-0.20184718
99	0xbee5b5fb	-0.44865403
100	0x3ef93898	0.4867599
101	0xbeae7f7e	-0.34081644
102	0xbe875cce	-0.26437992
103	0xbe0af7f6	-0.13571152
104	0xbe97df45	-0.2966253
105	0xbe013b03	-0.12620167
106	0xbebd8667	-0.37016603
107	0x3eb029b1	0.34406808
108	0x3e87f056	0.2655055
109	0xbe89f7a0	-0.26946735
110	0xbeb76061	-0.3581572
111	0xbec8c793	-0.39214763
112	0x3f22d6bb	0.636089
113	0xbe9b8f68	-0.30382848
114	0x3e0b5311	0.13605906
115	0x3d38d069	0.04512063
116	0x3d96d864	0.07365492
117	0xbe844187	-0.25831243
118	0x3cb37e12	0.021910701
119	0x3db45f4d	0.0880724
120	0x3dd7137b	0.105017625
121	0xbeb238d3	-0.34808978
122	0xbe885fdf	-0.26635644
123	0x3e59d8b2	0.21274069
124	0x3be86f83	0.0070933714
125	0x3e8c4e94	0.274037
126	0xbf049306	-0.5178684
127	0xbebf38c1	-0.37347987
128	0x3ebe8e24	0.3721782
129	0x3e557de9	0.20848812
130	0xbc547efb	-0.012969728
131	0x3ec7317d	0.38904944
132	0xbe81f8ba	-0.25385076
133	0xbea13c69	-0.31491402
134	0x3e012609	0.12612166
135	0x3d2e0935	0.04248925
136	0xbe1c9c9c	-0.15294117
137	0xbe111b05	-0.14170463
138	0x3dc47ec4	0.09594491
139	0xbe9ea86d	-0.30987874
140	0x3ef00e23	0.46885785
141	0x3e294a9a	0.16532364
142	0xbcdff6fc	-0.027339451
143	0xbe7febba	-0.24992266
144	0x3f00b1da	0.5027138
145	0x3e902c07	0.2815859
146	0x3dd5e5e4	0.10444239
147	0xbe6284ff	-0.22121046
148	0xbe54d466	-0.20784149
149	0xbee02718	-0.43779826

fc2.bias f4 [3]
0	0xbdc76214	-0.09735504
1	0xbdd841f5	-0.10559455
2	0x3df866be	0.121289715

exp_avg f4 [10, 3, 3, 3]
0	0xbccf9bcd	-0.025342846
1	0xbce73d93	-0.028227603
2	0xbcb14f31	-0.021644207
3	0xbd3db90a	-0.046319045
4	0xbd16cfed	-0.036819387
5	0xbcdf46e5	-0.027255485
6	0xbd91b534	-0.0711464
7	0xbd75e353	-0.060031246
8	0xbd526579	-0.051366303
9	0xbd8e1fe9	-0.0693968
10	0xbd8b1101	-0.067903526
11	0xbd7241f5	-0.059144933
12	0xbdadd54f	-0.08487951
13	0xbd8f1a6d	-0.06987462
14	0xbd70de77	-0.05880591
15	0xbdda5b71	-0.10661972
16	0xbdba64f5	-0.09101287
17	0xbda22c38	-0.0791859
18	0xbda6e30e	-0.08148776
19	0xbdb22a22	-0.086994424
20	0xbdb34410	-0.08753216
21	0xbdc94642	-0.09827854
22	0xbdb6bd5d	-0.08922837
23	0xbdae1f03	-0.08502009
24	0xbdf3bffa	-0.11901851
25	0xbdd45ed9	-0.10369653
26	0xbdc0bc9f	-0.094109766
27	0xbca990ce	-0.020698931
28	0xbca07224	-0.019585676
29	0xbcb1a763	-0.021686262
30	0xbc1f0337	-0.009705356
31	0xbc932ce6	-0.017965745
32	0xbcd5b66b	-0.02608796
33	0xbca9ec36	-0.020742517
34	0xbcc10473	-0.023561692
35	0xbd116ec4	-0.035506025
36	0x3c2ab5b2	0.010419296
37	0x3c577672	0.013150798
38	0x3b82805a	0.003982586
39	0x3c7bea73	0.015375721
40	0x3bf52527	0.0074812355
41	0xbb7808bb	-0.0037847
42	0x3b028b87	0.001991959
43	0xbb7e0a1f	-0.0038763357
44	0xbc5f864e	-0.013642861
45	0x3d133c98	0.03594646
46	0x3d266d7a	0.04063175
47	0x3d03b651	0.032156292
48	0x3d384139	0.044984076
49	0x3d1e4d9b	0.03864823
50	0x3cf69631	0.030100914
51	0x3d21b260	0.039476752
52	0x3d0edef1	0.034880582
53	0x3cf0733b	0.029351821
54	0xbb869de7	-0.004108179
55	0xbbc080da	-0.0058747353
56	0xbba6a853	-0.005085984
57	0x3c584a82	0.013201358
58	0x3c2f38fa	0.010694737
59	0x3be3f40b	0.0069565824
60	0x3c4f7a23	0.012663397
61	0x3c62ca96	0.013842246
62	0x3c4ce2fc	0.012505289
63	0x3b1aa52b	0.0023596983
64	0xbacb24c0	-0.0015498623
65	0xba8da85f	-0.0010807625
66	0x3c6f6104	0.014610533
67	0x3c1d2056	0.009590229
68	0x3ba08a1c	0.0048992764
69	0x3c4d7dec	0.012542229
70	0x3c5a2e65	0.013316725
71	0x3c32a043	0.010902467
72	0x3c10c2d6	0.008835515
73	0x3b0162b8	0.001974268
74	0xb8c930d0	-9.593519e-05
75	0x3c7c5d3b	0.015403087
76	0x3c051f5f	0.008125155
77	0x3a8af193	0.0010600559
78	0x3bb4e224	0.005520122
79	0x3bc569fe	0.006024598
80	0x3ae42e52	0.0017408824
81	0x3d129f00	0.035796165
82	0x3ce711ba	0.028206695
83	0x3cf427ac	0.029804073
84	0x3cc9ba3c	0.024624936
85	0x3c992c26	0.01869781
86	0x3c93691a	0.017994452
87	0x3c66052c	0.014039319
88	0x3c4f796d	0.0126632275
89	0x3bd59823	0.0065183803
90	0x3d0bbf7f	0.03411817
91	0x3ce6758b	0.02813222
92	0x3cf01e21	0.029311242
93	0x3cbdbf89	0.02316262
94	0x3c9beab0	0.019032806
95	0x3ca19432	0.019723985
96	0x3c64e01a	0.013969446
97	0x3c6d336f	0.014477595
98	0x3c063667	0.0081916815
99	0x3c9c751a	0.019098807
100	0x3c45c410	0.012070671
101	0x3c4af319	0.012387061
102	0x3c5f84c4	0.013642494
103	0x3c24700f	0.0100364825
104	0x3c290467	0.010315991
105	0x3bdf9d1e	0.0068241498
106	0x3bee7496	0.0072770817
107	0x3a829491	0.0009962489
108	0xbc7dfdbf	-0.015502392
109	0xbc748456	-0.0149241295
110	0xbc44ef22	-0.012019904
111	0x3afca424	0.0019274992
112	0x3a040355	0.0005035897
113	0x3b587bc5	0.0033032757
114	0x3c88eec8	0.016715422
115	0x3c4fb2e8	0.012676932
116	0x3c356595	0.011071582
117	0xbc020358	-0.0079353675
118	0xbbda3523	-0.0066591664
119	0xbb185b62	-0.0023247828
120	0x3c10169a	0.008794451
121	0x3be4a65f	0.006977841
122	0x3c18e5be	0.009332119
123	0x3c91482f	0.017734615
124	0x3c471cae	0.012152834
125	0x3c0dd474	0.00865661
126	0x3cde41d0	0.027130991
127	0x3cf23325	0.029565403
128	0x3d07b797	0.03313407
129	0x3d1f4613	0.038885187
130	0x3d22a4aa	0.039707817
131	0x3d25edbd	0.040509928
132	0x3d48223b	0.04886077
133	0x3d3dff4d	0.046386052
134	0x3d2a31c6	0.041551374
135	0x3d81b342	0.06333019
136	0x3dc11195	0.09427182
137	0x3df57925	0.11985997
138	0x3d8c5582	0.06852247
139	0x3dcdd61d	0.100506045
140	0x3dddcf62	0.10830571
141	0x3d6fb8b3	0.058525752
142	0x3d7e9864	0.06215705
143	0x3d5fb837	0.05461904
144	0x3d61a48b	0.05508856
145	0x3db01012	0.08596815
146	0x3dd717c3	0.10502579
147	0x3d977981	0.07396222
148	0x3dd151bf	0.1022067
149	0x3dd34464	0.10315779
150	0x3d93f6db	0.07224818
151	0x3d932b6f	0.07186019
152	0x3d72a4ed	0.059239317
153	0x3d124927	0.035714295
154	0x3d6c079a	0.057624437
155	0x3d87a592	0.06623377
156	0x3d901e94	0.07037082
157	0x3dac5d94	0.08416286
158	0x3da02d8d	0.07821188
159	0x3dadf698	0.084943
160	0x3d93f499	0.07224388
161	0x3d64caff	0.055857655
162	0x3c68e92f	0.014215752
163	0x3c9966ea	0.018725831
164	0x3ca7edf6	0.02049921
165	0x3c71a086	0.014747744
166	0x3ca653bf	0.020303605
167	0x3ca63444	0.020288594
168	0x3caec6bd	0.021335
169	0x3ccaf244	0.024773724
170	0x3cce76a9	0.025203066
171	0x3b1812fa	0.002320467
172	0x3bf525c3	0.007481308
173	0x3c0f6d14	0.008754034
174	0x3ae13cff	0.0017184316
175	0x3bd530bc	0.0065060537
176	0x3bd4222a	0.0064737992
177	0x3bd2f76c	0.0064381864
178	0x3c26a8c5	0.010172074
179	0x3c2f14f2	0.010686146
180	0xbbf27f44	-0.007400425
181	0xbb2b832a	-0.002617071
182	0xbacc1a2d	-0.0015571766
183	0xbc02a476	-0.007973781
184	0xbb804757	-0.0039147544
185	0xbb835a68	-0.00400858
186	0xbad46950	-0.0016205702
187	0x3a9efb66	0.0012129366
188	0x3ab47a34	0.001376933
189	0x3c5b25d4	0.013375718
190	0x3c4a2b67	0.0123394495
191	0x3bcbe6c7	0.006222579
192	0x3ca5321c	0.020165496
193	0x3c61856f	0.013764723
194	0x3c18314f	0.0092891
195	0x395b29e2	0.0002090107
196	0x3b12ed03	0.0022419102
197	0xbb904221	-0.0044024144
198	0x3b8ae2cf	0.0042384635
199	0x3bfb6adb	0.0076726503
200	0x3b124e35	0.0022324447
201	0x3bee1922	0.0072661797
202	0x3b91264e	0.004429615
203	0x3b04c700	0.0020260215
204	0xbc1bda77	-0.009512535
205	0xbbf1d10b	-0.007379656
206	0xbc4be362	-0.012444349
207	0x3ca4f523	0.020136422
208	0x3ce50329	0.027955608
209	0x3cd426d1	0.025897415
210	0x3caaf192	0.020867143
211	0x3cb5d4fb	0.022196284
212	0x3ccbb0ae	0.02486452
213	0xbb45b8cf	-0.003016997
214	0x3b40564f	0.002934832
215	0x3ba552dc	0.005045278
216	0x3ad446d5	0.0016195426
217	0xbc35f740	-0.011106312
218	0xbcef2d7e	-0.029196497
219	0xbc27f297	-0.010250709
220	0xbcd52771	-0.026019784
221	0xbd19d878	-0.037559956
222	0xbbbf30b4	-0.0058346633
223	0xbcc84998	-0.024449155
224	0xbd15c24c	-0.03656225
225	0x3c468be4	0.012118313
226	0xbb4d97cb	-0.0031370993
227	0xbcc8e5e6	-0.024523687
228	0xbb2493eb	-0.002511258
229	0xbc9dda75	-0.019269207
230	0xbd04d0aa	-0.03242556
231	0xbacb65a2	-0.001551796
232	0xbcb05505	-0.021524915
233	0xbd14c60d	-0.03632169
234	0x3c3f2ed7	0.011668882
235	0xba4e3914	-0.00078667817
236	0xbca9725c	-0.020684414
237	0xbacf0f6f	-0.0015797446
238	0xbc865599	-0.016398238
239	0xbcf1e801	-0.029529573
240	0xb901a10f	-0.00012362398
241	0xbca9a1bf	-0.02070701
242	0xbd0bd3ef	-0.034137663
243	0x3bef1e8e	0.0072973436
244	0xbbc0e01e	-0.005886092
245	0xbb8f1c6e	-0.0043674028
246	0x3af4ebe8	0.0018686028
247	0xbbc313b8	-0.0059532784
248	0xbb49d187	-0.0030795054
249	0x3b7663be	0.0037596072
250	0x3ba62e66	0.005071449
251	0xbab28b2a	-0.0013621796
252	0x3c014d48	0.00789196
253	0xbb4835e1	-0.0030549692
254	0xbb0b28d2	-0.0021234048
255	0x3bc6b335	0.0060638436

exp_avg_sq f4 [10, 3, 3, 3]
0	0x3e5bcca6	0.21464786
1	0x3e4c4c42	0.19950965
2	0x3e31405a	0.17309704
3	0x3e7a0213	0.24414854
4	0x3e7643ef	0.24049352
5	0x3e594ec8	0.21221459
6	0x3e675305	0.22590263
7	0x3e729e70	0.23693252
8	0x3e6aa14c	0.22913092
9	0x3e6e2138	0.2325486
10	0x3e5d41d7	0.21607147
11	0x3e3e74f7	0.18599306
12	0x3e81f6d1	0.25383618
13	0x3e80318c	0.250378
14	0x3e621a21	0.2208028
15	0x3e6b4c2d	0.22978278
16	0x3e774919	0.24148978
17	0x3e6f4f1a	0.23370019
18	0x3e64e4e4	0.2235294
19	0x3e54a481	0.20765878
20	0x3e387b74	0.18015844
21	0x3e76550e	0.24055883
22	0x3e726ee3	0.23675112
23	0x3e567ec4	0.20946795
24	0x3e5ee414	0.21766692
25	0x3e69bcc8	0.2282592
26	0x3e6261ca	0.22107616
27	0x3dd71e2d	0.105038024
28	0x3dd94134	0.1060814
29	0x3ddcdaf7	0.10783952
30	0x3de3580b	0.11100777
31	0x3dde5393	0.10855784
32	0x3ddcf002	0.10787965
33	0x3ddc02d3	0.10742726
34	0x3de5e13b	0.112246
35	0x3ded587c	0.11589143
36	0x3dc44bce	0.09584771
37	0x3dc44b71	0.09584702
38	0x3dc4769f	0.09592938
39	0x3dceadb5	0.10091726
40	0x3dca3e40	0.098751545
41	0x3dc71e35	0.097225584
42	0x3dcb97c4	0.09941056
43	0x3dd6c527	0.104868226
44	0x3ddbdf0b	0.107359014
45	0x3dd14df1	0.10219944
46	0x3dd1e71c	0.10249159
47	0x3dd35695	0.103192486
48	0x3dd6c84a	0.10487421
49	0x3dd47c7d	0.10375307
50	0x3dd3eb52	0.10347618
51	0x3dd706c0	0.10499334
52	0x3de1e7a4	0.1103051
53	0x3de83102	0.113374725
54	0x3cfdbd48	0.030974045
55	0x3cf2308d	0.029564166
56	0x3ce6fcf0	0.028196782
57	0x3d0572c1	0.03258014
58	0x3d01ec5a	0.031719543
59	0x3cf8fb5c	0.030393295
60	0x3cfb57e8	0.030681565
61	0x3cf7af8f	0.03023508
62	0x3cf363db	0.0297107
63	0x3cf387b1	0.029727789
64	0x3ce8eec2	0.028434161
65	0x3cdb5ec4	0.026778586
66	0x3cf41d8e	0.029799249
67	0x3cecee4f	0.028922228
68	0x3ce16f56	0.02751891
69	0x3cdf2c24	0.027242728
70	0x3cdbe50e	0.02684262
71	0x3cd77a50	0.02630344
72	0x3ce7843d	0.028261298
73	0x3cdf0f37	0.027228935
74	0x3cd49f3c	0.025954835
75	0x3ce71e3b	0.028212657
76	0x3ce11b46	0.027478825
77	0x3cd76210	0.026291877
78	0x3cd6600d	0.026168847
79	0x3cd2f4d3	0.025751507
80	0x3cce712a	0.025200445
81	0x3d10dcba	0.03536675
82	0x3d104182	0.035218723
83	0x3d14b75e	0.036307685
84	0x3d115995	0.035485823
85	0x3d0eced3	0.03486521
86	0x3d11838f	0.035525855
87	0x3d0b3be2	0.033992656
88	0x3d05692e	0.03257101
89	0x3d008030	0.03137225
90	0x3d11577d	0.035483826
91	0x3d130328	0.035891682
92	0x3d1dbb59	0.038508747
93	0x3d1787fc	0.03699492
94	0x3d161062	0.036636718
95	0x3d1d3eac	0.038389847
96	0x3d157604	0.0364895
97	0x3d0f9063	0.035049807
98	0x3d0a7230	0.033800304
99	0x3d265067	0.04060402
100	0x3d296592	0.04135663
101	0x3d36785d	0.04454838
102	0x3d33e8e8	0.04392329
103	0x3d3315e2	0.04372204
104	0x3d39b4bd	0.04533838
105	0x3d31cc15	0.04340752
106	0x3d2b3007	0.04179385
107	0x3d21e610	0.039526045
108	0x3cb7d1a2	0.022438828
109	0x3cd4b859	0.02596681
110	0x3ce8286e	0.02833959
111	0x3cab2361	0.020890893
112	0x3cc882e0	0.024476469
113	0x3cdc6497	0.026903434
114	0x3ca20eca	0.019782443
115	0x3caeae96	0.021323483
116	0x3cba8fc2	0.022773627
117	0x3ca52f67	0.020164205
118	0x3cbc4c6d	0.022985661
119	0x3ccd93d5	0.025094906
120	0x3ca7790d	0.020443464
121	0x3cb93cce	0.022612002
122	0x3cc3d16b	0.02390357
123	0x3ca9660c	0.020678543
124	0x3caafcd5	0.020872513
125	0x3cae8396	0.02130298
126	0x3ca46594	0.020067967
127	0x3cb83ce4	0.022489972
128	0x3cc6dc2e	0.024274912
129	0x3cb21d0b	0.021742364
130	0x3cbdaca0	0.023153603
131	0x3cc21a27	0.023694111
132	0x3cb7e8ad	0.022449816
133	0x3cb665ce	0.022265341
134	0x3cb6057f	0.022219418
135	0x3e7c9d78	0.24669445
136	0x3ecb4475	0.39700666
137	0x3f06d4dc	0.5266855
138	0x3eb7c9fa	0.35896283
139	0x3f00c037	0.50293297
140	0x3f08508e	0.53247917
141	0x3ed7e0b4	0.42163622
142	0x3eeb8c4c	0.46005476
143	0x3ec71f2e	0.38890976
144	0x3e95c395	0.2925078
145	0x3ef28144	0.47364247
146	0x3f1e4b83	0.6183397
147	0x3ed4c211	0.4155431
148	0x3f12b39a	0.573053
149	0x3f191e19	0.5981155
150	0x3ee9f3b7	0.45693752
151	0x3efbf643	0.4921132
152	0x3ed1dc66	0.40988463
153	0x3ea545ef	0.32279918
154	0x3efdbc38	0.49557662
155	0x3f218b97	0.6310362
156	0x3ed9bb7f	0.4252586
157	0x3f10c802	0.5655519
158	0x3f1678ad	0.58777887
159	0x3ee4f865	0.4472076
160	0x3ef21540	0.47281837
161	0x3ecbd104	0.39807904
162	0x3cae80d1	0.021301659
163	0x3cb67aa2	0.022275273
164	0x3cc1f716	0.02367739
165	0x3c93bd87	0.01803471
166	0x3cb3da0a	0.021954555
167	0x3cb624ac	0.022234283
168	0x3c8f2f39	0.017478572
169	0x3ca9a78f	0.020709781
170	0x3c95ba71	0.018277379
171	0x3cb04ee3	0.021521991
172	0x3cafc870	0.02145788
173	0x3cb87648	0.022517338
174	0x3c9147de	0.017734464
175	0x3ca6bade	0.020352777
176	0x3ca8123d	0.02051651
177	0x3c8afb9a	0.016965676
178	0x3c9c25ec	0.019061051
179	0x3c8baeae	0.017051067
180	0x3cc3f330	0.023919672
181	0x3cc55a2b	0.024090847
182	0x3cceb649	0.025233405
183	0x3ca80d9f	0.020514308
184	0x3cbb1d5c	0.022841148
185	0x3cbccd5b	0.02304714
186	0x3ca313c7	0.019906892
187	0x3cae5f78	0.021285757
188	0x3c9fce7f	0.019507645
189	0x3cc81532	0.02442417
190	0x3cbee229	0.023301201
191	0x3cba0462	0.022707168
192	0x3ca344cc	0.019930266
193	0x3cb5e801	0.022205355
194	0x3cc309ee	0.023808446
195	0x3cc7082b	0.024295887
196	0x3cc4d594	0.024027623
197	0x3cd89563	0.02643842
198	0x3cbb7fbe	0.02288806
199	0x3cb9e606	0.022692692
200	0x3cc7deab	0.024398169
201	0x3ca6b4c8	0.020349875
202	0x3cb95c6a	0.022627074
203	0x3ccfb4c2	0.025354747
204	0x3ce39b62	0.027784053
205	0x3cd9dbd3	0.026594078
206	0x3ceca159	0.02888553
207	0x3cc495ac	0.02399715
208	0x3cc44550	0.023958832
209	0x3cd97498	0.026544854
210	0x3cbb76b2	0.022883747
211	0x3cc76514	0.02434019
212	0x3cdd636b	0.027024945
213	0x3d00f069	0.031479273
214	0x3cf12e53	0.029441034
215	0x3cfc9b5b	0.030835798
216	0x3d1cd361	0.038287524
217	0x3d28f1db	0.041246276
218	0x3d2f217b	0.04275654
219	0x3d3ae2f9	0.045626614
220	0x3d3ee50f	0.046605166
221	0x3d380958	0.044930786
222	0x3d2e3cdb	0.042538505
223	0x3d218a47	0.039438512
224	0x3d1ca30d	0.038241435
225	0x3d1d38ee	0.03838437
226	0x3d297ddc	0.041379794
227	0x3d30afdf	0.043136474
228	0x3d3a9948	0.045556337
229	0x3d3df76b	0.046378534
230	0x3d38079b	0.04492913
231	0x3d2c39f1	0.042047445
232	0x3d1f98be	0.038964026
233	0x3d1cd631	0.038290206
234	0x3d16f3b8	0.036853522
235	0x3d216b8b	0.0394092
236	0x3d28600f	0.041107234
237	0x3d2f7994	0.042840555
238	0x3d31f41d	0.043445695
239	0x3d2d15c6	0.042257093
240	0x3d21e806	0.039527915
241	0x3d170180	0.036866665
242	0x3d15612b	0.03646962
243	0x3d38df15	0.045134623
244	0x3d3d0200	0.046144485
245	0x3d46d382	0.048541553
246	0x3d2a70ba	0.04161141
247	0x3d30e3de	0.04318606
248	0x3d4520ae	0.04812687
249	0x3d2839cb	0.04107074
250	0x3d2ebd46	0.042660974
251	0x3d38c0be	0.04510569
252	0x3d492ca6	0.049114846
253	0x3d4fb85d	0.050712932
254	0x3d5bb4eb	0.053639334
255	0x3d356593	0.04428632

exp_avg f4 [10]
0	0x3d4ec48e	0.050480418
1	0xbd048b7d	-0.03235959
2	0xbc90705e	-0.017631706
3	0x3b15bd2f	0.0022848358
4	0xbd1d0ab8	-0.0383403
5	0x3ca7de22	0.020491663
6	0xbb8a1d0d	-0.004214889
7	0x3cd85a04	0.02641011
8	0xbc7336e8	-0.014844634
9	0xbcc03de1	-0.023467006

exp_avg_sq f4 [10]
0	0x3da18bdd	0.07888005
1	0x3e09b0ad	0.13446303
2	0x3c6d226f	0.014473542
3	0x3cf10918	0.029423282
4	0x3c1fac5d	0.009745684
5	0x3edc0dba	0.42979223
6	0x3d0c7a9b	0.034296613
7	0x3cc3c554	0.023897804
8	0x3cb5ca7c	0.022191279
9	0x3cfe9ae2	0.031079713

exp_avg f4 [10, 10, 3, 3]
0	0xbbf5b863	-0.0074987873
1	0xbc8ca156	-0.017166775
2	0xbc535e0c	-0.0129008405
3	0xbb4c38ce	-0.0031161788
4	0xbcdb1efb	-0.026748171
5	0xbc98eb62	-0.018666927
6	0xbbe79f82	-0.0070685754
7	0xbce528df	-0.02797359
8	0xbc84e783	-0.016223675
9	0xbad070f5	-0.0015902804
10	0xb98a4448	-0.00026372285
11	0xbc2d1ad6	-0.01056548
12	0xbbcb90cd	-0.00621233
13	0xbc0ba379	-0.008522862
14	0xbc51acb4	-0.012797523
15	0xbc078652	-0.008271771
16	0xbbadd52d	-0.0053049535
17	0x3b13a2b6	0.0022527403
18	0xbd591570	-0.05299896
19	0xbd51f2f5	-0.051257093
20	0xbd366153	-0.04452641
21	0xbd49361d	-0.049123872
22	0xbd304b99	-0.043040846
23	0xbd1299ef	-0.035791334
24	0xbd6a35e1	-0.05718029
25	0xbd5a5c49	-0.053310666
26	0xbd1fb132	-0.038987346
27	0xbc5270aa	-0.012844244
28	0xbc438e6f	-0.011935814
29	0xbc35f1aa	-0.0111049805
30	0xbc106869	-0.008813956
31	0xbb802795	-0.0039109685
32	0xbb70c62b	-0.003673921
33	0xbbc53e44	-0.0060193855
34	0xbbdd82ff	-0.0067600007
35	0xbc22a115	-0.0099261
36	0xbb1ffbfc	-0.002441167
37	0xbc153717	-0.009107373
38	0xbbded36d	-0.0068001063
39	0x3b484893	0.0030560836
40	0xbb8b1b9c	-0.0042452347
41	0xbb2f5789	-0.0026755056
42	0x3b7a794e	0.0038219276
43	0xbbb54b66	-0.00553267
44	0xbbe9100e	-0.0071125096
45	0xbc16fadb	-0.009215082
46	0xbc82da19	-0.015973138
47	0xbc655867	-0.013998128
48	0xbc70de1f	-0.014701395
49	0xbb12695c	-0.002234063
50	0xbc14103f	-0.0090370765
51	0xbc905c6a	-0.017622191
52	0x3adee52e	0.0017005557
53	0xbc0722f8	-0.008248083
54	0x3c86018c	0.01635816
55	0x3cc7b67f	0.024379013
56	0x3b6fa3a6	0.0036566048
57	0x3c963731	0.018336864
58	0x3c87db7b	0.016584149
59	0xbb4bad75	-0.003107873
60	0x3bba76e4	0.0056904424
61	0x3be4f983	0.006987752
62	0xbc0454d2	-0.008076863
63	0x3ba005e4	0.0048835147
64	0x3acf6d1e	0.0015825366
65	0xba44e742	-0.0007511267
66	0x3c297bab	0.010344426
67	0x3b0e26bb	0.0021690566
68	0x3a765acc	0.0009397685
69	0xbb02446b	-0.0019877206
70	0xbaca64c1	-0.0015441404
71	0xbc3b6b78	-0.011439197
72	0xbbc28850	-0.00593666
73	0x397e46e7	0.00024249741
74	0xbb478ba4	-0.0030448223
75	0xbb1acb8d	-0.002361986
76	0xbb4e4f4c	-0.003148037
77	0xbba391b7	-0.004991736
78	0xbba9776d	-0.0051717074
79	0xbba3c786	-0.0049981503
80	0x39dc72d7	0.00042047232
81	0xbcaa76f1	-0.020808669
82	0xbcbb6ff2	-0.022880528
83	0xbc9c5a23	-0.01908595
84	0xbcb747e6	-0.022373151
85	0xbc04e1b6	-0.008110454
86	0xbc9fbf62	-0.019500438
87	0xbd007880	-0.031364918
88	0x3afad333	0.0019136429
89	0xbc68cd69	-0.01420913
90	0x3b133cdf	0.0022466702
91	0xba9db2b9	-0.0012031413
92	0xbc0d401d	-0.008621243
93	0x3c335038	0.010944419
94	0x3ba92ecd	0.00516305
95	0x3c03cdcf	0.008044674
96	0x3bb2dc78	0.005458411
97	0xbbe7ab67	-0.0070699933
98	0xb8bc3043	-8.973528e-05
99	0x3b80103d	0.0039081858
100	0x3b927925	0.004470008
101	0x3be94f95	0.0071200826
102	0x3c5b05b1	0.013368056
103	0x3c5f1806	0.0136165675
104	0x3c2215fe	0.009892939
105	0x3bcf2d0d	0.006322509
106	0xbac4ca16	-0.001501384
107	0xbb1f2ea4	-0.0024289275
108	0xbb20ea27	-0.0024553628
109	0x3c55ca95	0.013048788
110	0x3cb2cc2b	0.02182587
111	0x3c988783	0.018619305
112	0x3cf7d7ed	0.030254329
113	0x3d04ab9c	0.032390222
114	0x3d248827	0.040168907
115	0x3d591b58	0.053004593
116	0x3d4e12ba	0.050310828
117	0x3c0515df	0.00812289
118	0x3c185757	0.009298167
119	0x3c2645cf	0.01014848
120	0x3c386448	0.011254378
121	0x3c8aa1cd	0.016922856
122	0x3c94cdd3	0.01816455
123	0x3c80f6eb	0.01574274
124	0x3cb0e124	0.02159173
125	0x3cad76a7	0.021174742
126	0x3c6429cf	0.013925984
127	0x3caee764	0.02135057
128	0x3ca30a8d	0.019902492
129	0x3c7f63f7	0.015587798
130	0x3ca539da	0.020169187
131	0x3c87ee2a	0.016593058
132	0x3bcb4ccb	0.006204223
133	0x3c89109e	0.016731557
134	0x3c9650c1	0.018349053
135	0x3c148a9b	0.009066249
136	0x3c24c2df	0.0100562265
137	0xbb5194bf	-0.0031979529
138	0x3cf7136b	0.030160626
139	0x3c173a6c	0.009230237
140	0xbba55730	-0.005045794
141	0x3c88925e	0.016671356
142	0x3bfc6a56	0.007703106
143	0xbbe96a61	-0.007123277
144	0x3cacdfe3	0.021102851
145	0xbb8a5c45	-0.004222425
146	0xbc2691e3	-0.010166618
147	0x3c0ecb07	0.008715398
148	0x3ac96520	0.0015365221
149	0xbbdc8a6e	-0.0067303693
150	0xbc30ac9b	-0.01078334
151	0xbc12fff9	-0.008972161
152	0xbca4e46d	-0.020128453
153	0x3bff6126	0.0077935634
154	0x3ba75ac3	0.005107255
155	0x3b8253f2	0.003977292
156	0x3cb75de4	0.022383638
157	0x3c1f7d0f	0.009734406
158	0x3c2bbf9f	0.010482698
159	0x3c30accc	0.0107833855
160	0x3c0c9eeb	0.008582811
161	0xbbe25994	-0.006907651
162	0x3c3cb19a	0.011516953
163	0x3c117aa3	0.0088793365
164	0x3c5cc0f8	0.013473742
165	0x3c2dda25	0.010611092
166	0x3c140bda	0.009036029
167	0x3c64c561	0.013963074
168	0x3c606adb	0.013697351
169	0x3c151c88	0.009101041
170	0x3c6e42d9	0.014542305
171	0x3cd3e295	0.025864879
172	0x3c9ca5b5	0.019121984
173	0xbac8467f	-0.0015279799
174	0x3caa98ef	0.020824878
175	0x3caee8e3	0.021351283
176	0x3a9dbbee	0.0012034157
177	0x3c563eeb	0.013076524
178	0x3c2cb800	0.010541916
179	0x3c228395	0.009919067
180	0x3c8c8fdf	0.017158447
181	0x3cad0d57	0.021124525
182	0x3bfe4a3a	0.0077603133
183	0x3b9825c6	0.004643175
184	0x3c1c6b2f	0.009547039
185	0xbbbb3c41	-0.00571397
186	0xbb1ac812	-0.0023617786
187	0xbc025de8	-0.007956959
188	0xbc18e57f	-0.00933206
189	0xbaaf1885	-0.0013358748
190	0x3ba0f8e2	0.0049124816
191	0x3c26bbd5	0.010176619
192	0x3be77343	0.007063301
193	0x3b72d2d5	0.0037051935
194	0x3bc72b11	0.006078132
195	0x3bcb3634	0.00620153
196	0x3b891389	0.004183237
197	0x3bfd4a51	0.0077298065
198	0x3baea067	0.00532918
199	0x3c24a5c9	0.010049292
200	0x3be37347	0.0069412324
201	0x3cd6e007	0.026229871
202	0x3cda04ef	0.02661368
203	0x3d0ce7dc	0.034400806
204	0x3cb48cd6	0.022039812
205	0x3cb9d26c	0.022683345
206	0x3ceb0e41	0.02869332
207	0x3a047cca	0.00050539954
208	0x398c7cac	0.0002679577
209	0x3b85059b	0.004059506
210	0x3c3bade5	0.011455034
211	0x3c812765	0.015765855
212	0x3cdf8a90	0.027287751
213	0x3ccd729b	0.025079062
214	0x3cce9c24	0.025220938
215	0x3ce54a2f	0.027989475
216	0xbbe78530	-0.0070654377
217	0xbbea18f9	-0.0071440903
218	0xb93b10ba	-0.00017839941
219	0xbbdaf990	-0.006682582
220	0xba2d636d	-0.0006614242
221	0x3b96f996	0.0046073897
222	0xba226be7	-0.0006195888
223	0xba2cd564	-0.0006593077
224	0x3b02b818	0.0019946154
225	0x3c3459c7	0.011007733
226	0x3c5564ee	0.013024552
227	0x3ba62b55	0.0050710835
228	0x3c0162ce	0.007897092
229	0x3b2dabff	0.0026500223
230	0x3c0decd9	0.008662426
231	0xb9587aa9	-0.0002064506
232	0x3a91b327	0.0011116014
233	0x39d0cab3	0.00039823874
234	0xbad81165	-0.0016484676
235	0x3b90a898	0.004414629
236	0xbc7b50a5	-0.015339051
237	0x3bdb3905	0.006690147
238	0x3bc36edb	0.0059641427
239	0xbbe6944a	-0.0070367204
240	0x3c11652e	0.008874221
241	0x3b9f4033	0.004859948
242	0xbb1ab482	-0.0023606126
243	0x3c237e3a	0.009978825
244	0x3c45d861	0.0120755145
245	0x3c42bdce	0.011886073
246	0x3b967af2	0.004592293
247	0xbb2a90ad	-0.0026026175
248	0x3c1a3ed8	0.009414397
249	0x3b1f8c8e	0.0024345252
250	0xbab901ca	-0.0014114913
251	0xbb72824d	-0.0037003935
252	0x3c7d107f	0.0154458275
253	0x3c426e2d	0.011867088
254	0x3c366bf4	0.0111341365
255	0xbab0b9b8	-0.0013483083
