models/base_model_blocks_4.pth (torch, 64630 bytes, 36 tensors)

conv1.weight f4 [5, 3, 3, 3]
0	0xbe6a1a62	-0.22861627
1	0xbd5e03f5	-0.054202992
2	0xbd674b94	-0.05646856
3	0xbe869113	-0.26282558
4	0xbe8cb2e2	-0.27480227
5	0xbe01c143	-0.1267138
6	0xbe272527	-0.16322766
7	0x3d5efc40	0.054439783
8	0x3d6e8ce6	0.05823984
9	0x3c071f90	0.008247271
10	0xbc996d48	-0.018728867
11	0xbd670449	-0.05640057
12	0x3e86d9c0	0.26338005
13	0x3d9cc25f	0.07654261
14	0xbc835a93	-0.0160344
15	0xbcc480a7	-0.023987127
16	0xbd447eda	-0.047972538
17	0xbdb069b7	-0.086139135
18	0x3e81792b	0.25287756
19	0x3c50fd48	0.012755699
20	0x3e1ca4f6	0.15297303
21	0x3dbb436b	0.09143718
22	0x3d8feddc	0.0702779
23	0x3dda7ba8	0.10668117
24	0x3e8f258b	0.2795833
25	0x3d099b8e	0.033595614
26	0xbc406440	-0.011742651
27	0x3d7a8cf9	0.0611696
28	0xbcb3f108	-0.021965519
29	0xbdb415c7	-0.08793216
30	0xbd9abf86	-0.075560614
31	0xbd070f7f	-0.032973763
32	0x3dec2941	0.11531306
33	0x3e99aa12	0.30012566
34	0x3e93e1cf	0.28883216
35	0xbcd411c7	-0.025887383
36	0xbe1b4fd6	-0.15167174
37	0xbe5e0c1a	-0.21684304
38	0xbd4da836	-0.050209247
39	0xbde7429c	-0.112920016
40	0x3de98b1c	0.11403486
41	0xbe76e272	-0.2410982
42	0x3e80bf20	0.25145817
43	0x3cbaf48f	0.022821693
44	0x3df7d1f1	0.1210059
45	0x3db18133	0.08667221
46	0x3dc08ff7	0.09402459
47	0xbdda267f	-0.10651874
48	0xbc6976db	-0.014249529
49	0x3e09daad	0.13462324
50	0x3db4500f	0.088043325
51	0x3e53eb83	0.2069531
52	0xbd3286f4	-0.043585733
53	0x3e561b00	0.20908737
54	0x3c2c090c	0.010500204
55	0xbe3cf45b	-0.18452589
56	0xbea8f88a	-0.3300212
57	0xbdb64bab	-0.08901151
58	0xbe9f7fa4	-0.3115207
59	0xbe11fbcf	-0.14256214
60	0xbe46c924	-0.19412667
61	0xbddb248e	-0.10700332
62	0xbdb26c7f	-0.087121
63	0x3dd8da1e	0.105884776
64	0xbe24c607	-0.16091166
65	0xbe672f4a	-0.22576633
66	0x3d202611	0.039098803
67	0x3de74865	0.11293105
68	0x3e45109b	0.19244616
69	0x3e8f92bb	0.28041634
70	0x3e1abb2f	0.15110467
71	0xbca9334a	-0.02065434
72	0xbdc50eb1	-0.09621943
73	0xbdfdf1f6	-0.12399666
74	0xbe411a1a	-0.18857613
75	0x3d9f726d	0.07785497
76	0xbcdc91f0	-0.026925057
77	0xbdcf260f	-0.10114681
78	0xbdb2f406	-0.0873795
79	0x3dd954cc	0.10611877
80	0x3e7b004b	0.2451183
81	0x3d70313a	0.058640696
82	0xbe1707cd	-0.1474907
83	0x3e4ee969	0.20206226
84	0xbdf33ddf	-0.11877035
85	0x3d1310e9	0.0359048
86	0xbdb08fa9	-0.08621151
87	0x3e7bb911	0.24582316
88	0x3cf0642c	0.02934464
89	0x3e0fe6fd	0.14052959
90	0x3e335a0c	0.17514819
91	0x3d078853	0.033088993
92	0xbe7bf647	-0.24605666
93	0x3bd0ad66	0.006368327
94	0xbce6dbee	-0.028181043
95	0xbeb3a540	-0.35087013
96	0x3d98172f	0.07426297
97	0x3d17962c	0.03700845
98	0xbdefe7a2	-0.11714102
99	0x3de54f5b	0.111967765
100	0x3d7a968c	0.06117873
101	0xbe2ecec3	-0.17071061
102	0xbbc70fbf	-0.006074875
103	0xbe178098	-0.14795148
104	0xbde3d516	-0.11124627
105	0x3bbd9399	0.0057854173
106	0x3d93396c	0.07188687
107	0x3e8f3082	0.27966696
108	0x3e90668f	0.28203246
109	0x3dda39b5	0.10655538
110	0xbe1b09cd	-0.15140457
111	0xbd101bbc	-0.0351827
112	0xbe0a7078	-0.13519466
113	0xbe25b727	-0.16183148
114	0xbe3f5278	-0.18683803
115	0x3e0e45fb	0.13893883
116	0x3cdb32d9	0.026757644
117	0x3e44ba80	0.19211769
118	0x3d1dcde3	0.038526427
119	0xbeb2853c	-0.34867275
120	0x3db9f305	0.090795554
121	0x3d3e15d7	0.046407547
122	0xbdb5f188	-0.08883959
123	0x3d018a74	0.03162618
124	0x3e31b362	0.17353585
125	0xbe0be167	-0.13660203
126	0x3e871444	0.2638265
127	0xbc04b127	-0.008098877
128	0xbed17c76	-0.4091527
129	0x3e58e7d7	0.2118219
130	0x3e2b1344	0.16706568
131	0x3d437240	0.04771638
132	0x3d5a02fb	0.0532255
133	0xbd711ccc	-0.058865353
134	0xbe11e975	-0.14249213

conv1.bias f4 [5]
0	0x3e6f5d42	0.23375419
1	0x3dcc59ea	0.09978087
2	0x3d671730	0.056418598
3	0x3d87d44d	0.0663229
4	0x3e417b6e	0.18894741

conv2.weight f4 [5, 5, 3, 3]
0	0xbd9c4f4f	-0.076323144
1	0xbc1cde17	-0.009574435
2	0xbb414807	-0.0029492395
3	0xbd32fbb5	-0.043697078
4	0x3dc2390c	0.09483537
5	0x3c8c3e70	0.017119616
6	0x3da1188d	0.07866011
7	0x3dd6f651	0.104962
8	0x3b9e6346	0.0048336117
9	0xbc925f17	-0.017867608
10	0xbe393cb3	-0.18089561
11	0xbea2759e	-0.3173036
12	0x3c3f0c69	0.011660674
13	0x3d0f26d2	0.03494913
14	0x3d027513	0.031849932
15	0xbdcebc2c	-0.10094485
16	0xbd0261e1	-0.031831626
17	0x3df07386	0.11740784
18	0xbd2f537b	-0.042804223
19	0x3da8e233	0.08246269
20	0xbd31af00	-0.043379784
21	0x3e06ad80	0.13152122
22	0xbe1430e2	-0.14471772
23	0x3ddb36f8	0.10703844
24	0xbe078e96	-0.13237986
25	0x3e2025ee	0.15639469
26	0x3e3f8618	0.18703496
27	0x3d866fbf	0.065642826
28	0x3d456223	0.048189294
29	0x3dcda4d9	0.10041208
30	0x3e066239	0.13123406
31	0x3d1c6604	0.038183227
32	0x3e3322fd	0.17493816
33	0x3c9af9db	0.018917968
34	0xbe1bae5f	-0.15203236
35	0x3dffdd75	0.124934115
36	0x3d860907	0.065446906
37	0x3e530f0f	0.20611213
38	0x3d344334	0.044009402
39	0x3baae8ec	0.0052157547
40	0x3d876bb5	0.0661234
41	0x3e68aad2	0.22721413
42	0xbd99a0f3	-0.07501402
43	0x3d5dd777	0.05416056
44	0x3e9a5c34	0.3014847
45	0x3e773083	0.241396
46	0x3d9a6096	0.075379536
47	0xbb6790e8	-0.0035334174
48	0x3ddcb0b0	0.10775888
49	0x3e106d1c	0.14104122
50	0x3d898cc5	0.06716303
51	0x3d84bbf5	0.064811625
52	0x3e113f27	0.14184247
53	0xbd92ca52	-0.07167496
54	0x3e8e4739	0.27788714
55	0x3c1a8a17	0.009432337
56	0x3cdcaf1e	0.026938971
57	0x3e2a00ec	0.16601914
58	0x3e1369ad	0.14395781
59	0x3bed0cdd	0.0072341994
60	0x3d54d177	0.051957574
61	0x3ba9c2e2	0.0051807025
62	0x3d5bedc2	0.05369354
63	0x3ddd06c1	0.10792304
64	0x3cc6d43f	0.024271129
65	0x3e794f65	0.24346693
66	0x3c7a16da	0.015264237
67	0x3e26901c	0.16265911
68	0x3deee054	0.11663881
69	0xbe1ca3a8	-0.15296805
70	0x3c8249f5	0.015904406
71	0xbcf6b299	-0.030114459
72	0xbe2ce309	-0.16883482
73	0xbb8d9ca7	-0.004321653
74	0xbe25bb2b	-0.1618468
75	0xbe8030ee	-0.2503733
76	0xbe93f037	-0.28894207
77	0xbddd181c	-0.10795614
78	0xbe6e8bca	-0.23295513
79	0xbe840d17	-0.25791237
80	0xbd0ec645	-0.034857053
81	0xbc439713	-0.011937874
82	0xbe238584	-0.15968901
83	0xbe1bde2c	-0.1522147
84	0xbd60aa38	-0.054849833
85	0xbd361337	-0.04445192
86	0xbd1ef9f5	-0.038812596
87	0xbbf5134a	-0.007479106
88	0x3c0ed707	0.008718259
89	0x3df3c23a	0.1190228
90	0x3dcfc535	0.10145036
91	0x3dd61621	0.104534395
92	0xbd8568e7	-0.06514149
93	0xbd1b196a	-0.037866034
94	0xbca62bc2	-0.020284537
95	0x3e5c4db1	0.21514012
96	0x3dc19dd5	0.09453932
97	0x3e2d6fb9	0.1693715
98	0x3e48138c	0.19538707
99	0xbd488b0c	-0.04896073
100	0xbd10de5d	-0.035368312
101	0xbac4ebf6	-0.0015023935
102	0xbba95d44	-0.005168589
103	0x3d5ef7a5	0.05443539
104	0x3d86bc08	0.06578833
105	0xbd227a36	-0.03966733
106	0x3e5e361b	0.21700327
107	0x3ea97ff5	0.33105436
108	0x3c991550	0.01868692
109	0x3c9e16c6	0.019297969
110	0xbe24572f	-0.16048883
111	0x3b276290	0.0025540926
112	0xbe4fb873	-0.20285206
113	0xbcd1336c	-0.025537215
114	0xbe9fb20b	-0.31190524
115	0xbdf18858	-0.11793584
116	0xbdeadc92	-0.11467852
117	0x3c919b96	0.017774384
118	0xbd0f1f4b	-0.034941953
119	0xbe207a88	-0.15671742
120	0xbd42bc66	-0.047542952
121	0xbdf40f91	-0.119170316
122	0xbcf85902	-0.03031588
123	0xba943514	-0.0011307322
124	0x3d21d1d3	0.039506745
125	0x3d0b9a75	0.03408285
126	0x3ded752a	0.11594613
127	0x3d68fa0a	0.05687908
128	0x3c71b0a2	0.014751585
129	0x3e931899	0.28729704
130	0x3d7e5025	0.06208815
131	0x3d7582a6	0.05993905
132	0x3c29fa31	0.010374592
133	0x3d103deb	0.0352153
134	0xbc8000f9	-0.015625464
135	0x3cb2b4e6	0.021814775
136	0xbe85a6bd	-0.26103774
137	0x3d3ee588	0.046605617
138	0xbe37a22a	-0.17932954
139	0xbed77425	-0.420808
140	0xbe4fcd0c	-0.20293063
141	0xbe00c8d5	-0.12576611
142	0xbeb87901	-0.3602982
143	0xbc1aba4e	-0.009443833
144	0x3d3b85ab	0.045781773
145	0xbd707de8	-0.058713824
146	0x3d4ed0d7	0.050492134
147	0x3dab9a72	0.083790675
148	0xbd9751ab	-0.07388624
149	0x3dd0ad7d	0.1018934
150	0x3d31c37e	0.043399327
151	0x3dd20ee7	0.10256749
152	0x3dc2e9f1	0.09517277
153	0xbad2a448	-0.0016070688
154	0x3d829f55	0.063780464
155	0xbe0d89ce	-0.138221
156	0x3e401e51	0.18761565
157	0xbd0d9f84	-0.034575954
158	0x3e465261	0.19367363
159	0xbcaf47b3	-0.021396494
160	0x3d3c5312	0.04597766
161	0xbd75f4cf	-0.06004792
162	0xbc8b41b2	-0.0169991
163	0xbcd36bdc	-0.025808267
164	0xbdf153a0	-0.11783528
165	0xbe44f1dd	-0.19232889
166	0xbe52d5a0	-0.20589304
167	0xbe283eb9	-0.16430177
168	0x3d0a6721	0.033789758
169	0xbd5bd79d	-0.05367242
170	0xbe1ca912	-0.1529887
171	0x3e6c9dab	0.2310702
172	0x3ea64f4d	0.32482377
173	0xbdcc6f91	-0.09982217
174	0xbd226750	-0.039649308
175	0x3e7d4bfd	0.24736018
176	0x3c25d231	0.010120914
177	0xbdfdd827	-0.123947434
178	0xbdc69283	-0.09695914
179	0xbe67fc75	-0.22654898
180	0xbdb34c0e	-0.08754741
181	0xbe0bd3f4	-0.13655072
182	0x3d80202b	0.062561356
183	0x3cda1baf	0.026624529
184	0xbda7cbc0	-0.08193159
185	0x3df15a88	0.117848456
186	0xbdbd100b	-0.092315756
187	0x3dd157f7	0.10221856
188	0x3e508773	0.2036417
189	0xbe102063	-0.14074855
190	0xbd6040cb	-0.05474929
191	0x3d75f7ab	0.060050648
192	0x3df03f29	0.11730797
193	0x3e167095	0.14691384
194	0xbce08a05	-0.027409563
195	0xbdb5eb1e	-0.08882736
196	0x3d7b8917	0.061410036
197	0x3d897c0e	0.06713115
198	0x3e8f76d6	0.28020352
199	0x3dbb29d5	0.09138838
200	0xbccf37b4	-0.025295116
201	0x3ccdd60f	0.025126485
202	0xbdb3d9df	-0.0878179
203	0xbe01ba5b	-0.12668745
204	0x3cb8d06f	0.022560326
205	0x3ccec9b3	0.025242662
206	0xbde55ac5	-0.111989535
207	0x3e7672a3	0.24067168
208	0x3e62b362	0.22138742
209	0x3c41230d	0.011788142
210	0xbcf5a864	-0.029987521
211	0xbe3be999	-0.18350829
212	0xbdaa9af2	-0.08330335
213	0xbba5a481	-0.005055011
214	0xbdaf0ec6	-0.0854774
215	0xbc296046	-0.010337895
216	0x3ea61ae9	0.32442406
217	0xbce467b9	-0.02788149
218	0x3d40e766	0.04709568
219	0xbe90e478	-0.28299308
220	0xbe3a9176	-0.18219551
221	0xbe02a747	-0.12759124
222	0xbe462884	-0.19351393
223	0xbe5d2872	-0.2159746
224	0x3a32ef1b	0.00068257906

conv2.bias f4 [5]
0	0xbcc93e86	-0.024565946
1	0x3e149d9d	0.1451325
2	0x3d4c5f5a	0.04989562
3	0x3e917452	0.28409058
4	0xbd8eee8c	-0.06979093

conv3.weight f4 [10, 5, 3, 3]
0	0x3c789a8a	0.015173564
1	0xbe480a68	-0.1953522
2	0xbd3fff3e	-0.046874277
3	0x3e270894	0.16311866
4	0x3e0bb830	0.1364448
5	0x3db8f109	0.09030349
6	0x3dcc6c8c	0.09981641
7	0x3d1960e6	0.037445925
8	0xbe183b08	-0.14866269
9	0x3dc6c766	0.09706001
10	0xbe0af013	-0.13568144
11	0xbeae0304	-0.33986676
12	0x3ce6d975	0.028179863
13	0xbc98685d	-0.018604452
14	0xbccf0143	-0.025269156
15	0x3e243bed	0.16038485
16	0x3e2e33ea	0.17011991
17	0x3c52b0af	0.012859507
18	0x3e55c3fe	0.20875546
19	0x3dd4edd3	0.10396924
20	0xbd32a7dd	-0.04361712
21	0x3dcbbf61	0.09948612
22	0xbe006310	-0.1253779
23	0xbe769c61	-0.24083091
24	0x3d3b0bb0	0.045665443
25	0xbdf1247f	-0.11774539
26	0xbd80793d	-0.06273124
27	0xbe5ff38f	-0.21870254
28	0xbc9f492b	-0.019444069
29	0x3e2899c4	0.16464907
30	0xbe73a541	-0.23793508
31	0xbcbbc942	-0.022923116
32	0x3d40db9c	0.047084436
33	0xbe678425	-0.22609003
34	0xbd87b90a	-0.0662709
35	0x3d810d58	0.06301373
36	0x3e0c9797	0.13729702
37	0x3da2d05b	0.07949897
38	0xbd3d7c4d	-0.04626112
39	0xbd7a889a	-0.06116543
40	0xbe11de17	-0.14244877
41	0xbd8c6faa	-0.06857236
42	0xbd30717a	-0.04307697
43	0xbe0e138b	-0.13874643
44	0xbca6f3d7	-0.020379944
45	0x3e9597e6	0.29217452
46	0xbe2f6ec4	-0.17132097
47	0xbd433f95	-0.04766806
48	0x3e1d3a23	0.15354209
49	0xbd983f5f	-0.07433962
50	0x3af9bccd	0.0019053459
51	0xbd88587b	-0.06657501
52	0x3e463f34	0.19360048
53	0x3e5c7748	0.21529877
54	0xbe292dbc	-0.16521353
55	0xbe1d98a8	-0.15390265
56	0x3e257897	0.16159283
57	0xbe0c5bea	-0.13706937
58	0xbe397f57	-0.18114983
59	0x3e23003b	0.15918057
60	0xbcbf4624	-0.023348875
61	0x3d489aca	0.048975743
62	0xbdd73e48	-0.10509926
63	0x3d260171	0.04052872
64	0xbb46c784	-0.0030331323
65	0x3e1fbd74	0.15599614
66	0x3daf8f8d	0.08572302
67	0xbdf97384	-0.12180236
68	0x3e133752	0.14376572
69	0x3d146872	0.03623242
70	0x3d645cb8	0.055752486
71	0xbe2b725e	-0.16742846
72	0xbc909260	-0.017647922
73	0xbe75bd9e	-0.23998114
74	0xbdad3f7d	-0.08459375
75	0x3df28a97	0.1184284
76	0xbdf2a7fb	-0.11848446
77	0xbdb0dd6d	-0.086359836
78	0x3e2a2a6b	0.16617744
79	0x3e4b288e	0.19839689
80	0x3deb1d01	0.114801414
81	0xbd12d8ba	-0.035851218
82	0xbe25ace2	-0.16179231
83	0x3dac7d9c	0.084223956
84	0xbe745c22	-0.23863271
85	0xbd4fbc63	-0.05071677
86	0x3da5385b	0.080673896
87	0xbdf03c87	-0.11730295
88	0x3d8875fc	0.06663129
89	0x3e253d37	0.16136633
90	0x3e19c6e7	0.15017281
91	0x3dd5ceb6	0.104398176
92	0x3e4e8250	0.20166898
93	0x3be7fac7	0.0070794555
94	0xbd54ccba	-0.051953055
95	0x3b7e8dd2	0.0038841856
96	0xbdafad72	-0.08578004
97	0xbd34e946	-0.04416778
98	0xbc9830fe	-0.018578049
99	0xbe5b6f2c	-0.21429127
100	0x3ce6c83a	0.028171647
101	0x3d62c61b	0.05536471
102	0xbc3ff697	-0.011716506
103	0xbdb183e8	-0.08667737
104	0xbd877f30	-0.06616056
105	0x3d62500c	0.05525212
106	0xbd29873a	-0.041388728
107	0x3cc77e88	0.024352327
108	0xbe96f5bc	-0.29484355
109	0x3e055d78	0.13023937
110	0x3d26dba0	0.040736794
111	0xbda61113	-0.081087254
112	0x3d853629	0.06504471
113	0x3c59c953	0.013292628
114	0xbcef0d1c	-0.029181056
115	0x3e0355c2	0.12825683
116	0x3dbf23a7	0.09332972
117	0x3cd8238b	0.026384136
118	0xbc9a5329	-0.018838482
119	0x3dfc91e3	0.12332513
120	0xbe556119	-0.20837821
121	0xbd910251	-0.0708052
122	0x3ddecb48	0.108786166
123	0xbe729b30	-0.23692012
124	0x3e247028	0.16058409
125	0x3e306090	0.17224336
126	0x3dd85f4e	0.10565053
127	0x3e59e122	0.21277288
128	0x3e25ef4b	0.16204564
129	0x3e1cd22d	0.1531455
130	0x3deff0c9	0.11715848
131	0xbec66d70	-0.3875537
132	0xbe034d72	-0.12822512
133	0x3d451f85	0.048125762
134	0xbcf4e5a1	-0.029894652
135	0x3e1433e8	0.14472926
136	0x3d9510d4	0.072786
137	0xbcb498fb	-0.022045603
138	0x3e6802a0	0.22657251
139	0x3dc0948a	0.094033316
140	0xbe2134a8	-0.15742743
141	0x3d32c566	0.043645285
142	0x3d67fb31	0.05663604
143	0x3d4b7d81	0.049680237
144	0xbce78745	-0.028262744
145	0xbd3ef163	-0.046616923
146	0xbe327dcc	-0.174308
147	0x39da77d6	0.00041669485
148	0xbe4043bd	-0.1877584
149	0xbc94abab	-0.018148264
150	0x3df4cb7d	0.11952875
151	0x3e2aa8b6	0.1666592
152	0xba097eea	-0.0005245047
153	0xbdfec7f0	-0.12440479
154	0x3da1339c	0.07871172
155	0x3e5ad0c5	0.21368702
156	0x3dcfc0b3	0.10144176
157	0x3e2838dc	0.1642794
158	0xbd58ff4c	-0.052977845
159	0xbcad096c	-0.021122657
160	0x3ac08f9c	0.0014691236
161	0xbdcc4656	-0.09974353
162	0x3e028c1f	0.12748764
163	0x3d9be7ad	0.07612548
164	0x3c7e19bb	0.015509064
165	0x3d179179	0.037003968
166	0xbb9a7d39	-0.0047146347
167	0xbe37b6ed	-0.17940874
168	0xbdc060f4	-0.09393492
169	0xbd11856c	-0.03552763
170	0xbe47e7fc	-0.19522089
171	0x3e31f571	0.17378785
172	0x3d8978e8	0.06712514
173	0x3de97d37	0.11400836
174	0x3eb7cd5b	0.3589886
175	0xbba5087f	-0.005036413
176	0x3d4078e5	0.046990294
177	0x3d407a2d	0.046991516
178	0xbd68d784	-0.056846157
179	0x3cb0c929	0.021580296
180	0xbda3ff92	-0.080077305
181	0x3e390e47	0.18071853
182	0xbbbd5807	-0.005778316
183	0x3c4bda65	0.012442206
184	0x3de6a7b4	0.112624556
185	0x3d9a6000	0.07537842
186	0xbd33f975	-0.043939073
187	0x3d8f06e1	0.06983734
188	0xbe37313a	-0.17889872
189	0x3abcdf5c	0.0014409828
190	0x3c80b354	0.01571051
191	0xbdf5f352	-0.120093
192	0xbd902f40	-0.07040262
193	0xbd73f918	-0.059563726
194	0xbe642610	-0.22280145
195	0x3d0d869f	0.034552213
196	0xbe29eff5	-0.16595443
197	0xbdd5912b	-0.10428079
198	0xbd0cbc3f	-0.034359213
199	0xbde482a3	-0.111577295
200	0xbe09bc6b	-0.13450782
201	0xbd42429b	-0.0474268
202	0xbd2849f9	-0.04108617
203	0x3e2a4b0f	0.16630195
204	0x3d606324	0.054782048
205	0xbd805d3e	-0.062677845
206	0x3e6ad1db	0.22931616
207	0x3c944ca0	0.018102944
208	0x3d9a6904	0.075395614
209	0x3e2d1398	0.16902006
210	0xbcdfea96	-0.027333539
211	0x3decd17c	0.115633935
212	0x3e247158	0.16058862
213	0x3e124db0	0.14287448
214	0x3d101b65	0.035182375
215	0xbdfce562	-0.12348439
216	0xbd8b413f	-0.06799554
217	0xbdd54fe3	-0.10415628
218	0x3db1c4a4	0.08680084
219	0xbe0f6f87	-0.14007388
220	0xbe3b221a	-0.18274727
221	0x3ea4275f	0.32061288
222	0x3d0ab7d2	0.03386671
223	0x3ebbd497	0.3668563
224	0x3e811727	0.25212976
225	0xbe3da9dd	-0.18521829
226	0x3e27fae2	0.16404298
227	0xbd71915d	-0.05897652
228	0x3e6cc29d	0.23121114
229	0x3bc7ec59	0.006101173
230	0x3c25c872	0.010118591
231	0x3e67c11e	0.22632262
232	0xbe381a9e	-0.17978904
233	0xbe143a6d	-0.14475413
234	0x3dfda6dd	0.12385342
235	0x3d968efd	0.073514916
236	0x3c529e17	0.012855074
237	0xbd670715	-0.05640324
238	0xbd84e6ca	-0.06489332
239	0xbdf67a10	-0.12035
240	0x3e66e5c8	0.22548592
241	0xbe48946a	-0.19587865
242	0xbe107f59	-0.1411108
243	0xbd6e004e	-0.05810576
244	0x3e1e0791	0.15432574
245	0x3cba0b24	0.02271039
246	0x3d868bc2	0.065696254
247	0x3e6109ec	0.21976441
248	0x3e13fb7a	0.144514
249	0xbe2540a1	-0.16137935
250	0xbe5bcfbb	-0.21465962
251	0xbe3c304a	-0.18377796
252	0xbe86bf88	-0.26318002
253	0xbc1e5cde	-0.009665696
254	0x3dbe1005	0.09280399
255	0xbd23ee9d	-0.04002248

conv3.bias f4 [10]
0	0x3e09c248	0.13453019
1	0xbe219e75	-0.15783103
2	0x3c5ff105	0.013668303
3	0xbe50db16	-0.20396075
4	0x3d4a3915	0.049370844
5	0x3e0c9a47	0.13730727
6	0x3e85b40c	0.26113927
7	0xbdcd8275	-0.10034648
8	0xbe6c21a3	-0.23059706
9	0xbe79351e	-0.24336669

conv4.weight f4 [20, 10, 3, 3]
0	0x3c65662c	0.01400141
1	0xbd5ce5ed	-0.05393021
2	0xbdee8ffc	-0.116485566
3	0xbdb376ba	-0.0876288
4	0xbdbdcf36	-0.09268038
5	0xbd3ab310	-0.045580924
6	0xbd4df030	-0.05027789
7	0xbd2f02f0	-0.04272741
8	0x3dff97ea	0.12480147
9	0xbda834d6	-0.08213203
10	0xbdff3cbe	-0.124627575
11	0xbd9d6574	-0.07685366
12	0xbc95b6d5	-0.018275658
13	0xbc8f8b6c	-0.017522536
14	0xbd4bfbf7	-0.04980084
15	0x3d45899f	0.04822695
16	0xbdd73d71	-0.10509766
17	0xbd96db97	-0.07366102
18	0xbb9dddb8	-0.0048176907
19	0x3d9a1390	0.075232625
20	0x3e369caf	0.17833208
21	0x3c43b225	0.011944328
22	0xbd854a2c	-0.06508288
23	0x3dbe76b5	0.09299985
24	0x3d1298d8	0.035790294
25	0xbb3a5c3f	-0.002843633
26	0xbbd7afc3	-0.0065822317
27	0x3d4f23e2	0.05057133
28	0xbd071d87	-0.032987144
29	0x3d4fed04	0.050763145
30	0x3cfe04ff	0.031008242
31	0xbc21c1e2	-0.009872885
32	0x3d402655	0.046911556
33	0xbd277802	-0.040885933
34	0x3d8f0bd2	0.069846764
35	0x3dabdf8b	0.08392247
36	0x3d5f154d	0.054463673
37	0xbde2bc1d	-0.11071036
38	0xbd104aec	-0.0352277
39	0x3da80959	0.08204908
40	0x3cc62b5b	0.024190595
41	0xbd1516de	-0.03639876
42	0x3dd4cce9	0.10390646
43	0xbd9b5a18	-0.075855434
44	0x3e0311b8	0.12799728
45	0x3dabf000	0.08395386
46	0xbde62deb	-0.11239227
47	0x3c579865	0.013158892
48	0x3d2be5d6	0.041967236
49	0xbce8d983	-0.02842403
50	0x3c2ec4be	0.010667024
51	0xbd1ac7fe	-0.037788384
52	0xbd10718a	-0.03526453
53	0xbdd72896	-0.10505788
54	0xbb6dd1c7	-0.0036288367
55	0x3c2fc142	0.010727229
56	0xbe02f88b	-0.12790124
57	0xbd924bfd	-0.071434
58	0xbdcc1f0c	-0.09966859
59	0xbd7d5365	-0.06184711
60	0x3da93f56	0.082640335
61	0xbda8a616	-0.082348034
62	0x394ee22b	0.00019729945
63	0xbd891a9e	-0.0669453
64	0x3dcc7b4e	0.09984456
65	0x3df44947	0.11928039
66	0x3d766704	0.060156837
67	0x3c954da7	0.018225504
68	0x3e5f0177	0.21777903
69	0x3e09a05e	0.13440081
70	0xbcccba25	-0.024991104
71	0xbe225acd	-0.1585495
72	0xbc426ace	-0.0118662845
73	0x3bc8004e	0.006103552
74	0xbdc11d0b	-0.09429368
75	0xbd85bcb6	-0.065301344
76	0x3cc87103	0.02446795
77	0xbc9eb0fa	-0.019371498
78	0x3dc1b98e	0.0945922
79	0x3e179818	0.14804113
80	0x3e907606	0.28215045
81	0xbcb8a0f4	-0.022537686
82	0x3d743cc8	0.059628278
83	0xbb991770	-0.0046719834
84	0xbd658450	-0.056034386
85	0xbd800b7d	-0.06252191
86	0xbdb64a4d	-0.089008905
87	0x3e61f129	0.22064652
88	0x3dad2f37	0.08456271
89	0xbdbc47ca	-0.0919338
90	0x3db0a502	0.08625223
91	0x3d7fe359	0.062472675
92	0xbd1250e4	-0.035721675
93	0x3de2592d	0.11052165
94	0xbe23ab75	-0.15983374
95	0xbdd1039e	-0.10205768
96	0x3de0fad8	0.10985345
97	0x3b5e5f09	0.0033931157
98	0xbe3141aa	-0.17310205
99	0x3cb8949e	0.022531804
100	0x3e440e6b	0.19146125
101	0x3db25ca1	0.08709074
102	0x3dfc5232	0.12320365
103	0x3d1c235a	0.03811965
104	0x3d3911c5	0.045182962
105	0xbe87e659	-0.2654293
106	0xbd199493	-0.037495207
107	0xbe1b5c06	-0.15171823
108	0x3d7b8f24	0.061415806
109	0xbe11f015	-0.1425174
110	0xbc866b39	-0.01640855
111	0xbcb1be8e	-0.021697309
112	0xbe0bb953	-0.13644914
113	0x3b4e1890	0.0031447746
114	0x3ddf4aa0	0.109029055
115	0x3bc33a0f	0.005957849
116	0x3dd5bead	0.10436759
117	0x3c7b2574	0.015328754
118	0xbe2b542e	-0.16731331
119	0x3d9f8fa2	0.07791068
120	0x3d0d9bcf	0.03457242
121	0xbcb15183	-0.021645313
122	0x3d1afd05	0.037838954
123	0xbe2a46bf	-0.1662855
124	0x3ccadc4c	0.024763249
125	0x3d8d2df2	0.06893529
126	0xbdd462d9	-0.10370416
127	0x3d037733	0.0320961
128	0x3dbe0c05	0.09279636
129	0x3d8e674d	0.06953297
130	0x3c1fa6ae	0.009744329
131	0x3d498761	0.049201373
132	0xbc2b317b	-0.010448809
133	0x3d9151c4	0.07095674
134	0xbe74f97e	-0.23923299
135	0xbb7ac6df	-0.003826551
136	0x3dc6ab5c	0.09700653
137	0xbd95d695	-0.07316319
138	0x3dc987d1	0.09840358
139	0xbd52cf0c	-0.051466987
140	0x3d79cdd2	0.0609873
141	0xbe3b69cc	-0.18302077
142	0xbd908226	-0.07056074
143	0xbd6a68c3	-0.057228815
144	0x3e38f1a9	0.18060936
145	0x3dd1cb06	0.10243802
146	0x3daf063e	0.085461125
147	0x3e03e576	0.12880501
148	0xbde8f9ed	-0.113757946
149	0x3d2887f3	0.041145276
150	0x3d914af2	0.07094373
151	0xbd5ca1b3	-0.053865146
152	0x3da22292	0.0791675
153	0x3d74c014	0.059753492
154	0xbd390d1d	-0.04517852
155	0xbdc0b28a	-0.094090536
156	0x3de36d7e	0.11104868
157	0x3d1e38c7	0.038628366
158	0xbd958d47	-0.07302337
159	0xbdb0abc0	-0.08626509
160	0x3d82dd7a	0.063898996
161	0xbdd88c1f	-0.10573601
162	0xbd86477e	-0.06556605
163	0xbdd02d52	-0.10164894
164	0x3cf047a7	0.029331041
165	0xbdc40e68	-0.0957306
166	0xbdbf6bc5	-0.09346727
167	0xbe6955d2	-0.22786644
168	0x3c8f59a4	0.017498799
169	0xbd6b315c	-0.05742012
170	0xbe3428d8	-0.17593706
171	0x3d4b199c	0.04958497
172	0xbd7af23b	-0.061266165
173	0xbcd1c4d3	-0.025606548
174	0xbe040232	-0.12891462
175	0xbdb4bd5e	-0.088251814
176	0x3e0438eb	0.12912337
177	0xbccb7441	-0.024835708
178	0xbd8f0957	-0.06984203
179	0xbd7eea1e	-0.06223499
180	0x3ddb1437	0.10697215
181	0xbd21a426	-0.039463185
182	0x3d9caa53	0.07649674
183	0x3d519b30	0.05117339
184	0xbc9e321f	-0.019311009
185	0xbd8f279f	-0.06989979
186	0x3ce00977	0.027348263
187	0x3e18c690	0.14919496
188	0xbdcc7dbc	-0.099849194
189	0x3d51d5e5	0.051229376
190	0xbbc851a1	-0.0061132465
191	0x3d0e11fc	0.03468512
192	0x3c7759f7	0.015097133
193	0xbdaf3830	-0.08555639
194	0xbd1c86e2	-0.03821457
195	0x3e068f44	0.13140589
196	0x3dcf96a7	0.101361565
197	0xbcb5c7b3	-0.02218995
198	0x3d368b8d	0.04456668
199	0x3d2af837	0.041740622
200	0xbdb43e5f	-0.08800959
201	0xbe28db51	-0.16489913
202	0xbe368e5a	-0.1782774
203	0xbe66aa05	-0.22525795
204	0x3d068638	0.032842845
205	0xbd801af9	-0.062551446
206	0xbdda1d47	-0.106501155
207	0xbb4c07c4	-0.0031132558
208	0xbdf64043	-0.12023976
209	0xbd91ded9	-0.07122583
210	0xbd941d25	-0.072321214
211	0xbe65bb80	-0.22434807
212	0xbe257a64	-0.1615997
213	0x3c97372e	0.018458929
214	0xbdbf512e	-0.09341656
215	0xbddcc350	-0.107794404
216	0x3d7001dd	0.058595527
217	0x3c26b54e	0.010175062
218	0xbd2c5fb0	-0.042083442
219	0x3d83fb6c	0.06444439
220	0xbc9ed581	-0.019388916
221	0xbadcfd37	-0.0016860132
222	0x3be1679f	0.0068788077
223	0x3cf94e49	0.030432837
224	0x3e2c96bd	0.16854377
225	0x3e1883da	0.14894047
226	0x3d99efde	0.07516454
227	0xbc3d4a3b	-0.011553342
228	0x3dbe2854	0.09285036
229	0xbcbd925f	-0.023141084
230	0xbd893c2a	-0.067009285
231	0xb8464dc2	-4.7279296e-05
232	0x3e390473	0.18068103
233	0x3e2e4dc3	0.17021851
234	0xbd346cfb	-0.044049244
235	0xbda0e2ce	-0.078557596
236	0x3b1c4edc	0.0023850715
237	0x3cd5b486	0.026087057
238	0x3ccc81ff	0.02496433
239	0x3b5e2cf9	0.0033901318
240	0x3df10167	0.117678456
241	0xbd29e3c1	-0.04147697
242	0xb99eef99	-0.00030314623
243	0xbd78aaa4	-0.06070961
244	0xbdb27906	-0.0871449
245	0xbe2b2487	-0.16713153
246	0x3da74268	0.08166963
247	0x3d4e02b3	0.050295543
248	0xbe8f751c	-0.28019035
249	0x3dab6982	0.083697334
250	0x3c2a5814	0.010396976
251	0xbd80e9c6	-0.06294589
252	0x3d69b26d	0.057054926
253	0xbd47e59c	-0.048802957
254	0xbdae507e	-0.085114464
255	0x3d8075fe	0.06272505

conv4.bias f4 [20]
0	0xbdb8fc33	-0.09032478
1	0x3e029dbf	0.12755488
2	0x3ccbd479	0.024881588
3	0xbe9ce55a	-0.3064373
4	0x3c9f9ba5	0.019483397
5	0xbe4059d8	-0.18784273
6	0x3e1f11cb	0.15534131
7	0xbd484ab1	-0.048899356
8	0xbe5efcec	-0.2177617
9	0xbe0f1a39	-0.13974847
10	0xbdacc1f4	-0.08435431
11	0x3e3d7ad2	0.18503883
12	0xbe056b52	-0.1302922
13	0xbdf21809	-0.118209906
14	0x3e1df96b	0.15427177
15	0xbe26e69e	-0.16298911
16	0xbe9a39f6	-0.30122346
17	0xbc04b58d	-0.008099926
18	0xbe230d34	-0.15923005
19	0x3e80eb70	0.25179625

fc1.weight f4 [50, 20]
0	0xbd5425ec	-0.051793978
1	0x3e93156c	0.2872728
2	0x3e8dd495	0.2770125
3	0xbd8bbd1c	-0.06823179
4	0xbd9fe2a5	-0.07806901
5	0xbcf21a0e	-0.02955344
6	0xbe321e16	-0.1739429
7	0x3ee0e606	0.43925494
8	0xbc9bbacb	-0.019009968
9	0xbd83c39b	-0.06433793
10	0x3ec55db9	0.38548067
11	0x3ddcd32d	0.10782466
12	0xbe1cc0e5	-0.15307958
13	0x3c16bd92	0.0092004705
14	0xbe6a5deb	-0.2288739
15	0xbe470f5d	-0.19439454
16	0xbcb8c700	-0.022555828
17	0x3d86e656	0.06586902
18	0xbde3b1e2	-0.11117913
19	0x3e843635	0.25822607
20	0xbe01741a	-0.12641945
21	0xbeb1ee96	-0.3475234
22	0xbea08722	-0.31353098
23	0x3e45fded	0.19335146
24	0xbeafbfdb	-0.34326062
25	0x3e1b4f83	0.1516705
26	0xbe9a0798	-0.3008392
27	0x3e45d220	0.19318438
28	0xbd8765cc	-0.06611213
29	0x3e0b61ca	0.13611522
30	0xbe98b1b5	-0.2982308
31	0xbe7ead1c	-0.24870723
32	0x3d1340f6	0.035950623
33	0xbde23801	-0.11045838
34	0xbe8c1fd2	-0.27368027
35	0x3e932508	0.2873919
36	0x3e980440	0.29690742
37	0xbd83cadb	-0.06435176
38	0xbd8f30aa	-0.06991704
39	0xbe4b41ff	-0.19849394
40	0x3e0453b1	0.1292255
41	0xbe1b1238	-0.15143669
42	0xbe4bf439	-0.19917382
43	0x3e67eb65	0.2264839
44	0xbe2d240e	-0.16908285
45	0xbd0c2368	-0.034213454
46	0xbec6e061	-0.38843063
47	0xbcaab0cd	-0.020836258
48	0x3d526ad7	0.05137142
49	0xbbfa543f	-0.0076394374
50	0xbe4d2499	-0.20033492
51	0xbeea3579	-0.4574392
52	0xbd2131f5	-0.039354283
53	0x3e8caf59	0.2747753
54	0xbec435e6	-0.3832237
55	0x3dd28d62	0.10280873
56	0x3c68bb8e	0.014204873
57	0x3e65189b	0.22372667
58	0xbe3a7354	-0.18208057
59	0xbe89f3ef	-0.2694392
60	0x3e73428d	0.23755856
61	0xbec3d699	-0.38249663
62	0xbeb3ee14	-0.35142577
63	0x3d9f4723	0.0777724
64	0x3d221ba4	0.03957714
65	0xbdbf00c8	-0.09326321
66	0xbec20f30	-0.37902212
67	0xbe40d3ba	-0.18830767
68	0x3dc480df	0.09594893
69	0x3d84fcda	0.0649354
70	0xbedc479f	-0.43023393
71	0xbf0def72	-0.5544349
72	0x3e568a52	0.20951203
73	0x3e840a71	0.25789216
74	0xbd823bd8	-0.063590705
75	0x3e5e196f	0.2168939
76	0x3e48b9c1	0.1960211
77	0x3c99d3fe	0.018777844
78	0x3c9f82ef	0.019471614
79	0xbe879fd5	-0.2648913
80	0xbd28deae	-0.04122799
81	0x3e0dc5ae	0.1384494
82	0xbc29a234	-0.010353614
83	0xbd4db689	-0.050222907
84	0xbd366193	-0.044526648
85	0x3d4b7817	0.049675073
86	0xbc173e69	-0.009231188
87	0x3e8a04a5	0.26956668
88	0x3e9457c5	0.28973213
89	0x3cb65da3	0.022261446
90	0x3e8785dc	0.26469314
91	0x3e9cdbd0	0.30636454
92	0xbec62cc8	-0.3870604
93	0x3d046834	0.03232594
94	0xbec21cd7	-0.37912628
95	0xbe8fc0df	-0.28076836
96	0xbe043788	-0.12911808
97	0x3ea9f5fc	0.33195484
98	0xbe8e582d	-0.27801648
99	0x3e18bddc	0.14916176
100	0xbdc072b0	-0.09396875
101	0xbe11bf77	-0.14233194
102	0xbecb5818	-0.39715648
103	0xbb916434	-0.004436994
104	0x3de4da68	0.1117447
105	0xbdcc140b	-0.099647604
106	0xbe7e1b7f	-0.24815176
107	0xbdd0094f	-0.101580255
108	0x3e4c187b	0.19931214
109	0x3e57c732	0.2107208
110	0xbe8b418c	-0.27198446
111	0xbecf3ca2	-0.40475947
112	0x3e16c3c6	0.14723119
113	0x3e76b16f	0.24091123
114	0xbd65ba5e	-0.056085937
115	0x3e34ed93	0.17668752
116	0x3e391fda	0.18078557
117	0xbe06f40e	-0.13179037
118	0x3c366215	0.011131783
119	0xbd3fc263	-0.04681624
120	0xbe27813f	-0.16357897
121	0x3d938b1e	0.07204269
122	0xbbf28b59	-0.0074018654
123	0xbe861945	-0.26191154
124	0x3ede072d	0.4336485
125	0xbd931aa5	-0.071828164
126	0x3d1dbbaa	0.03850905
127	0xbdd37b61	-0.10326267
128	0xbe591688	-0.21200001
129	0xbeaddcd8	-0.33957553
130	0xbe0209d4	-0.12699062
131	0x3e6b4964	0.22977215
132	0xbd230d36	-0.03980752
133	0xbecab785	-0.3959314
134	0x3d39781e	0.04528057
135	0xbe4eeaed	-0.20206805
136	0xbee965d2	-0.45585495
137	0xbe814958	-0.2525127
138	0x3a893dec	0.0010470725
139	0xbcb0db9e	-0.021589097
140	0xbe8c85e1	-0.27445891
141	0x3dc95992	0.09831537
142	0x3ec65446	0.3873617
143	0xbeb95905	-0.3620073
144	0x3e978119	0.2959068
145	0xbd48de8d	-0.049040366
146	0x3df44130	0.11926496
147	0x3ea8aa68	0.3294251
148	0x3d317b71	0.043330614
149	0xbe0e9f89	-0.13928045
150	0x3e955281	0.29164508
151	0x3ef7c232	0.48390347
152	0xbe7550d4	-0.23956615
153	0xbe1a8a8a	-0.15091911
154	0xbd58a7af	-0.05289429
155	0xbeb6b1fe	-0.35682672
156	0xbe9c5831	-0.30536035
157	0xbcf3a185	-0.029740104
158	0xbe152b55	-0.14567311
159	0x3e72c843	0.23709206
160	0xbdc6f5de	-0.09714864
161	0xbeade580	-0.33964157
162	0xbec8f242	-0.39247328
163	0x3dfe099b	0.12404176
164	0x3d2ad667	0.041708376
165	0x3da5cd11	0.08095754
166	0xbed17541	-0.4090977
167	0xbe0c438d	-0.13697644
168	0xbce2eba4	-0.027700253
169	0x3e83e3c7	0.25759718
170	0xbedc1096	-0.42981404
171	0xbe6ddaa5	-0.23227938
172	0x3dde679c	0.10859606
173	0x3e9a637b	0.30154023
174	0x3b17b30c	0.0023147492
175	0x3ebbdc09	0.3669131
176	0xbd901c20	-0.070366144
177	0xbdf8d2b0	-0.121495605
178	0xbbf52e0b	-0.0074822954
179	0xbe2864fb	-0.16444771
180	0x3ddf5f26	0.1090682
181	0xbe1e8382	-0.15479854
182	0xbe9bb5ea	-0.30412227
183	0x3e9151fb	0.2838286
184	0xbd851e8f	-0.06499969
185	0xbdc36199	-0.095401
186	0xbe673711	-0.225796
187	0xbe1006ac	-0.14065045
188	0x3e050f5b	0.12994139
189	0x3e0a6d45	0.13518246
190	0xbdd366fa	-0.103223756
191	0xbe432b4d	-0.19059487
192	0xbe50958d	-0.20369549
193	0x3dc8bec3	0.0980201
194	0xbd97a517	-0.07404535
195	0xbd8f7fc5	-0.07006792
196	0x3e3c5f0a	0.1839563
197	0xbe47fc3f	-0.19529818
198	0x3e26a772	0.16274813
199	0xbdfeb9cb	-0.12437781
200	0xbe2cd8a8	-0.16879523
201	0x3e796641	0.24355413
202	0x3e222470	0.15834212
203	0xbe2ec38d	-0.17066784
204	0x3ef8528e	0.48500484
205	0xbd31ffd3	-0.043456864
206	0x3ebb82d5	0.36623254
207	0x3dc097d4	0.09403959
208	0xbdc36839	-0.09541363
209	0xbe4df4b3	-0.20112877
210	0x3e65bb85	0.22434814
211	0x3e7f1cb8	0.24913299
212	0xbdf02e06	-0.11727528
213	0xbe8371a9	-0.25672653
214	0x3de9fd78	0.114252985
215	0xbe8301f7	-0.25587437
216	0xbe9a832c	-0.301782
217	0xbc897998	-0.016781613
218	0xbdaf9626	-0.085735604
219	0x3ecefb5a	0.4042614
220	0x3e73ca6a	0.23807684
221	0xbd897ca8	-0.067132294
222	0xbe96d1be	-0.29456896
223	0xbe4234da	-0.18965474
224	0x3c76e22f	0.015068575
225	0xbcbf3882	-0.023342375
226	0xbe386b5a	-0.18009701
227	0xbe20ce98	-0.1570381
228	0xbdadedb5	-0.08492605
229	0x3e22f2b4	0.15912896
230	0xbe25172a	-0.16122118
231	0xbe946cd0	-0.28989267
232	0x3e486bc8	0.19572365
233	0xbe563e52	-0.20922211
234	0x3eecae1f	0.46226594
235	0x3e8fa66c	0.28056657
236	0x3e436fde	0.19085643
237	0xbd7f94fc	-0.062397942
238	0xbde8a773	-0.113600634
239	0xbe36ffc9	-0.17871012
240	0xbba0c12b	-0.00490584
241	0x3e13dc61	0.14439537
242	0xbd48afd1	-0.048995797
243	0x3e3a0ff6	0.18170151
244	0xbe42f13e	-0.19037339
245	0x3eb2955c	0.34879577
246	0xbdc505fc	-0.09620282
247	0xb954f1b8	-0.00020307943
248	0x3edbe9d3	0.4295183
249	0x3d7c1dcc	0.061551854
250	0x3d86c319	0.06580181
251	0xbd33024c	-0.043703362
252	0xbdc679ee	-0.09691225
253	0x3e249ca8	0.16075385
254	0xbeb87f76	-0.36034745
255	0xbd953b20	-0.07286668

fc1.bias f4 [50]
0	0x3dc77795	0.09739605
1	0x3e0484dd	0.12941308
2	0x3e1d0dfa	0.15337363
3	0x3d1f200d	0.038848925
4	0xbddb7bbe	-0.10716961
5	0xbd6fae82	-0.058516033
6	0x3e7c951a	0.24666253
7	0x3e594dce	0.21221086
8	0x3c28156e	0.0102590155
9	0x3d461ba6	0.04836621
10	0x3e4002fd	0.1875114
11	0x3da571e8	0.080783665
12	0x3c9012aa	0.017587025
13	0x3cc04970	0.023472518
14	0x3eb4dc76	0.35324448
15	0x3e629d9e	0.22130439
16	0x3e021869	0.12704624
17	0x3d8147b9	0.06312508
18	0x3e9d48a1	0.30719474
19	0xbd913637	-0.07090419
20	0x3e5e909d	0.21734853
21	0x3e28b155	0.16473897
22	0x3d978b2d	0.073995925
23	0x3d9a5609	0.07535941
24	0xbe20e8ae	-0.1571376
25	0x3e5a59f4	0.21323377
26	0xbd3ee3ea	-0.046604075
27	0x3e5d3644	0.21602732
28	0xbcccdb86	-0.02500702
29	0x3dac00d0	0.083985925
30	0x3e9006a6	0.28130072
31	0x3e393e16	0.1809009
32	0x3d87647d	0.066109635
33	0x3e4d781d	0.20065351
34	0x3d7f48ea	0.062325396
35	0x3e1219c9	0.14267649
36	0x3c973911	0.018459829
37	0xbc89b3be	-0.01680934
38	0x3e8e567b	0.27800354
39	0x3e99c344	0.30031788
40	0xbdf480d4	-0.119386345
41	0x3e74d755	0.23910268
42	0xbc6a7157	-0.014309249
43	0x3ca637aa	0.020290215
44	0x3c8f5587	0.017496837
45	0x3d8f6984	0.070025474
46	0x3d8fd6b8	0.07023376
47	0x3da6f551	0.08152259
48	0xbcefcf8b	-0.029273769
49	0x3ce48650	0.027896076

fc2.weight f4 [3, 50]
0	0x3e0d14c5	0.13777454
1	0xbdbc570e	-0.09196292
2	0x3d153578	0.036427945
3	0xbe64730c	-0.22309512
4	0x3e83520d	0.25648537
5	0xbe505312	-0.20344189
6	0x3c27114d	0.010196996
7	0x3d5ac026	0.053405903
8	0xbe82c8ce	-0.25543827
9	0xbdd5c02f	-0.10437047
10	0x3e28b146	0.16473874
11	0xbeb4125b	-0.35170254
12	0x3e0c0148	0.13672364
13	0xbdfdd739	-0.12394566
14	0x3df649ed	0.12025819
15	0xbea93289	-0.33046368
16	0x3d9ea692	0.077466145
17	0xbe955038	-0.29162765
18	0x3e196664	0.14980465
19	0xbe9f51c3	-0.31117067
20	0xbe563c6c	-0.20921487
21	0x3ede37c6	0.43401927
22	0x3ca02dd0	0.019553095
23	0x3e077482	0.13228038
24	0x3e8f3269	0.27968147
25	0x3e71aeaa	0.23601785
26	0xbe1dbf13	-0.1540492
27	0xbe90f8f7	-0.28314945
28	0xbe9e6bdc	-0.30941665
29	0x3ed1b38a	0.4095729
30	0x3e59f029	0.2128302
31	0xbde5d6f0	-0.11222637
32	0x3d7376d2	0.059439488
33	0xbe22ffda	-0.15917912
34	0xbe2c9fad	-0.16857786
35	0x3e3b2ce9	0.1827885
36	0x3dcaa1d8	0.098941505
37	0xbdbf2ad5	-0.093343414
38	0x3e47dbd8	0.19517457
39	0xbcf4062f	-0.029788105
40	0x3e84fa71	0.25972322
41	0x3c3994b1	0.011326955
42	0xbda9d7c2	-0.08293106
43	0x3e93a81a	0.2883919
44	0xbf111257	-0.5666861
45	0xbec2e565	-0.3806564
46	0xbeb9be29	-0.36277893
47	0x3ea932ac	0.33046472
48	0x3ea150e9	0.31507042
49	0xbe69634d	-0.22791786
50	0xbea621d4	-0.32447684
51	0x3eb4d8fe	0.35321802
52	0x3e6a02a1	0.22852565
53	0x3da196db	0.078901015
54	0xbdc05426	-0.0939105
55	0x3e24f43a	0.1610879
56	0xbf193586	-0.59847295
57	0xbf25a4a1	-0.6470433
58	0x3e30e2ee	0.17274067
59	0x3e912251	0.28346494
60	0xbef50846	-0.47857875
61	0x3e89e037	0.26928875
62	0x3e0b5594	0.13606864
63	0x3e2eb853	0.17062502
64	0xbebb66f2	-0.3660198
65	0x3e1ce1a8	0.15320456
66	0x3e0d29de	0.13785502
67	0x3e0aebca	0.13566509
68	0xbe95cba8	-0.2925694
69	0x3ea465db	0.3210896
70	0xbefba3d2	-0.49148422
71	0xbea7d161	-0.3277693
72	0x3e06544b	0.13118093
73	0x3db45c89	0.08806712
74	0xbdcc3166	-0.099703595
75	0xbf0ad119	-0.5422531
76	0x3e70dca9	0.23521675
77	0xbe937d0e	-0.28806347
78	0x3e891e38	0.26780868
79	0xbe92e033	-0.28686675
80	0xbebe6ece	-0.37193912
81	0xbed9beea	-0.42528468
82	0x3e535676	0.20638451
83	0xbeacaef1	-0.3372722
84	0x3e2c1e48	0.16808426
85	0xbe8f805d	-0.2802762
86	0x3d92de31	0.07171286
87	0x3e88ca23	0.26716718
88	0xbf06ee7e	-0.5270766
89	0xbe9819b9	-0.29707125
90	0x3e18f3ea	0.14936796
91	0xbf020991	-0.5079585
92	0x3e5dcde7	0.21660577
93	0x3db035a1	0.08603979
94	0x3e4828cd	0.19546814
95	0x3d90bc17	0.07067125
96	0x3dcd3e6b	0.10021671
97	0xbdd9d213	-0.106357716
98	0xbda1fe70	-0.07909858
99	0x3e3f3dff	0.18675993
100	0xbcac57a8	-0.021037892
101	0xbe0318be	-0.12802407
102	0xbdacd318	-0.084387004
103	0xbdbfb8af	-0.093613975
104	0xbe69a684	-0.22817427
105	0xbe72ac79	-0.23698606
106	0x3eaff1d6	0.34364194
107	0x3adfeb21	0.0017083624
108	0xbe309839	-0.17245568
109	0xbd8e5428	-0.06949645
110	0x3e47b787	0.19503604
111	0x3cdf9c5a	0.027296234
112	0xbe92ed31	-0.28696588
113	0xbe4a022e	-0.19727394
114	0x3e11e96b	0.14249198
115	0x3ca17e6a	0.0197136
116	0xbe2cd6b4	-0.16878778
117	0x3e133e06	0.14379129
118	0x3e383f7a	0.17992964
119	0xbdbf9277	-0.09354108
120	0x3eca7688	0.39543557
121	0xbe347388	-0.17622197
122	0xbe0e844f	-0.13917659
123	0xbe7c4628	-0.24636137
124	0xbe31888c	-0.17337245
125	0xbce8fa58	-0.028439686
126	0xbe42d905	-0.19028099
127	0x3e845dc2	0.25852782
128	0xbe61b167	-0.2204033
129	0xbea33ec1	-0.31883815
130	0x3dd55f09	0.10418517
131	0x3e8fe2fa	0.28102857
132	0xbe45054e	-0.19240305
133	0x3ec21476	0.37906235
134	0xbdae7391	-0.08518136
135	0x3e2be6a9	0.16787209
136	0xbea85e9c	-0.3288468
137	0xbe91ce15	-0.2847754
138	0x3e701591	0.23445727
139	0x3ecd99ed	0.401565
140	0xbea62da9	-0.3245671
141	0x3dda5711	0.10661138
142	0xbdf7a8b8	-0.120927274
143	0xbde187df	-0.110122435
144	0x3e3cdeab	0.18444316
145	0x3e2d49a9	0.1692263
146	0x3e4b264f	0.19838832
147	0xbe301c3f	-0.17198275
148	0xbe5cd09d	-0.21563955
149	0x3c039834	0.0080318935

fc2.bias f4 [3]
0	0xbd8912c4	-0.066930324
1	0xbdfec31f	-0.1243956
2	0xbbfa62c8	-0.00764117

exp_avg f4 [5, 3, 3, 3]
0	0xbd829658	-0.06376332
1	0xbdb4fccc	-0.0883728
2	0xbda3da1b	-0.08000585
3	0xbd966fb7	-0.07345527
4	0xbdbf37a6	-0.09336786
5	0xbdb61b93	-0.08891978
6	0xbd3af03f	-0.045639273
7	0xbd61704c	-0.055038735
8	0xbd53825c	-0.051637992
9	0xbd87f08d	-0.06637678
10	0xbdb878c5	-0.0900741
11	0xbda9a75b	-0.08283874
12	0xbda09225	-0.07840375
13	0xbdc93016	-0.09823625
14	0xbdc0d4ef	-0.09415614
15	0xbd53def5	-0.0517263
16	0xbd872d9d	-0.06600497
17	0xbd8402d8	-0.06445855
18	0xbd8ba2a3	-0.0681813
19	0xbdb50fb3	-0.08840885
20	0xbd8f89cc	-0.070087045
21	0xbdbbc98a	-0.091693
22	0xbdd8b0e0	-0.10580611
23	0xbdbb4c1b	-0.09145375
24	0xbd92c3ba	-0.07166238
25	0xbda71a08	-0.08159262
26	0xbd935b76	-0.07195179
27	0xbd6447d8	-0.055732578
28	0xbd6f1fcb	-0.05837993
29	0xbd679727	-0.056540634
30	0xbcb80888	-0.022465006
31	0xbc6e722d	-0.014553589
32	0xbca37c9f	-0.019956885
33	0x3a978c93	0.001156228
34	0x3c4c2a9e	0.012461333
35	0x3a01ffcd	0.0004959077
36	0xbd5d57c3	-0.054038774
37	0xbd664e99	-0.0562273
38	0xbd4e883f	-0.050422903
39	0xbc5daaea	-0.013529519
40	0xbbc1a89b	-0.005909992
41	0xbc37f604	-0.011228088
42	0x3c8c5fd5	0.01713554
43	0x3ccc9287	0.024972213
44	0x3c0f0c2c	0.008730929
45	0xbd4e15b5	-0.05031367
46	0xbd5f5f00	-0.05453396
47	0xbd3d100d	-0.046157885
48	0xbc09c93c	-0.008409794
49	0xbb537cca	-0.0032270425
50	0xbba1a8dc	-0.0049334597
51	0x3c9eb110	0.01937154
52	0x3cc4e4aa	0.024034817
53	0x3c4b730f	0.012417569
54	0x3d0bfc6d	0.03417628
55	0x3d1a8371	0.03772301
56	0x3d00caa5	0.031443257
57	0x3cd55cc1	0.026045205
58	0x3cb18abc	0.021672599
59	0x3c92892c	0.017887674
60	0x3b49d454	0.0030796723
61	0x3b59ebb4	0.0033252062
62	0xbbaec8f1	-0.0053340127
63	0x3cf7ab4b	0.030233046
64	0x3cf6dc89	0.030134456
65	0x3cc51906	0.024059784
66	0x3d0a7e4f	0.033811864
67	0x3cc33ed4	0.02383367
68	0x3c87fd54	0.016600288
69	0x3cc42a12	0.023945842
70	0x3c969cf7	0.018385394
71	0x3bd9a11f	0.0066415216
72	0x3c37bd24	0.011214528
73	0x3c5631fb	0.01307344
74	0x3c0cdb13	0.008597153
75	0x3c4fbbff	0.012679099
76	0x3bea7238	0.007154729
77	0x3bc7a423	0.0060925647
78	0x3ba79789	0.0051145
79	0x3bb99291	0.005663224
80	0x373a777e	1.1114285e-05
81	0x3e79960e	0.24373648
82	0x3e875937	0.26435253
83	0x3e902da9	0.28159836
84	0x3e50d430	0.20393443
85	0x3e6466c8	0.22304833
86	0x3e84c898	0.2593429
87	0x3e17674b	0.14785497
88	0x3e29ecc7	0.1659423
89	0x3e4940ac	0.19653577
90	0x3e55dbec	0.20884675
91	0x3e7656ae	0.24056503
92	0x3e8640ff	0.26221463
93	0x3e2a8761	0.16653205
94	0x3e45ffe5	0.19335897
95	0x3e728c62	0.23686364
96	0x3dff4790	0.12464821
97	0x3e1ad874	0.15121633
98	0x3e41edbe	0.18938348
99	0x3e626ab9	0.22111024
100	0x3e83b11b	0.25721058
101	0x3e8c6888	0.274235
102	0x3e410553	0.18849687
103	0x3e5d146c	0.21589822
104	0x3e80c3c7	0.25149366
105	0x3e1f7058	0.155702
106	0x3e3a45b3	0.1819065
107	0x3e5c15d1	0.21492697
108	0x3ba43f54	0.005012432
109	0x3c622b9b	0.013804342
110	0x3d1ce01f	0.038299676
111	0x3d7cb523	0.061696183
112	0x3d240119	0.04004011
113	0x3d4618ce	0.0483635
114	0x3d9a1f53	0.07525506
115	0x3d71997e	0.058984272
116	0x3d270dc5	0.040784616
117	0xbc3dcbbb	-0.011584218
118	0x3bbf3850	0.0058355704
119	0x3cc08cfa	0.023504723
120	0x3d259da8	0.040433556
121	0x3ce69675	0.028147915
122	0x3d119b48	0.03554848
123	0x3d44bfef	0.048034605
124	0x3d2b3ceb	0.041806143
125	0x3d02903a	0.031875826
126	0xbc7161f8	-0.01473283
127	0x3b84fd63	0.0040585264
128	0x3c506f04	0.012721781
129	0x3d24e611	0.04025847
130	0x3ceee990	0.029164106
131	0x3d062b71	0.032756273
132	0x3d6b40b2	0.057434745
133	0x3d5a95e8	0.053365618
134	0x3d211821	0.03932965

exp_avg_sq f4 [5, 3, 3, 3]
0	0x3e08235c	0.13294739
1	0x3e2dbfb1	0.16967656
2	0x3e2aa000	0.16662598
3	0x3e18c6ad	0.14919539
4	0x3e3c631c	0.18397182
5	0x3e37c13e	0.1794481
6	0x3e130e2e	0.14360878
7	0x3e292603	0.16518407
8	0x3e24ee65	0.16106565
9	0x3e0aad4e	0.13542673
10	0x3e347d3d	0.176259
11	0x3e329dfe	0.17443082
12	0x3e1a0486	0.15040788
13	0x3e41c5c6	0.18923101
14	0x3e3e8628	0.18605864
15	0x3e13258a	0.14369789
16	0x3e2cb8e0	0.16867399
17	0x3e2a0213	0.16602354
18	0x3e037cf2	0.12840632
19	0x3e30066d	0.17189951
20	0x3e2e5dce	0.17027971
21	0x3e10b892	0.14132908
22	0x3e3b8f7e	0.18316457
23	0x3e393d68	0.18089831
24	0x3e07ee39	0.13274468
25	0x3e24ab76	0.16081032
26	0x3e23828e	0.15967771
27	0x3cce1fff	0.025161741
28	0x3cbf6220	0.02336222
29	0x3cb96446	0.022630822
30	0x3cc8b81b	0.02450185
31	0x3cb9d0d0	0.022682577
32	0x3ca469e3	0.020070022
33	0x3ccc064d	0.024905348
34	0x3cc19097	0.023628516
35	0x3c9734eb	0.01845785
36	0x3cb8ed33	0.022574043
37	0x3cadd4e5	0.02121968
38	0x3cac56d5	0.021037498
39	0x3ca67dfa	0.020323742
40	0x3c996159	0.018723177
41	0x3c8d9763	0.0172841
42	0x3c9ac69f	0.018893538
43	0x3c9177d0	0.017757326
44	0x3c6e0434	0.014527369
45	0x3cb12482	0.021623854
46	0x3cab5ef6	0.020919304
47	0x3cacc831	0.021091552
48	0x3c9bc29b	0.019013694
49	0x3c939333	0.018014526
50	0x3c8d9e5c	0.017287426
51	0x3c885fde	0.016647276
52	0x3c821d21	0.01588303
53	0x3c674cb5	0.0141174095
54	0x3c730e1e	0.014834909
55	0x3c9a29b0	0.018818706
56	0x3cb6b38a	0.022302408
57	0x3c9142ad	0.017731989
58	0x3ca54ff1	0.02017972
59	0x3cafbbaa	0.02145179
60	0x3c9fd9c6	0.019513022
61	0x3ca6542f	0.020303814
62	0x3ca3f839	0.020015823
63	0x3c8389e0	0.016056955
64	0x3caf4af2	0.021398041
65	0x3cd330c6	0.025780093
66	0x3c98409e	0.0185855
67	0x3cb32505	0.021868238
68	0x3cc2ad4d	0.023764277
69	0x3c9f0935	0.01941357
70	0x3ca69e55	0.02033917
71	0x3ca59772	0.020213816
72	0x3c920b29	0.017827587
73	0x3cbce696	0.02305917
74	0x3ce0a71d	0.027423436
75	0x3ca7d3c2	0.020486716
76	0x3cc465fc	0.023974411
77	0x3cd615b5	0.026133398
78	0x3caab0b5	0.020836214
79	0x3cb25ad6	0.02177183
80	0x3cb144c5	0.021639237
81	0x3e18dd52	0.14928177
82	0x3e465993	0.19370107
83	0x3e6ca6c6	0.23110494
84	0x3e19a630	0.15004802
85	0x3e4b1cc9	0.198352
86	0x3e73e087	0.23816119
87	0x3e05591d	0.13022275
88	0x3e1718e7	0.14755593
89	0x3e24b06f	0.16082929
90	0x3e2407d5	0.16018613
91	0x3e6731b1	0.2257755
92	0x3e905944	0.28193104
93	0x3e3035a5	0.17207964
94	0x3e76a801	0.24087526
95	0x3e985569	0.29752663
96	0x3e18d2ec	0.1492421
97	0x3e34e693	0.17666082
98	0x3e4bfa87	0.19919787
99	0x3e3f5019	0.18682899
100	0x3e85b3e5	0.2611381
101	0x3ea3edeb	0.32017455
102	0x3e4fd11c	0.20294613
103	0x3e8e168f	0.27751586
104	0x3eab0407	0.3340151
105	0x3e381066	0.17975006
106	0x3e581566	0.21101913
107	0x3e6fe20d	0.23426075
108	0x3dfa3e8d	0.12218962
109	0x3e270809	0.16311659
110	0x3e4f242e	0.20228645
111	0x3e0ac256	0.13550696
112	0x3e34f9f8	0.1767348
113	0x3e562e55	0.20916112
114	0x3e080b63	0.13285594
115	0x3e25f793	0.16207723
116	0x3e35b933	0.17746429
117	0x3e054c5b	0.13017409
118	0x3e374653	0.1789792
119	0x3e65a371	0.22425629
120	0x3e0ccca4	0.13749939
121	0x3e3b4a7d	0.18290134
122	0x3e5f979e	0.21835181
123	0x3e0724a6	0.13197574
124	0x3e28c241	0.16480352
125	0x3e3ac95e	0.18240878
126	0x3e0bd4e1	0.13655426
127	0x3e40be87	0.1882268
128	0x3e6bafc1	0.23016264
129	0x3e0d9b47	0.13828765
130	0x3e3e25c4	0.18569094
131	0x3e5f6951	0.21817519
132	0x3e06cf91	0.13165118
133	0x3e2b5e3d	0.16735168
134	0x3e3c642a	0.18397585

exp_avg f4 [5]
0	0x3d704cf2	0.05866713
1	0x3ce8d301	0.028420927
2	0xbb8b9578	-0.0042597614
3	0xbdb58a53	-0.08864274
4	0xbc370ca1	-0.011172445

exp_avg_sq f4 [5]
0	0x3d8331d3	0.064059876
1	0x3cbcd0c6	0.02304877
2	0x3c391230	0.01129584
3	0x3e95030b	0.29103884
4	0x3d5ebcad	0.054379154

exp_avg f4 [5, 5, 3, 3]
0	0x3d31f321	0.043444756
1	0x3b76fc6c	0.0037687076
2	0xbbc70688	-0.0060737766
3	0x3cbee73a	0.023303617
4	0xbc42d64d	-0.011891914
5	0xbca72fca	-0.02040853
6	0x3cf9677a	0.03044485
7	0xbc35a793	-0.011087316
8	0xbc4dfbd7	-0.01257225
9	0xbd3493f8	-0.044086426
10	0xbd1d6aa8	-0.038431793
11	0xbcbcb9ca	-0.02303781
12	0x3d3f5be9	0.04671851
13	0x3d6d39e4	0.057916537
14	0x3d8d6fe4	0.06906107
15	0xbd38cd9d	-0.045117963
16	0x3a929d09	0.0011185716
17	0x3c9d83f9	0.019227969
18	0xbd7ddfee	-0.061981134
19	0xbdb46e0a	-0.08810051
20	0xbd83cceb	-0.064355694
21	0xbd074713	-0.033026766
22	0xbd81b9d2	-0.063342705
23	0xbd939482	-0.0720606
24	0xbdb0e12f	-0.086367
25	0xbdfb673b	-0.12275549
26	0xbe240670	-0.1601808
27	0xbce277ca	-0.02764501
28	0xbcfdfe8d	-0.031005168
29	0xbc65ee55	-0.014033874
30	0x3d19294c	0.0373929
31	0x3ca162b3	0.019700384
32	0x3c8a77a8	0.01690276
33	0xbcb8e95a	-0.022572208
34	0xbd0da30b	-0.034579318
35	0xbd260d53	-0.04054005
36	0x3a450cd2	0.0007516864
37	0xbca0b258	-0.01961629
38	0xbbf1ae37	-0.0073755044
39	0x3bf7661b	0.0075500137
40	0xbd6502f7	-0.05591103
41	0xbd982b18	-0.074300945
42	0x3ba5e01f	0.0050621177
43	0xbd3e41e4	-0.046449557
44	0xbd8c2e70	-0.06844795
45	0x3d1734a7	0.036915448
46	0x3cd772a2	0.026299778
47	0x3c70c66d	0.014695746
48	0x3ce27930	0.027645677
49	0x3d200f75	0.03907724
50	0x3cbfcee1	0.023414077
51	0x3c841ca8	0.016126946
52	0x3cd15c70	0.025556773
53	0x3c2eb4e1	0.010663242
54	0xbd69aeb6	-0.057051383
55	0xbd975554	-0.07389322
56	0xbd8367a4	-0.06416252
57	0xbc02d014	-0.00798418
58	0x3b0d6fbd	0.0021581494
59	0xbb3c796b	-0.0028758894
60	0xbc6d9f5a	-0.014503324
61	0xbc865018	-0.016395614
62	0xbd20acf2	-0.039227434
63	0x3e0b54f3	0.13606624
64	0x3e0908d5	0.13382275
65	0x3e0513c4	0.12995821
66	0x3e0c8101	0.13721086
67	0x3e315775	0.17318518
68	0x3e225be9	0.15855373
69	0x3dc3528b	0.09537228
70	0x3e0aa3a3	0.13538985
71	0x3e0fa8d4	0.14029247
72	0x3d1440a9	0.036194477
73	0x3caeef3d	0.021354312
74	0x3c87f464	0.016596027
75	0x3ca07523	0.019587105
76	0x3d10a4b3	0.03531332
77	0x3c9f82a4	0.019471474
78	0xba35ab7a	-0.0006930154
79	0x3cd1811c	0.02557426
80	0x3c1c41a5	0.009537135
81	0x3dd1aa54	0.10237566
82	0x3d2e5a9c	0.04256688
83	0x3d0faf22	0.03507913
84	0x3d680f7b	0.05665539
85	0x3d9da15e	0.07696794
86	0x3cd86902	0.02641726
87	0x3c7446ce	0.014909459
88	0x3d88d7db	0.06681796
89	0x3c92c550	0.017916352
90	0x3cabd3d9	0.02097504
91	0x3ccb4e36	0.024817567
92	0x3ca0d337	0.019631965
93	0x3c3b133f	0.011418163
94	0x3c9cddb1	0.01914868
95	0x3c819ca1	0.015821757
96	0x3c020f99	0.007938289
97	0x3c1b1dab	0.009467523
98	0x3c81a581	0.015825989
99	0x3d2aee96	0.04173144
100	0x3cedc725	0.029025624
101	0x3d0706d1	0.032965485
102	0x3d40ab6a	0.047038473
103	0x3d5451b5	0.051835734
104	0x3d0b7276	0.034044705
105	0x3d1ea730	0.03873366
106	0x3d3bc58f	0.045842703
107	0x3d52966a	0.051412977
108	0x3d9158ac	0.07096991
109	0x3d85eaab	0.065389
110	0x3d3b3140	0.045701265
111	0x3d35870a	0.044318236
112	0x3d562e9c	0.052290544
113	0x3c890100	0.01672411
114	0x3d27c43c	0.040958628
115	0x3d59136f	0.05299705
116	0x3d249a7f	0.0401864
117	0x3c824932	0.015904043
118	0x3c95d4b8	0.018289909
119	0x3b9a1b1a	0.004702938
120	0x3c964a64	0.01834602
121	0x3cd5d6dd	0.026103431
122	0xbb2de984	-0.0026536891
123	0x3cae2d5b	0.021261862
124	0x3cc2e16e	0.023789134
125	0x3cbbcb61	0.022924127
126	0x3d3478ac	0.044060394
127	0x3ce3f5bf	0.027827142
128	0x3c25aea5	0.010112439
129	0x3d2f6f9c	0.04283105
130	0x3d2aa5d9	0.04166207
131	0x3c768d13	0.015048283
132	0x3d2eb602	0.042654045
133	0x3d140bc9	0.03614405
134	0x3cd087bf	0.025455354
135	0x3a0908ca	0.0005227445
136	0x3c21b593	0.009869951
137	0x3a159cb6	0.00057072507
138	0x3aab27fc	0.0013058181
139	0x3c9cd01a	0.0191422
140	0x3c9ea1d1	0.01936427
141	0x3be270ee	0.006910435
142	0x3ca85bbc	0.020551555
143	0x3cdbef81	0.026847603
144	0x3c69b821	0.014265091
145	0xbc9e3154	-0.01931063
146	0x3b98291e	0.0046435734
147	0xbaf78a7b	-0.0018885875
148	0x3c58515c	0.013202991
149	0x3c5b5b0d	0.013388407
150	0xbc807605	-0.015681276
151	0xbb62c6c4	-0.0034603337
152	0x3c8ed7e3	0.017436927
153	0xbcff57fa	-0.03116988
154	0x3ce5cd4b	0.028051993
155	0x3d29edc3	0.041486513
156	0xbca4b11d	-0.020103985
157	0x3c58a03f	0.013221799
158	0x3cc7c146	0.024384152
159	0xbb91031f	-0.004425421
160	0x3bcf69a3	0.0063297316
161	0x3d515ed8	0.05111584
162	0x3b8838ae	0.0041571474
163	0x3cf7b0b1	0.03023562
164	0x3c8d8b7e	0.01727843
165	0x3be297eb	0.0069150827
166	0x3d038216	0.03210648
167	0x3ccff00f	0.025383024
168	0xbcb882d4	-0.022523321
169	0x3c25cb73	0.010119307
170	0x3cd4e337	0.02598725
171	0xbbb08f6b	-0.0053881905
172	0x3d4a1672	0.04933781
173	0x3c8523ab	0.01625236
174	0xbaed556c	-0.0018107123
175	0x3d27d108	0.040970832
176	0x3c88a1e0	0.01667875
177	0x3cbd58ac	0.023113571
178	0x3d7656ad	0.060141254
179	0x3d496ebd	0.049177874
180	0xbc1ee325	-0.00969771
181	0xbbb6644e	-0.0055661565
182	0xbc11c040	-0.008895934
183	0xbc350241	-0.011047901
184	0xbc1ee9f8	-0.009699337
185	0xbc1c8b0d	-0.009554637
186	0xbc806b03	-0.015676027
187	0xbbe12a71	-0.0068715145
188	0xbc003ee1	-0.0078274915
189	0x3d17bad1	0.037043396
190	0x3d432670	0.04764408
191	0x3d1d0130	0.03833121
192	0x3c956e7b	0.018241158
193	0x3d3bd92b	0.045861404
194	0x3d233014	0.039840773
195	0x3d44d9ad	0.048059154
196	0x3d87572a	0.06608422
197	0x3d9e901a	0.07742329
198	0xbe042d23	-0.12907843
199	0xbdf287d3	-0.11842313
200	0xbdf0f8b0	-0.117661834
201	0xbdfaa9e1	-0.12239433
202	0xbde8a8d5	-0.11360327
203	0xbde39699	-0.111127086
204	0xbd82de72	-0.06390084
205	0xbd8c0031	-0.06835974
206	0xbd8f653b	-0.0700173
207	0xbc6a6d9a	-0.014308358
208	0xbc0e99c4	-0.008703653
209	0xbd2601fb	-0.040529232
210	0xbd3432c7	-0.043993738
211	0xbcd8e095	-0.026474277
212	0xbce54513	-0.027987039
213	0xbcb361ae	-0.021897163
214	0xbb437ce4	-0.002982908
215	0x3bb134fe	0.0054079285
216	0xbcac0203	-0.020997053
217	0xbae1a518	-0.001721534
218	0xbd6dd391	-0.058063094
219	0xbd132ae8	-0.03592959
220	0xbc2132eb	-0.0098388
221	0xbd3b223b	-0.04568694
222	0xbcb89dc6	-0.02253617
223	0x3bff72ab	0.007795652
224	0xbae5aec3	-0.0017523397
