models/base_model_nfeatures_20.pth (torch, 366838 bytes, 24 tensors)

conv1.weight f4 [20, 3, 3, 3]
0	0xbe4f7e91	-0.20263125
1	0x3caa29ff	0.020771978
2	0x3e9beefc	0.30455768
3	0xbe702b7f	-0.23454092
4	0xbe55cc30	-0.20878673
5	0x3e40b173	0.18817692
6	0xbdf10915	-0.117693104
7	0x3deea481	0.116524704
8	0x3e851676	0.259937
9	0xbe303d36	-0.1721085
10	0xbe2fab6d	-0.17155237
11	0x3dae78fe	0.08519171
12	0x3dfdb0da	0.123872474
13	0xbd6fe95a	-0.05857215
14	0x3dba0df4	0.090846926
15	0xbd9600ef	-0.07324397
16	0xbe061ee9	-0.13097729
17	0xbd0e1ca9	-0.0346953
18	0x3d3ad377	0.045611825
19	0xbe462f58	-0.19353998
20	0x3e6c26f6	0.23061737
21	0xbd888ef2	-0.0666789
22	0xbddcb8f7	-0.10777467
23	0x3e263fed	0.16235323
24	0x3e47958d	0.19490643
25	0xbdf52b32	-0.119711295
26	0xbd1e6480	-0.038670063
27	0x3d857abb	0.065175496
28	0xbd7b90e8	-0.06141749
29	0xbe2e5ba0	-0.1702714
30	0xbe1a323f	-0.1505823
31	0xbde915a5	-0.113810815
32	0x3bea3dc2	0.0071484754
33	0x3d8b9eb1	0.06817377
34	0x3e0c6256	0.13709387
35	0xbdf0d3df	-0.11759161
36	0xbd108bfd	-0.035289753
37	0xbddc465f	-0.1075561
38	0x3c8f0e00	0.01746273
39	0xbdd849e8	-0.105609715
40	0x3e3116f6	0.17293915
41	0xbe51f959	-0.20505275
42	0x3c1083e1	0.008820505
43	0xbdcef1cb	-0.10104712
44	0x3d78f228	0.060777813
45	0x3e7c10b9	0.24615754
46	0x3e882a65	0.26594844
47	0xbc153e8d	-0.009109152
48	0x3cf5699b	0.029957583
49	0x3e8a067f	0.2695808
50	0x3e338151	0.17529799
51	0x3d61214d	0.0549634
52	0xbd104824	-0.03522505
53	0x3e850835	0.25982824
54	0x3e0ef85a	0.13961926
55	0x3d24d79f	0.040244695
56	0xbd84b75b	-0.06480285
57	0xbd10f697	-0.035391416
58	0xbe802bfd	-0.2503356
59	0xbc2c1e76	-0.010505309
60	0xbe86aa5a	-0.26301843
61	0xbd9b072f	-0.075697295
62	0xbc3911bf	-0.011295735
63	0x3dadf9b1	0.084948905
64	0xbdafab3d	-0.08577583
65	0xbdc57ed6	-0.09643333
66	0xbdbb2a1d	-0.09138892
67	0xbc62ee61	-0.013850779
68	0x3e2ad657	0.16683327
69	0x3e280288	0.16407216
70	0x3defa57f	0.11701488
71	0x39d1ea51	0.00040038166
72	0xbdebcc9c	-0.115136355
73	0xbd783a4b	-0.060602468
74	0xbda5b3d3	-0.080909394
75	0xbda96656	-0.08271472
76	0xbe3221d9	-0.17395724
77	0xbe1696c1	-0.14705946
78	0xbe7c439c	-0.24635166
79	0x3d0069a6	0.031350754
80	0x3e81e205	0.25367752
81	0xbd9e435c	-0.077276915
82	0xbe46fc24	-0.19432122
83	0x3e20dc57	0.15709053
84	0xbe243046	-0.1603404
85	0x3d4918c9	0.049095903
86	0x3cf7fbbe	0.030271407
87	0x3e01902b	0.12652652
88	0xbdc31a68	-0.09526521
89	0x3e288602	0.1645737
90	0x3e5bf281	0.21479227
91	0x3e185720	0.14876986
92	0xbe0ace75	-0.1355532
93	0x3dbf578f	0.09342872
94	0x3dbd8b5c	0.09255096
95	0xbe0cc59d	-0.13747258
96	0x3dbce657	0.09223621
97	0x3d68ea3a	0.056864
98	0x3d647d64	0.055783644
99	0x3d2cb5aa	0.042165436
100	0x3d6ce656	0.057836853
101	0xbe36b1cd	-0.17841263
102	0xbda13a7a	-0.07872482
103	0xbe46b239	-0.19403924
104	0xbd9e8f24	-0.07742146
105	0xbe35addd	-0.17742105
106	0xbdfc7dea	-0.12328704
107	0x3e509d4b	0.20372503
108	0x3e09bc9f	0.1345086
109	0x3dcacdfd	0.099025704
110	0x3d958119	0.07300014
111	0xbe09c0e2	-0.13452485
112	0xbe21ea86	-0.1581212
113	0xbbfd68d5	-0.007733444
114	0xbe72ba40	-0.23703861
115	0x3e0118ba	0.12607089
116	0x3e227fc0	0.15869045
117	0x3d195a08	0.037439376
118	0x3c32b31d	0.010906962
119	0xbe1cb3cc	-0.15302962
120	0xb9cee54a	-0.00039462215
121	0x3bdb3aa0	0.0066903383
122	0x3cd62178	0.026139006
123	0xbc52299c	-0.012827303
124	0x3e110319	0.14161338
125	0xbd5bf4fc	-0.053700432
126	0x3e0a763e	0.13521668
127	0x3d2302a8	0.039797455
128	0xbe15a51c	-0.14613765
129	0x3db5140d	0.08841715
130	0x3e16a5ab	0.14711635
131	0x3e3f6e23	0.18694358
132	0xbca9af5c	-0.0207135
133	0xbd9fc037	-0.07800334
134	0xbd6806b6	-0.056647025
135	0x3e98e7f2	0.2986446
136	0xbe07f4d1	-0.13276984
137	0xbe322392	-0.17396381
138	0x3e56ae81	0.20965005
139	0xbe18e3bb	-0.14930622
140	0x3d0d4e72	0.03449864
141	0xbb2e0b7a	-0.0026557134
142	0xbe196310	-0.14979196
143	0x3d80a67d	0.06281755
144	0x3e80f5cc	0.25187528
145	0xbca91ce0	-0.020643651
146	0xbd92e715	-0.07172982
147	0xbb104919	-0.0022016226
148	0xbe989420	-0.2980051
149	0x3d54e766	0.05197849
150	0xbda67b0b	-0.08128937
151	0xbe5563d3	-0.20838861
152	0x3e902322	0.28151804
153	0x3e2d4a09	0.16922773
154	0xbd137f82	-0.036010273
155	0xbe247d8d	-0.16063519
156	0xbcbb4274	-0.022858836
157	0xbb096a06	-0.0020967736
158	0xbd6cedef	-0.0578441
159	0x3cfc20ab	0.030777296
160	0xbd9d70de	-0.07687543
161	0x3e8b6742	0.27227217
162	0xbe82da61	-0.25557235
163	0xbc22263f	-0.009896814
164	0xbe2f9cce	-0.1714966
165	0x3e16f7e1	0.14742996
166	0x3e1e958a	0.15486732
167	0x3e779e90	0.2418158
168	0x3de1c93a	0.11024709
169	0x3e761aee	0.2403371
170	0x3e1b059c	0.15138859
171	0xbe1ecace	-0.15507051
172	0x3a6b7a4a	0.0008982761
173	0x3b8151d2	0.0039465213
174	0xbe88adb6	-0.2669503
175	0x3d95a7f9	0.07307429
176	0x3dc0ab3d	0.09407661
177	0x3dff7554	0.124735504
178	0x3d89a901	0.06721688
179	0xbcbe0f6a	-0.02320071
180	0xbe469c98	-0.19395673
181	0xbc181a59	-0.0092836255
182	0xbc96af47	-0.018394126
183	0x39898ec3	0.00026237042
184	0x3e5495c0	0.2076025
185	0x3e853019	0.26013258
186	0x3d9451bf	0.07242154
187	0x3ccb0d36	0.024786573
188	0xbd1a7036	-0.03770467
189	0x3e3c1536	0.18367466
190	0x3dd3aae4	0.10335329
191	0xbd074c20	-0.033031583
192	0x3e385316	0.18000445
193	0x3e157dc3	0.14598756
194	0x3e6bedf5	0.23039992
195	0xbe7a596f	-0.24448179
196	0x3a0c2f46	0.00053476205
197	0x3e7d0bd8	0.2471155
198	0x3e2aa0a8	0.16662848
199	0xbcf048c4	-0.029331572
200	0xbe3af8de	-0.18258998
201	0xbdf39a9a	-0.11894722
202	0x3d410377	0.047122445
203	0xbd3d6139	-0.046235297
204	0xbe6fb718	-0.23409688
205	0x3d9e9812	0.07743849
206	0x3dc7a8d5	0.09748999
207	0x3e1ad9b6	0.15122113
208	0xbda11804	-0.07865909
209	0xbe9d589a	-0.3073166
210	0xbd53e750	-0.05173427
211	0x3d36aaa2	0.044596322
212	0xbdf95df7	-0.121761255
213	0x3e051911	0.12997843
214	0xbd6f086b	-0.058357637
215	0xbc9c9268	-0.01911278
216	0xbe2bfcb4	-0.16795617
217	0xbd4ec0d4	-0.050476864
218	0xbe0085f5	-0.125511
219	0xbe5b45eb	-0.2141339
220	0x3c32ea23	0.01092008
221	0xbbfaa4d9	-0.007649046
222	0xbe68c889	-0.22732748
223	0xbe893086	-0.26794833
224	0x3d25c5a3	0.040471684
225	0x3dcdc0e2	0.10046555
226	0x3d0705c4	0.032964483
227	0x3dddf797	0.1083824
228	0x3d2e4d61	0.042554263
229	0x3db90503	0.09034159
230	0x3d8b0c61	0.067894705
231	0x3e16e4e0	0.14735746
232	0xbe1f843a	-0.15577784
233	0xbe45a607	-0.19301616
234	0xbd7d7f63	-0.061889064
235	0x3e11439d	0.14185949
236	0x3cfb0b53	0.030645048
237	0x3e74dc5b	0.23912184
238	0x3e127215	0.14301331
239	0x3d99e229	0.0751384
240	0x3e0876e3	0.13326602
241	0x3e1d57d6	0.15365538
242	0x3d2a65a9	0.041600857
243	0x3e4332bf	0.19062327
244	0x3d06941d	0.032856096
245	0xbe950767	-0.2910721
246	0x3e2fa1b8	0.17151535
247	0x3e022196	0.12708125
248	0xbe486b37	-0.19572149
249	0x3dc863b3	0.09784641
250	0xbd933349	-0.07187516
251	0xbd49fd93	-0.049314093
252	0xbdda1967	-0.10649376
253	0x3c213d88	0.00984133
254	0xbe0af9bf	-0.13571833
255	0x3e3d0150	0.18457532

conv1.bias f4 [20]
0	0xbdf8864e	-0.121349916
1	0xbe00a768	-0.1256386
2	0xbe2f6617	-0.17128788
3	0x3b967097	0.0045910585
4	0x3ea7bd6a	0.327617
5	0xbdda37db	-0.10655185
6	0xbd8c0d59	-0.06838483
7	0xbd8f542f	-0.069984786
8	0x3e4335a2	0.19063428
9	0xbe1731b0	-0.14765048
10	0xbd8bf281	-0.06833363
11	0x3db2ae71	0.08724678
12	0xbcdf9f88	-0.02729775
13	0x3dcec783	0.100966476
14	0x3b30cc67	0.0026977302
15	0xbcffe6a4	-0.031237908
16	0x3c80751b	0.01568084
17	0x3e982d30	0.29721975
18	0xbdf802ae	-0.12109886
19	0x3d8530f6	0.06503479

conv2.weight f4 [20, 20, 3, 3]
0	0x3d8cdf47	0.06878524
1	0xbd070c4f	-0.032970723
2	0xbe1ce388	-0.15321171
3	0x3d10aea6	0.035322808
4	0x3b171ad9	0.0023056774
5	0xbdc3b0be	-0.09555195
6	0xbd760fe1	-0.060073737
7	0x3de3007b	0.11084076
8	0x3d145b09	0.03621963
9	0xbd22c671	-0.03974003
10	0xbd464358	-0.048404068
11	0xbd5cc4ca	-0.05389861
12	0xbe0b495f	-0.13602208
13	0x3dd36a9a	0.10323067
14	0x3df7ec21	0.12105585
15	0xbde1bae5	-0.110219754
16	0x3d17ee99	0.03709278
17	0x3e021ba3	0.12705855
18	0x3d94885b	0.0725257
19	0x3d9e003f	0.07714891
20	0xbd33716b	-0.043809336
21	0x3b3cf8a9	0.0028834736
22	0x3c9d6143	0.019211417
23	0xbc86fc79	-0.01647781
24	0xbcdc3c0f	-0.026884107
25	0xbd38f705	-0.04515745
26	0xbd2df7f8	-0.04247281
27	0x3d43ca83	0.047800552
28	0x3d387236	0.045030795
29	0xbd77258e	-0.06033855
30	0x3a8db97b	0.0010812724
31	0xbd98dc52	-0.07463898
32	0xbc32ac43	-0.010905328
33	0x3e097369	0.13422932
34	0x3d484d4e	0.04890185
35	0xbd589910	-0.052880347
36	0x3bb56d57	0.005536716
37	0xbcace90b	-0.021107217
38	0xbd64a8f4	-0.05582519
39	0xbe2c4b3b	-0.16825573
40	0x3d1fa392	0.038974352
41	0x3d816a8a	0.06319149
42	0xbdbfa6c7	-0.09357982
43	0xbca060c8	-0.019577399
44	0x3db3fdb8	0.087886274
45	0x3c45921d	0.012058762
46	0x3e1c42f5	0.15259917
47	0xbdc02d4f	-0.09383642
48	0x3dbe5ede	0.09295438
49	0xbc7cff9d	-0.015441802
50	0xbd8d2900	-0.06892586
51	0x3ea55479	0.3229101
52	0x3d4d8e88	0.050184757
53	0xbe0e6ab8	-0.13907897
54	0x3db66531	0.089060195
55	0xbd00fd61	-0.03149164
56	0xba6d27f7	-0.0009046788
57	0xbdcffaa8	-0.10155231
58	0xbd585339	-0.052813742
59	0xbdfb54e8	-0.12272054
60	0xbce51524	-0.027964182
61	0xbdb2b082	-0.087250724
62	0xbde2f1b1	-0.11081255
63	0x3d8b83fa	0.06812282
64	0x3d59589f	0.05306303
65	0x3d012e66	0.03153839
66	0xbd6f010a	-0.0583506
67	0x3e339980	0.17539024
68	0x3e1483e2	0.14503434
69	0x3bad3121	0.0052853976
70	0xbc05acb3	-0.0081588505
71	0x3e317053	0.17328005
72	0x3d056c76	0.03257414
73	0x3da5724d	0.08078442
74	0xbc99e459	-0.018785642
75	0xbdcd7da1	-0.100337274
76	0x3d2c8429	0.042118225
77	0x3dacfe86	0.08446984
78	0xbaab5413	-0.0013071321
79	0x3c3d7971	0.011564598
80	0x3dc2fa2a	0.09520371
81	0xbd569183	-0.052384865
82	0xbd88267c	-0.06647965
83	0xbd88cba0	-0.066794634
84	0x3da6af2f	0.08138882
85	0xbe37da32	-0.17954329
86	0xbd3564f7	-0.04428574
87	0x3de6c4c4	0.11267999
88	0x3dd184dd	0.1023042
89	0xbda60c2c	-0.0810779
90	0x3d13582b	0.035972755
91	0x3e551ae1	0.20811035
92	0x3e093e57	0.13402687
93	0x3b4051d7	0.0029345655
94	0x3d4b5353	0.04964001
95	0x3e23d219	0.15998115
96	0xbc807a6b	-0.015683373
97	0xbe21a0ea	-0.1578404
98	0x3d8dc99d	0.0692322
99	0x3d044e60	0.032301307
100	0x3c8f0674	0.017459132
101	0xbd24bd02	-0.040219314
102	0x3db1e3f7	0.08686059
103	0x3d3be873	0.045875978
104	0xbdde979b	-0.1086876
105	0x3c0bc2bf	0.008530318
106	0x3d9c0e39	0.076199
107	0xbd3c78ad	-0.046013523
108	0xbd9336d1	-0.0718819
109	0x3dcacddb	0.09902545
110	0x3dc703ec	0.09717545
111	0xbe3b67ca	-0.18301311
112	0x3cb4f398	0.02208881
113	0x3dde77fc	0.10862729
114	0xbd21b945	-0.039483327
115	0xbe378b4e	-0.17924234
116	0xbbccb688	-0.0062473454
117	0xbc6395dd	-0.013890711
118	0x3cef7937	0.029232604
119	0x3d8f3296	0.069920704
120	0xbd3a0171	-0.04541153
121	0xbdc8d19e	-0.09805606
122	0x3c376b56	0.0111950245
123	0xbd818662	-0.063244596
124	0xbd860187	-0.0654326
125	0xbdc6fdd2	-0.09716381
126	0x3dfedeee	0.12444864
127	0xbcc96459	-0.024583982
128	0xbcb45f2a	-0.022018034
129	0x3e80a5df	0.2512655
130	0x3d9f1b85	0.07768921
131	0xbdba9a9c	-0.09111521
132	0x3d2b5698	0.04183063
133	0x3e86a1ae	0.26295227
134	0x3d2a8871	0.041634027
135	0xbd37a6c2	-0.044836767
136	0xbe19a4ea	-0.15004316
137	0xbd96204f	-0.07330381
138	0x3d31b6c4	0.04338719
139	0xbdb4e4f6	-0.08832733
140	0xbe6196f8	-0.22030246
141	0x3d566df9	0.05235097
142	0x3d9fcafc	0.07802388
143	0xbe2d7177	-0.16937815
144	0xbd0f867a	-0.035040356
145	0xbd518aaa	-0.05115763
146	0x3d2e2556	0.042516075
147	0x3c1133fe	0.008862494
148	0xbe37e35b	-0.17957823
149	0xbd9f6684	-0.07783225
150	0x3d638ff4	0.055557206
151	0xbd5024f1	-0.05081648
152	0xbd29ea25	-0.041483063
153	0xbcab7492	-0.020929608
154	0xbe19a903	-0.15005879
155	0xbcefee69	-0.029288488
156	0xbdfce8db	-0.12349101
157	0xbdfebe07	-0.124385886
158	0xbdae9c7c	-0.08525941
159	0xbd8a4107	-0.06750684
160	0xbdce439e	-0.10071491
161	0xbcab621e	-0.02092081
162	0x3d86f029	0.06588776
163	0x3d5f5a60	0.054529548
164	0x3ca7e915	0.020496884
165	0xbe0b391b	-0.13596003
166	0x3df148a0	0.1178143
167	0x3ccc899c	0.024967961
168	0xbe46c673	-0.1941164
169	0x3d5ebb73	0.054377984
170	0x3e4372ed	0.1908681
171	0x3cc25cf9	0.023725973
172	0xb9cfede2	-0.00039659353
173	0x3be83caa	0.00708731
174	0x3cab45c2	0.020907287
175	0xbda4c1bb	-0.08044764
176	0x3d546fc7	0.05186441
177	0xbd350cf7	-0.044201817
178	0xbd4e6477	-0.05038878
179	0xbd394d84	-0.04523994
180	0x3def47d8	0.11683625
181	0x3d67d769	0.056601916
182	0xbe8dae4f	-0.2767205
183	0x3d856a9e	0.06514476
184	0xbe0d4acb	-0.13798063
185	0xbdae802f	-0.08520543
186	0xbcb547dd	-0.022128994
187	0xbdb8a7b1	-0.090163596
188	0xbe2d4cd9	-0.16923846
189	0xbda0df78	-0.07855123
190	0xbc509d38	-0.012732796
191	0xbd1435f5	-0.03618427
192	0xbde5344e	-0.11191617
193	0xbc793b93	-0.0152119575
194	0x3b84af66	0.0040492294
195	0xbd58073b	-0.05274127
196	0xbc9b04a4	-0.018923111
197	0x3b36a345	0.0027868312
198	0x3b25675f	0.0025238616
199	0x3cf93745	0.030421862
200	0x3d17ff13	0.037108492
201	0x3e0307db	0.12795965
202	0x3c271bef	0.010199531
203	0xbb759693	-0.0037473782
204	0x3db28255	0.08716265
205	0x3d928b28	0.07155448
206	0x3ddcf6d5	0.10789267
207	0xbc933612	-0.017970119
208	0x3c481416	0.01221182
209	0xbe24d65b	-0.16097395
210	0x3dbc1d54	0.091852814
211	0x3d1b7c6f	0.037960466
212	0xbde4e042	-0.11175586
213	0x3d17da04	0.03707315
214	0xbc908441	-0.017641189
215	0xbe25f6e4	-0.16207463
216	0x3dcf12fd	0.101110436
217	0x3d408b4e	0.04700785
218	0xbd2a8c5d	-0.041637767
219	0x3b78baae	0.0037953067
220	0xbc14a3f5	-0.0090722935
221	0x3d8b2e87	0.06795984
222	0x3d4c9e1e	0.04995548
223	0x3d2d5f6b	0.042327326
224	0xbd5173da	-0.051135875
225	0x3d99ed27	0.07515936
226	0x3e2e4e89	0.17022146
227	0x3e7e6e70	0.24846816
228	0x3e256388	0.1615125
229	0x3e56424e	0.2092373
230	0x3d13defd	0.03610133
231	0x3e8226cc	0.25420225
232	0x3e329f4d	0.17443581
233	0x3dff2f05	0.1246014
234	0x3d9f3d6e	0.07775389
235	0x3c0b4c70	0.008502111
236	0xbcf8a15e	-0.030350383
237	0x3dbb8258	0.091557205
238	0x3d95a0d6	0.07306068
239	0x3c51f87d	0.012815592
240	0xbb9bb510	-0.004751809
241	0xba010498	-0.0004921644
242	0xbcbc52cc	-0.0229887
243	0xbcf27bd9	-0.02960007
244	0xbd1891ed	-0.03724854
245	0xbd2f97da	-0.042869426
246	0xbd245294	-0.040117815
247	0xbcb125b6	-0.021624427
248	0xbe07c593	-0.13258962
249	0x3c9e5220	0.01932627
250	0xbc2dd23d	-0.010609207
251	0xbd8fbd9f	-0.07018589
252	0xbc8fe16a	-0.01756354
253	0xbdbadf90	-0.091246724
254	0x3d40b20a	0.04704479
255	0xbd214944	-0.039376512

conv2.bias f4 [20]
0	0xbe17d920	-0.1482892
1	0x3da805b0	0.0820421
2	0xbe1ac5ef	-0.15114568
3	0xbdc8f299	-0.09811897
4	0x3e77d453	0.24202089
5	0xbc27b186	-0.010235196
6	0x3d01296d	0.031533647
7	0xbd1faff5	-0.038986165
8	0xbd589f40	-0.052886248
9	0xbe440f9d	-0.19146581
10	0xbc9422b9	-0.018082963
11	0x3c4b6a97	0.01241555
12	0xbd2124a2	-0.039341576
13	0x3e35d232	0.17755964
14	0x3d0fec5d	0.035137523
15	0xbe225f43	-0.15856652
16	0x3c5f959b	0.013646509
17	0x3da44cb3	0.08022442
18	0x3e92d57b	0.28678498
19	0xbcf63737	-0.030055625

fc1.weight f4 [50, 500]
0	0xbd41b553	-0.047292065
1	0xbe1110f5	-0.14166625
2	0xbcae3be9	-0.021268802
3	0x3dc5322b	0.096287094
4	0xbc629d9a	-0.01383152
5	0xbdd52f51	-0.104094155
6	0xbd5ed049	-0.054397855
7	0xbd319b80	-0.043361187
8	0x3c2b2e75	0.010448088
9	0xbcfc37f7	-0.030788405
10	0xbd4d11d1	-0.05006582
11	0xbda60d54	-0.08108011
12	0xbe3a18c8	-0.18173516
13	0xbe137248	-0.14399064
14	0xbde85628	-0.11344558
15	0x3c579870	0.0131589025
16	0xbe0d4369	-0.13795246
17	0xbe4483fa	-0.1919097
18	0xbe7c2ba4	-0.24626023
19	0xbe688796	-0.22707972
20	0x3e0b2c16	0.13591036
21	0xbd529c97	-0.051418867
22	0xbe2d9a04	-0.16953284
23	0xbe9c90b1	-0.3057914
24	0xbcfeb65e	-0.031092819
25	0xbdde6db1	-0.10860766
26	0xbe067277	-0.13129602
27	0xbe1fd50e	-0.15608618
28	0xbe312c08	-0.17301953
29	0xbdc30ea9	-0.095242806
30	0xbe0db194	-0.13837272
31	0xbe551b86	-0.2081128
32	0xbdfd75e1	-0.12375999
33	0xbd67f550	-0.056630433
34	0xbcd5da91	-0.026105197
35	0xbe3ed251	-0.18634917
36	0xbd6a5d8d	-0.057218123
37	0x3a6bdf9b	0.00089978584
38	0x3c226b3b	0.009913261
39	0x3c2960af	0.010337993
40	0xbcad779c	-0.021175198
41	0x3dc13684	0.09434226
42	0x3db39bee	0.087699756
43	0x3dc6ba92	0.09703554
44	0x3dd596e0	0.10429168
45	0x3b576cd2	0.0032871258
46	0xbc7372b4	-0.01485889
47	0x3dd023e7	0.10163098
48	0x3e14dddc	0.14537758
49	0x3e689411	0.22712733
50	0xbcdbf290	-0.026849061
51	0xbd971c56	-0.073784515
52	0x3d869b51	0.06572593
53	0xbd905075	-0.07046596
54	0xbb476e22	-0.0030430635
55	0xbd29cffc	-0.041458115
56	0x3d56ceb5	0.052443225
57	0xbd70011e	-0.058594815
58	0x3c7f19a0	0.015570074
59	0x3df20920	0.11818147
60	0x3d723e85	0.059141655
61	0xbda3dea4	-0.0800145
62	0xbcc58d99	-0.02411537
63	0xbe0f0ce4	-0.13969761
64	0x3e2c1cd7	0.16807877
65	0xbe3c34b7	-0.18379484
66	0xbdd2524c	-0.10269603
67	0xbd50c8e0	-0.05097282
68	0x3a823c23	0.0009936135
69	0x3dd9b334	0.106298834
70	0xbe184d31	-0.14873196
71	0xbde591c8	-0.11209446
72	0x3cbf7a8b	0.023373863
73	0x3cae1f42	0.02125514
74	0x3e0ff796	0.1405929
75	0x3c46ae68	0.012126543
76	0xbbf8c5d7	-0.0075919437
77	0x3b51af9d	0.0031995543
78	0xbd1520b4	-0.03640814
79	0xbd059fed	-0.03262322
80	0x3d7962f3	0.06088538
81	0x3cd08df6	0.025458317
82	0xbc92cb6b	-0.017919263
83	0x3ca0373f	0.019557593
84	0xbda67b18	-0.08128947
85	0x3d79b354	0.060962036
86	0x3cc93b87	0.024564518
87	0x3d086304	0.033297554
88	0x3d123a61	0.035700206
89	0xbc9bdca7	-0.019026114
90	0xbd3127fd	-0.043251026
91	0x3d82c5a0	0.0638535
92	0xbc43115d	-0.011905995
93	0xbbe46a5d	-0.0069706873
94	0x3d9c2a51	0.07625259
95	0xbc0f68e6	-0.008753037
96	0x3d0959eb	0.033533018
97	0xbd910d01	-0.070825584
98	0xbd0b2136	-0.03396722
99	0xbdd6b920	-0.104845285
100	0x3d331bdf	0.04372775
101	0x3c17d672	0.009267436
102	0xbb2ba80c	-0.0026192693
103	0xbd006cf2	-0.0313539
104	0xbd5d9f05	-0.05410673
105	0x3bd89d29	0.006610532
106	0x3d6fb2d5	0.058520157
107	0x3d0d6c45	0.034527082
108	0xbdc95415	-0.098304905
109	0xbd8c1cc4	-0.06841424
110	0xbc668448	-0.014069624
111	0x3d8abe8b	0.067746244
112	0xbdbcf675	-0.092266954
113	0xbe6ebc2d	-0.23313971
114	0xbdc7c7c3	-0.097548984
115	0xbcd719f1	-0.026257487
116	0x3bc5710a	0.006025438
117	0xbe611d4f	-0.21983837
118	0xbe17a098	-0.14807355
119	0xbe2e3397	-0.17011867
120	0xbdcf1e53	-0.10113206
121	0xbe2db0dd	-0.16961999
122	0xbd8042be	-0.0626273
123	0xbdc77b11	-0.0974027
124	0xbd43c248	-0.047792703
125	0x3d03a975	0.03214403
126	0xbd7b4aa7	-0.06135049
127	0xbae9eee7	-0.0017847688
128	0x3d1d092d	0.03833883
129	0xbc6fa39f	-0.014626413
130	0x3d1ffbcb	0.039058488
131	0x3c84b10d	0.016197706
132	0xbd258d7a	-0.040418126
133	0xbe39cd4b	-0.1814472
134	0xbe27d454	-0.1638959
135	0xbc39936d	-0.011326653
136	0xbcd0866a	-0.025454719
137	0x3c937f24	0.018004961
138	0xbdaf4f17	-0.08560007
139	0xbd23095b	-0.039803844
140	0xbd924b89	-0.071433134
141	0xbd64992f	-0.05581015
142	0xbe770c1a	-0.2412571
143	0x3cece86a	0.028919417
144	0xbb6e7e02	-0.0036391024
145	0xbdebae55	-0.115078606
146	0xbe8326f9	-0.2561567
147	0xbe42377b	-0.18966477
148	0xbded0372	-0.11572923
149	0xbcaa3b13	-0.020780122
150	0xbd24d70e	-0.040244155
151	0xbd91ee94	-0.07125583
152	0x3c09f622	0.008420499
153	0x3dfdb439	0.1238789
154	0x3da3c2ee	0.07996164
155	0xbd9424f4	-0.07233611
156	0x3d4ea2ff	0.050448414
157	0x3d6abbd3	0.05730803
158	0xbe4373f7	-0.19087206
159	0xbdffe09a	-0.12494011
160	0xbd5e729c	-0.05430852
161	0xbcfd382c	-0.030910574
162	0xbc01bcaa	-0.007918516
163	0xbd6520b0	-0.055939376
164	0x3d1770c3	0.036972772
165	0x3da47b8a	0.08031376
166	0x3bc4df26	0.0060080467
167	0xbd0c5ac1	-0.034266237
168	0x3cabfc7f	0.020994423
169	0xbd00022a	-0.031252064
170	0x3e222869	0.15835728
171	0xbba4b49d	-0.0050264136
172	0xbc749c61	-0.014929862
173	0x3b206573	0.002447453
174	0xbca22c89	-0.019796627
175	0xbd1519dc	-0.036401615
176	0xbd57c0ce	-0.052674107
177	0xbcf6935a	-0.03009956
178	0xbcf03b26	-0.02932508
179	0xbd378626	-0.04480567
180	0x3cf5beca	0.029998202
181	0x3b1feb1d	0.0024401613
182	0x3c1f375e	0.00971779
183	0x3cec2714	0.028827228
184	0xbe16c8b9	-0.14725007
185	0xbc958583	-0.01825214
186	0x3d1fbc18	0.03899774
187	0x3c6ebdac	0.0145715885
188	0x3cb45276	0.022011977
189	0xbdb8a4c3	-0.09015801
190	0x3dfc09bb	0.123065434
191	0x3ddf2e05	0.108974494
192	0xbc5439d6	-0.012953242
193	0xbda29a0f	-0.079395406
194	0xbde50a2f	-0.11183583
195	0x3d7bf827	0.061515953
196	0xbc5b279b	-0.013376142
197	0xbd9e80e9	-0.077394314
198	0xbe07a5d0	-0.13246846
199	0xbdea0871	-0.11427391
200	0x3d652c90	0.0559507
201	0x3d9fbe5d	0.07799981
202	0x3a1abffb	0.0005903241
203	0xbc9cb5b6	-0.019129615
204	0x3bc93cf0	0.0061412975
205	0xbd52d1ec	-0.05146973
206	0x3db0c941	0.08632136
207	0x3d94c461	0.07264019
208	0xbd8af82f	-0.067856185
209	0x3db6054f	0.08887731
210	0x3d2f01f2	0.042726465
211	0xbdb840aa	-0.08996709
212	0x3d564f7b	0.052321892
213	0x3c669cfe	0.014075516
214	0x3d35240e	0.044223838
215	0x3b9dabf3	0.0048117577
216	0x3d3458d8	0.04403004
217	0x3d5756e1	0.05257309
218	0x3dd776f4	0.105207354
219	0x3d0b3158	0.033982605
220	0xbc4d08f0	-0.012514338
221	0xbb5b9ef5	-0.0033511494
222	0x3db6f654	0.08933702
223	0x3d33dac0	0.043909788
224	0x3d220b5d	0.039561618
225	0xbd1aa2a0	-0.037752748
226	0x3d414f37	0.047194686
227	0x3cf4859a	0.029848862
228	0x3d030f00	0.031996727
229	0xbd7b7791	-0.061393324
230	0xbd2cd4b5	-0.04219504
231	0x3c097659	0.008390033
232	0x3de77fff	0.1130371
233	0xbc3ab2a7	-0.011395133
234	0xbd136570	-0.03598541
235	0x3db6a0d0	0.08917391
236	0xbd63a220	-0.055574536
237	0x3bdac109	0.0066758436
238	0xbba673c5	-0.005079719
239	0x3d1eb6a6	0.038748406
240	0x3ae1dc5e	0.0017231812
241	0xbdde3edf	-0.108518355
242	0xbd917932	-0.07103194
243	0xbd2b5d88	-0.041837245
244	0x3baa31ec	0.0051939394
245	0xbd1a8955	-0.037728626
246	0xbe350ce7	-0.17680703
247	0xbde23b10	-0.110464215
248	0xbe6731c9	-0.22577585
249	0xbcf71cb6	-0.030165058
250	0x3d391059	0.045181606
251	0xbd13e283	-0.03610469
252	0x3da02443	0.078194164
253	0xbbd9af26	-0.006643194
254	0x3d16ccdc	0.036816463
255	0xbb67a884	-0.0035348246

fc1.bias f4 [50]
0	0x3dfed646	0.12443213
1	0xbd620286	-0.055178188
2	0x3dc43a65	0.095814504
3	0x3e088110	0.13330483
4	0x3d219bd3	0.039455246
5	0xbd67250f	-0.056431826
6	0xbdd8a254	-0.10577837
7	0x3def8a8e	0.11696349
8	0x3e1e2aa1	0.15445949
9	0x3e40d54d	0.18831368
10	0x3d911195	0.07083432
11	0x3b5b6bbb	0.003348096
12	0xbd97897f	-0.07399272
13	0x3c2dbbb6	0.010603836
14	0x3e125195	0.14288934
15	0x3dae2d07	0.08504682
16	0xbe046e2d	-0.12932654
17	0x3e000f34	0.125058
18	0x3c8d537c	0.017251723
19	0xbddb7dd0	-0.10717356
20	0x3cfa372e	0.03054389
21	0x3dc0554f	0.09391271
22	0x3d597797	0.053092565
23	0x3ddcdb48	0.10784012
24	0x3ce28730	0.027652353
25	0x3d8a9856	0.06767337
26	0x3d6d32da	0.057909824
27	0xbdf28c66	-0.11843185
28	0x3d35a7a2	0.04434932
29	0xbc184e3e	-0.009295998
30	0xbcf0a301	-0.029374601
31	0x3d56db86	0.052455448
32	0x3cb44da8	0.022009686
33	0x3915f4c0	0.00014300924
34	0xbc78df8f	-0.015190019
35	0xbdd37819	-0.10325641
36	0xbd03b465	-0.03215446
37	0x3dcc57ef	0.099777095
38	0x3deacafb	0.11464497
39	0x3c064bcd	0.008196783
40	0x3dfae558	0.12250775
41	0xbe1a67db	-0.1507868
42	0x3e1c7d79	0.15282239
43	0x3dc5f92d	0.09666667
44	0xbd6a6519	-0.05722532
45	0xbd05f658	-0.032705635
46	0x3d57da95	0.05269869
47	0x3dacc9c1	0.08436919
48	0x3d7b5053	0.0613559
49	0x3df82155	0.121157326

fc2.weight f4 [3, 50]
0	0xbf08d744	-0.5345347
1	0x3c82d54e	0.015970852
2	0x3e066373	0.13123874
3	0xbea74c18	-0.32675242
4	0x3d961842	0.073288456
5	0x3e66c0ab	0.22534434
6	0x3e2ed7be	0.17074487
7	0xbed92fef	-0.42419383
8	0x3e483e59	0.19555034
9	0x3de99d85	0.114069976
10	0x3d9d0080	0.07666111
11	0xbe6092ae	-0.21930954
12	0xbe975365	-0.29555812
13	0x3ebbc965	0.3667709
14	0xbe642d8b	-0.22282998
15	0xbe701f65	-0.23449476
16	0x3e072e43	0.13201241
17	0xbeceece9	-0.40415123
18	0xbedf1dca	-0.43577415
19	0x3e9550be	0.29163164
20	0xbe516bb4	-0.20451242
21	0xbedbd6e4	-0.42937386
22	0x3ebcf7fb	0.36907944
23	0xbedfeeb2	-0.43736798
24	0xbe40137c	-0.18757433
25	0xbeb3b87a	-0.35101682
26	0x3ea28c3f	0.31747624
27	0x3d8b9578	0.06815618
28	0xbeb48b24	-0.35262406
29	0xbeb7b111	-0.35877278
30	0x3e087a04	0.13327795
31	0x3e530728	0.20608199
32	0x3ea9e860	0.331851
33	0x3ee75c49	0.45187595
34	0x3e8adce6	0.27121657
35	0xbe57c9d8	-0.21073091
36	0x3ea000ea	0.31250697
37	0xbd95a5c8	-0.07307011
38	0x3e361b12	0.17783764
39	0xbee6dceb	-0.45090422
40	0x3de0df2e	0.10980068
41	0x3e55b1b5	0.20868571
42	0xbf051a05	-0.5199283
43	0xbe536b87	-0.20646487
44	0x3e4583a0	0.19288492
45	0xbeba4af8	-0.36385322
46	0xbeab28ca	-0.33429557
47	0x3ee1b241	0.4408131
48	0xbef2d16f	-0.4742541
49	0x3e277792	0.16354206
50	0xbe6c2bd8	-0.230636
51	0x3e5da33d	0.21644302
52	0xbede5642	-0.43425184
53	0xbdceadb4	-0.10091725
54	0xbeda4855	-0.4263331
55	0x3e4df810	0.2011416
56	0x3e2d2a78	0.16910732
57	0xbddef36b	-0.10886272
58	0xbebfc9b4	-0.37458575
59	0xbec6894d	-0.38776627
60	0xbef93cfb	-0.48679337
61	0x3e7765b8	0.24159896
62	0x3ea617be	0.3243999
63	0xbed97339	-0.4247072
64	0xbe9db564	-0.30802453
65	0x3ee93225	0.4554607
66	0x3e004279	0.12525357
67	0x3e393949	0.18088259
68	0xbdaf57dd	-0.085616805
69	0x3dcb5988	0.09929186
70	0x3e95b37d	0.292385
71	0x3e03c69b	0.1286873
72	0xbea15ff7	-0.31518528
73	0x3e1b2e18	0.15154302
74	0x3ea5e5b0	0.324018
75	0x3e1f76a8	0.15572608
76	0xbf18116b	-0.5940158
77	0x3dc5331a	0.096288875
78	0x3ebf1222	0.37318522
79	0x3e9643a8	0.29348493
80	0x3e39e0cc	0.1815216
81	0xbe9de619	-0.30839613
82	0x3e287d4a	0.16454044
83	0xbed33bdd	-0.4125661
84	0xbe7c3876	-0.24630913
85	0x3ed089d8	0.40730166
86	0xbe7bca8f	-0.24588989
87	0xbef8ebd7	-0.48617432
88	0xbeda4016	-0.4262702
89	0x3e7f0a16	0.24906191
90	0xbed6ba55	-0.41939035
91	0x3e6bd1ae	0.23029205
92	0xbe633147	-0.22186767
93	0xbe54ffba	-0.20800677
94	0x3e3379cb	0.17526929
95	0x3ecda4ab	0.40164694
96	0x3e3a6806	0.18203744
97	0xbeff7a42	-0.49897963
98	0x3dfd13c9	0.12357289
99	0xbe68df29	-0.22741379
100	0x3eba7f45	0.36425224
101	0xbede33d3	-0.43398914
102	0x3d4a1a12	0.04934127
103	0x3ed7a228	0.42115903
104	0x3d6fff8c	0.058593318
105	0xbe23069b	-0.15920489
106	0xbe625b03	-0.2210503
107	0x3e9a1c59	0.30099753
108	0x3e4921c6	0.1964179
109	0x3dd42fa9	0.10360653
110	0x3c368317	0.011139653
111	0xbe0d6f25	-0.1381193
112	0xbe87e0a3	-0.26538572
113	0xbe727d81	-0.23680688
114	0x3ee6601e	0.44995207
115	0xbe233275	-0.15937217
116	0xbe6b5744	-0.22982508
117	0x3e76e648	0.24111283
118	0x3eb8da79	0.3610418
119	0xbec423f6	-0.38308686
120	0xbe9a1ffd	-0.3010253
121	0x3e5d440e	0.21607992
122	0xbe92f747	-0.28704283
123	0x3e7ed17a	0.24884596
124	0xbd06382c	-0.032768413
125	0x3e49a117	0.19690357
126	0xbccecce8	-0.025244191
127	0xbe9fa95c	-0.31183898
128	0xbe87ee22	-0.26548868
129	0xbdc6150c	-0.09671983
130	0xbee572b2	-0.44814068
131	0x3e4cf7cc	0.20016402
132	0xbec20951	-0.37897733
133	0xbe97d82e	-0.2965712
134	0xbebecbec	-0.37264955
135	0xbe802cfa	-0.25034314
136	0xbecdbb2a	-0.40181857
137	0x3ebe3cef	0.37155864
138	0x3e277de4	0.16356617
139	0xbcbf5796	-0.023357194
140	0x3e0cb9e5	0.13742788
141	0xbe90e60b	-0.2830051
142	0x3effbb85	0.49947754
143	0x3f051466	0.5198425
144	0xbecb6e0d	-0.397324
145	0xbe89ed86	-0.26939029
146	0x3e109974	0.14121038
147	0xbe756b90	-0.23966813
148	0x3ea9e82f	0.33184955
149	0x3e30fac5	0.17283161

fc2.bias f4 [3]
0	0xbd04e5a6	-0.032445572
1	0x3c3bba3d	0.011457977
2	0x3e7f100b	0.24908464

exp_avg f4 [20, 3, 3, 3]
0	0x3bb9cfe5	0.005670535
1	0x3ccd1934	0.025036432
2	0x3d580995	0.052743513
3	0xbc198c89	-0.009371885
4	0x3c42860a	0.011872778
5	0x3d2c7797	0.042106237
6	0xbbce327d	-0.0062926398
7	0x3c309ec4	0.01078004
8	0x3cf1c2b2	0.029511783
9	0xbc884520	-0.016634524
10	0xbb1d94c0	-0.002404496
11	0x3cc53367	0.024072362
12	0xbcdf01dd	-0.027222568
13	0xbc44433e	-0.011978922
14	0x3c7cc358	0.015427433
15	0xbce266e0	-0.027636945
16	0xbc8cfbc1	-0.01720989
17	0x3991b907	0.0002779441
18	0xbcaa79a1	-0.02080995
19	0xbc332b16	-0.010935565
20	0x3c2adfab	0.010429303
21	0xbcfe8a25	-0.031071732
22	0xbcadffb0	-0.021240085
23	0xb9629b5b	-0.00021610914
24	0xbcfb6b85	-0.030690918
25	0xbcdc4f80	-0.026893377
26	0xbc59302b	-0.013256113
27	0x3d00722a	0.031358875
28	0x3ce8ae57	0.028403444
29	0x3cb24ca5	0.021765063
30	0x3ca498dd	0.020092422
31	0x3c9631af	0.018334238
32	0x3c79c14b	0.015243839
33	0x3caa92c6	0.02082194
34	0x3c972d1b	0.018454125
35	0x3c582e12	0.013194578
36	0x3cc7e14b	0.02439942
37	0x3cb6ab2a	0.022298414
38	0x3c7e2bc6	0.015513366
39	0x3c547b64	0.012968872
40	0x3c460cca	0.01208801
41	0x3c1fe39e	0.009758858
42	0x3c5631db	0.01307341
43	0x3c2f8f45	0.01071531
44	0x3be9bc21	0.0071330224
45	0x3ca394ed	0.019968474
46	0x3c9e0e50	0.019293934
47	0x3c5313cc	0.012883138
48	0x3c1cd8e3	0.009573194
49	0x3c0809a0	0.008303076
50	0x3bd5d9e3	0.0065262183
51	0x3c083121	0.0083124945
52	0x3b89ff6d	0.0042113573
53	0x3b1527b1	0.0022759254
54	0xbc72aa7d	-0.014811155
55	0xbc8df310	-0.017327815
56	0xbc823779	-0.015895592
57	0xbc592ff1	-0.013256059
58	0xbc981053	-0.018562471
59	0xbc8da13f	-0.017288802
60	0xbc789934	-0.015173245
61	0xbcae0d22	-0.021246497
62	0xbc9349b0	-0.017979473
63	0xbc49606f	-0.012291058
64	0xbc6bb35c	-0.014386024
65	0xbc49b959	-0.012312257
66	0xbc57c2bd	-0.013168988
67	0xbc8fa1e3	-0.017533248
68	0xbc84d3ca	-0.01621427
69	0xbc856237	-0.016282184
70	0xbcacf646	-0.021113526
71	0xbc943942	-0.018093709
72	0xbc7d8ce7	-0.015475488
73	0xbc95d83d	-0.018291587
74	0xbc8e734e	-0.017388966
75	0xbc8e4e43	-0.017371302
76	0xbcabbeb1	-0.020964952
77	0xbca456df	-0.020060955
78	0xbcb54e99	-0.022132205
79	0xbccf0a8e	-0.025273588
80	0xbcb6b2a0	-0.022301972
81	0x3c1c516f	0.0095409
82	0x3c157db3	0.009124207
83	0x3c254e2b	0.0100894375
84	0x3c9822cf	0.018571286
85	0x3c848fb1	0.016181799
86	0x3c5ca578	0.013467185
87	0x3c9d768c	0.019221567
88	0x3c6045a7	0.013688481
89	0x3c11386c	0.00886355
90	0x3cadd2a3	0.021218603
91	0x3cb826e8	0.02247949
92	0x3cc71750	0.024303108
93	0x3cefc5c4	0.029269107
94	0x3ceb0222	0.02868754
95	0x3cd7337e	0.02626967
96	0x3ccbf6ef	0.02489802
97	0x3cb4b44a	0.022058625
98	0x3c906707	0.017627252
99	0x3cab3cd9	0.020903038
100	0x3ca4eb71	0.020131798
101	0x3ca76968	0.020436004
102	0x3cda2ebb	0.026633611
103	0x3ccc153c	0.02491247
104	0x3cb63ab2	0.022244785
105	0x3cbcb8d1	0.023037346
106	0x3c9cea41	0.01915467
107	0x3c7c5786	0.015401727
108	0x3c3ba8ef	0.011453851
109	0x3c42c175	0.011886944
110	0x3c786687	0.015161163
111	0x3d06a428	0.032871395
112	0x3d061465	0.032734293
113	0x3d140c56	0.036144577
114	0x3d49c30b	0.049258273
115	0x3d2e5a2e	0.04256647
116	0x3d15e9b2	0.036599822
117	0xba197253	-0.00058535225
118	0xba5a963f	-0.00083384285
119	0x3b112d5c	0.002215228
120	0x3c8f51fa	0.017495144
121	0x3c99d17b	0.018776646
122	0x3cc69d1d	0.02424484
123	0x3cffce97	0.03122644
124	0x3cd2dd4d	0.02574029
125	0x3cc2901b	0.023750355
126	0xbb213b9f	-0.0024602187
127	0xbb34055e	-0.002746902
128	0x3b19fe45	0.0023497504
129	0x3c5997b0	0.013280794
130	0x3c70f342	0.014706435
131	0x3cb74c1a	0.022375155
132	0x3ccdb2c5	0.025109658
133	0x3ca7bcad	0.02047571
134	0x3ca4f354	0.02013556
135	0x3dc22c90	0.09481156
136	0x3ddf0681	0.108899124
137	0x3e053dbe	0.13011834
138	0x3da2778a	0.079329565
139	0x3db7470b	0.08949097
140	0x3dd46f38	0.10372776
141	0x3da0fda0	0.07860875
142	0x3dc1321c	0.09433386
143	0x3de62c7b	0.11238953
144	0x3d6aa1f7	0.057283368
145	0x3d976d50	0.073938966
146	0x3dbca408	0.09210974
147	0x3d354d30	0.044263065
148	0x3d5c5e98	0.05380115
149	0x3d80873b	0.06275793
150	0x3d30f577	0.043202844
151	0x3d660a2d	0.056162048
152	0x3d8a32b9	0.06747956
153	0x3d161d93	0.036649298
154	0x3d3aef6d	0.04563849
155	0x3d5693f6	0.0523872
156	0x3ce1e987	0.027577175
157	0x3d01c007	0.031677272
158	0x3d05f694	0.03270586
159	0x3ca6d19d	0.020363623
160	0x3cfbe69c	0.030749612
161	0x3d14c281	0.036318306
162	0x3c8260d3	0.01591531
163	0x3c88ae24	0.0166846
164	0x3c618789	0.013765224
165	0x3c55a35a	0.013039434
166	0x3c669c0c	0.01407529
167	0x3c6ff16a	0.01464496
168	0x3c34e610	0.011041179
169	0x3c35d3b4	0.011097837
170	0x3c5bb1ee	0.013409121
171	0x3ca73354	0.020410217
172	0x3cb2b0bd	0.021812791
173	0x3c8f1b48	0.017469063
174	0x3c8a934f	0.016915945
175	0x3c92ab01	0.017903807
176	0x3c8baa24	0.017048903
177	0x3c3cc70c	0.011522066
178	0x3c2870c7	0.010280794
179	0x3c3b5e24	0.011436019
180	0x3cbeed86	0.02330662
181	0x3ccc7481	0.024957897
182	0x3caf8abb	0.021428457
183	0x3ca72a52	0.020405922
184	0x3cb5a0a4	0.022171326
185	0x3cad85c1	0.021181943
186	0x3c7afdee	0.015319331
187	0x3c5729d3	0.01313253
188	0x3c5735c7	0.01313538
189	0x3be4aa64	0.00697832
190	0x3be5aacd	0.0070088864
191	0x3ba9a69f	0.0051773335
192	0x3c4fd24c	0.012684416
193	0x3be20150	0.006897129
194	0x3b88b90d	0.0041724504
195	0x3cdfc458	0.027315304
196	0x3c9cfc0b	0.019163152
197	0x3c2519ed	0.010076982
198	0x3b9d287a	0.004796085
199	0x3b82fc4b	0.003997361
200	0x3b37a214	0.002802019
201	0x3c0cb8d6	0.00858899
202	0x3b63e15b	0.0034771773
203	0x3b262a6a	0.002535487
204	0x3cb115fa	0.021616925
205	0x3c6187f4	0.013765324
206	0x3bcf225a	0.0063212337
207	0x3b860747	0.004090223
208	0x3b653d3c	0.0034979125
209	0x3b5aa384	0.0033361623
210	0x3bd0887a	0.0063639255
211	0x3b056d68	0.00203594
212	0x3a85dfdc	0.001021381
213	0x3c7ce33c	0.015435036
214	0x3c10b020	0.008831054
215	0x3a1c236c	0.0005956206
216	0xbc91712c	-0.01775416
217	0xbc24985a	-0.010046089
218	0xbbba9125	-0.005693572
219	0xbc1a0776	-0.009401193
220	0xbb6d5087	-0.0036211328
221	0x38a60628	7.9166435e-05
222	0xbb9eda4f	-0.0048478018
223	0xbbda3e5c	-0.006660266
224	0xbb8be826	-0.0042696176
225	0xbbdcee05	-0.0067422413
226	0x3af44704	0.0018636887
227	0x3ba1a019	0.004932415
228	0xba669bea	-0.0008797037
229	0x3bd68385	0.00654644
230	0x3c2a2d3d	0.010386762
231	0x3b49ba2f	0.003078114
232	0x3b57aea4	0.003291049
233	0x3be76064	0.007061051
234	0xbacd0580	-0.0015641898
235	0x3ba71733	0.005099201
236	0x3c09fbb1	0.008421824
237	0xb9334a74	-0.00017098506
238	0x3bcb105d	0.006197019
239	0x3c2ec665	0.010667418
240	0x3b1c7f59	0.0023879616
241	0x3b4b937d	0.0031063252
242	0x3c06f92d	0.008238119
243	0x3cc19a8d	0.023633266
244	0x3c93287e	0.017963644
245	0x3c71efc7	0.01476664
246	0x3cb20646	0.021731507
247	0x3cba1c8f	0.022718696
248	0x3cf68b2e	0.030095663
249	0x3cb0b078	0.021568522
250	0x3cfe911a	0.03107505
251	0x3d2cb4da	0.04216466
252	0x3b70bfab	0.0036735337
253	0x3933f826	0.00017163213
254	0x3af36f04	0.0018572514
255	0x3b049419	0.0020229875

exp_avg_sq f4 [20, 3, 3, 3]
0	0x3dc0f9ec	0.09422669
1	0x3da2397a	0.07921119
2	0x3d738d5c	0.059460983
3	0x3dd1132c	0.10208735
4	0x3db799d5	0.08964888
5	0x3d8a4d01	0.067529686
6	0x3db358cb	0.0875717
7	0x3dae377c	0.085066766
8	0x3d96d8f5	0.073656
9	0x3de621dc	0.11236927
10	0x3dc40918	0.09572047
11	0x3d901aad	0.07036338
12	0x3df30b6d	0.11867414
13	0x3ddafbc5	0.106925525
14	0x3da54a28	0.08070785
15	0x3dccab52	0.09993614
16	0x3dcb32b5	0.09921781
17	0x3db0fe14	0.086422116
18	0x3de61f43	0.112364314
19	0x3dc9326f	0.098240726
20	0x3d9a957c	0.07548043
21	0x3df63494	0.12021747
22	0x3de229c7	0.11043125
23	0x3db11c3d	0.08647964
24	0x3dd392f8	0.103307664
25	0x3dd3d590	0.10343468
26	0x3dbc5d79	0.09197516
27	0x3c0ee5ac	0.00872175
28	0x3c0e2d87	0.008677847
29	0x3c0c916e	0.008579595
30	0x3c148360	0.009064525
31	0x3c1db20e	0.009624971
32	0x3c1d6b7f	0.009608149
33	0x3c195472	0.009358512
34	0x3c203f14	0.009780664
35	0x3c224ee5	0.009906505
36	0x3bf38511	0.0074316342
37	0x3bf59bc1	0.007495374
38	0x3bf2632f	0.0073970775
39	0x3bfa0c44	0.0076308567
40	0x3c094e2c	0.008380454
41	0x3c09520d	0.008381379
42	0x3c047703	0.008085015
43	0x3c0e5536	0.008687308
44	0x3c121719	0.00891664
45	0x3be140ab	0.006874164
46	0x3be6e905	0.007046821
47	0x3be0fa93	0.0068658083
48	0x3be36d49	0.006940518
49	0x3bfdd1cc	0.007745957
50	0x3bfc9383	0.0077080145
51	0x3bef373a	0.0073002847
52	0x3c01c31e	0.007920055
53	0x3c059b5e	0.008154718
54	0x3bfc2342	0.0076946327
55	0x3c005b98	0.007834338
56	0x3c000d31	0.007815645
57	0x3c09d454	0.008412439
58	0x3c09db3e	0.008414088
59	0x3c012555	0.007882436
60	0x3c07b547	0.008282966
61	0x3c025bcd	0.007956457
62	0x3c0531ce	0.00812955
63	0x3beaa178	0.007160362
64	0x3bf87905	0.007582786
65	0x3bf6c056	0.0075302524
66	0x3c0be4d9	0.008538448
67	0x3c0d3ba2	0.008620175
68	0x3bfe3417	0.0077576744
69	0x3c078bf6	0.008273115
70	0x3c019c76	0.007910838
71	0x3c01534e	0.007893397
72	0x3c03dd1e	0.008048324
73	0x3c0a4035	0.00843816
74	0x3c05f549	0.008176156
75	0x3c1a8149	0.009430238
76	0x3c1aaf79	0.00944125
77	0x3c08d7ed	0.008352262
78	0x3c124f08	0.008929975
79	0x3c0a8878	0.008455388
80	0x3c0502c8	0.008118339
81	0x3c87717d	0.016533608
82	0x3c9a61f2	0.018845532
83	0x3cac3c52	0.021024857
84	0x3c9b00f4	0.018921353
85	0x3cab4eea	0.020911653
86	0x3caa3dd1	0.02078143
87	0x3c9b44f2	0.018953774
88	0x3c9f434b	0.019441267
89	0x3c983bc4	0.018583186
90	0x3c8f5945	0.017498622
91	0x3cacfcda	0.021116663
92	0x3cccdc3d	0.025007362
93	0x3cacac3e	0.021078225
94	0x3cc7eccf	0.024404911
95	0x3ccc7b9f	0.02496129
96	0x3caeb4d1	0.021326454
97	0x3cb69b44	0.022290833
98	0x3cab1397	0.020883365
99	0x3cb5a15f	0.022171674
100	0x3cde7380	0.027154684
101	0x3d022f21	0.031783227
102	0x3cde86e0	0.027163923
103	0x3d0117ec	0.031516954
104	0x3d02c780	0.03192854
105	0x3cdf9a85	0.02729536
106	0x3ce88b7f	0.02838683
107	0x3cd41789	0.025890129
108	0x3c85cffe	0.01633453
109	0x3c842dab	0.016135057
110	0x3c88c7ae	0.016696777
111	0x3c68c18e	0.014206303
112	0x3c7358e3	0.014852735
113	0x3c7f4428	0.015580215
114	0x3c9ddbdd	0.019269878
115	0x3c85cb28	0.016332224
116	0x3c85ab64	0.016317077
117	0x3c61859e	0.013764767
118	0x3c5d6aee	0.013514264
119	0x3c7c0572	0.015382158
120	0x3c56020c	0.013062011
121	0x3c55729a	0.013027811
122	0x3c664b5b	0.014056052
123	0x3ca63712	0.020289931
124	0x3c84d876	0.016216498
125	0x3c82b261	0.015954198
126	0x3c5c9791	0.013463871
127	0x3c50c0c0	0.012741268
128	0x3c6e294d	0.014536214
129	0x3c4f7dbc	0.012664255
130	0x3c46bc09	0.012129792
131	0x3c556fb4	0.01302712
132	0x3ca3e335	0.020005802
133	0x3c80c999	0.01572113
134	0x3c7c1ae0	0.015387267
135	0x3e1439df	0.14475201
136	0x3e4efcff	0.20213698
137	0x3e7bc4a9	0.24586739
138	0x3e40c37c	0.18824571
139	0x3e7bc8b5	0.24588282
140	0x3e77db29	0.24204697
141	0x3e4f2d4f	0.20232128
142	0x3e5c85c9	0.2153541
143	0x3e38a035	0.18029864
144	0x3e102307	0.14075862
145	0x3e57f3ba	0.21089068
146	0x3e86b8b0	0.2631278
147	0x3e42f081	0.19037057
148	0x3e82d83e	0.25555605
149	0x3e810666	0.25200194
150	0x3e4bfd42	0.19920829
151	0x3e5a6206	0.21326455
152	0x3e3382ef	0.17530416
153	0x3e1d1782	0.15340999
154	0x3e60c246	0.2194911
155	0x3e896e07	0.26841757
156	0x3e4bc897	0.19900738
157	0x3e839bf7	0.2570493
158	0x3e818a26	0.2530071
159	0x3e522b35	0.20524295
160	0x3e5d88d2	0.21634224
161	0x3e39675f	0.18105839
162	0x3c0266da	0.007959092
163	0x3bebcc7f	0.0071960087
164	0x3bf90d18	0.007600438
165	0x3bdf762a	0.006819506
166	0x3be47151	0.006971516
167	0x3bf67628	0.0075214095
168	0x3bce9245	0.006304058
169	0x3be3754e	0.006941474
170	0x3bd8707e	0.006605207
171	0x3c18f354	0.009335358
172	0x3bfb0ea3	0.007661657
173	0x3bfc53ec	0.007700434
174	0x3bf9070c	0.007599717
175	0x3bcf0581	0.006317795
176	0x3bd9bf6e	0.0066451347
177	0x3bd5ec71	0.00652843
178	0x3bc69fb5	0.006061519
179	0x3bc33612	0.0059573734
180	0x3c2f3455	0.010693629
181	0x3c11d7b5	0.008901526
182	0x3c13244e	0.008980824
183	0x3c0fbc80	0.008772969
184	0x3be68959	0.007035416
185	0x3bed3a08	0.007239584
186	0x3bf66317	0.0075191366
187	0x3bd35c5e	0.00645022
188	0x3bd3d3c3	0.006464453
189	0x3c98719a	0.018608857
190	0x3c991a51	0.018689306
191	0x3ca03fe7	0.019561721
192	0x3c8ae049	0.01695265
193	0x3c9490d9	0.018135475
194	0x3c97cbf5	0.018529871
195	0x3c83c0cd	0.016083146
196	0x3c862cd9	0.016378807
197	0x3c8ec2b1	0.01742682
198	0x3c990cb5	0.018682817
199	0x3c9b2fec	0.01894375
200	0x3ca7d14b	0.02048554
201	0x3c8a69de	0.016896185
202	0x3c931cbd	0.01795804
203	0x3c97426f	0.018464295
204	0x3c823da0	0.015898526
205	0x3c81d114	0.015846767
206	0x3c88dec1	0.01670778
207	0x3c965897	0.01835279
208	0x3c9b3647	0.01894678
209	0x3caac34a	0.020845074
210	0x3c886f41	0.016654612
211	0x3c913351	0.017724665
212	0x3c963a04	0.01833821
213	0x3c7cf6ab	0.01543967
214	0x3c7d729d	0.0154692205
215	0x3c850a26	0.01624019
216	0x3c4c5087	0.012470371
217	0x3c5d9e11	0.0135264555
218	0x3c6b0c42	0.014346184
219	0x3c53afda	0.012920344
220	0x3c646550	0.01394017
221	0x3c73ca93	0.01487984
222	0x3c628410	0.0138254315
223	0x3c6a3d2b	0.01429681
224	0x3c73a9eb	0.014872055
225	0x3c4331fe	0.011913775
226	0x3c57b127	0.013164795
227	0x3c68e5d5	0.0142149525
228	0x3c4b92c2	0.0124251265
229	0x3c5f053a	0.013612086
230	0x3c71b841	0.014753402
231	0x3c62fdcf	0.013854458
232	0x3c6dd1d7	0.014515362
233	0x3c78e18f	0.015190496
234	0x3c376ad2	0.011194902
235	0x3c4ac84c	0.012376856
236	0x3c5b7df4	0.013396729
237	0x3c3ec987	0.011644728
238	0x3c52d2e0	0.012867659
239	0x3c647301	0.013943435
240	0x3c5b8748	0.013398953
241	0x3c67151b	0.014104153
242	0x3c71661f	0.01473382
243	0x3cfc3f25	0.030791828
244	0x3d0878a2	0.03331817
245	0x3d16f8ad	0.03685825
246	0x3cf91231	0.030404182
247	0x3d0a8964	0.033822432
248	0x3d1b55ca	0.03792361
249	0x3d00edd9	0.03147683
250	0x3d0fe6a4	0.035132065
251	0x3d18c02e	0.03729265
252	0x3d053afd	0.03252696
253	0x3d10fc99	0.035397146
254	0x3d22d08f	0.03974968
255	0x3cffb01a	0.031211901

exp_avg f4 [20]
0	0x3d9610d8	0.073274314
1	0x3c885c6f	0.016645638
2	0x3bc67f86	0.0060576824
3	0xbce109b6	-0.02747045
4	0xbc795cb4	-0.015219856
5	0x3cddb8cd	0.027065659
6	0xbb796d4b	-0.0038059528
7	0xbc320abf	-0.01086682
8	0x3c592ef8	0.013255827
9	0x3cadd304	0.021218784
10	0x3a42b9ba	0.0007428188
11	0x3cc07c5e	0.023496803
12	0xbc6164e0	-0.013756961
13	0x3c0872dd	0.008328167
14	0xbbff6ff7	-0.0077953297
15	0x3cf16732	0.029468153
16	0xbc8a2828	-0.016864851
17	0xbd1e606c	-0.038666174
18	0x3cdefa99	0.027219104
19	0xbc4168b3	-0.011804747

exp_avg_sq f4 [20]
0	0x3d860911	0.06544698
1	0x3bf5449b	0.007484985
2	0x3bcbe9d9	0.006222945
3	0x3cd0bd41	0.025480868
4	0x3cf9ae8e	0.030478742
5	0x3e4327f5	0.19058211
6	0x3c136ff6	0.008998862
7	0x3c1dd53e	0.00963336
8	0x3bd865c2	0.0066039274
9	0x3ca0ee82	0.01964498
10	0x3cf3a9ce	0.029744055
11	0x3bf7482e	0.0075464463
12	0x3c95b295	0.018273631
13	0x3c21243e	0.009835301
14	0x3d53b801	0.05168915
15	0x3c183d62	0.009291979
16	0x3c5dc484	0.0135356225
17	0x3d41e723	0.04733957
18	0x3d446a9d	0.047953237
19	0x3c4937d0	0.012281373

exp_avg f4 [20, 20, 3, 3]
0	0xbb885fd6	-0.004161815
1	0x3ac22682	0.0014812502
2	0xbb5b3282	-0.0033446853
3	0xbb672976	-0.0035272515
4	0x3c2e5086	0.0106393155
5	0x3ba0df9e	0.0049094697
6	0x3aaeb075	0.0013327735
7	0x3bec731c	0.0072158705
8	0x3bf4f9d4	0.007476071
9	0x3c928b10	0.017888576
10	0x3ca98bcd	0.020696545
11	0x3cac5b3a	0.021039594
12	0x3c64fc39	0.01397615
13	0x3c88e122	0.016708914
14	0x3ca057db	0.019573143
15	0x3be0552e	0.0068460917
16	0x3c0c8a26	0.008577859
17	0x3c0fbabd	0.008772549
18	0xba89f0fe	-0.0010524092
19	0xba1207c3	-0.00055706146
20	0xb768d8fb	-1.3878797e-05
21	0x3bc607da	0.0060434164
22	0x3be14338	0.006874468
23	0x3b7fa920	0.0039010718
24	0x3b7f2ed5	0.0038937826
25	0x3c089cf8	0.0083382055
26	0x3b072a99	0.0020624755
27	0xbbc51849	-0.006014858
28	0xbbae56e8	-0.0053204186
29	0xbaba98ea	-0.0014236246
30	0xbb025b06	-0.001989068
31	0xbabcb505	-0.001439721
32	0xb999e8ba	-0.0002935583
33	0xba0ced2e	-0.00053759187
34	0xb9a675b0	-0.0003174967
35	0xbae2a3e4	-0.0017291275
36	0x3b4c64ef	0.003118809
37	0x3b953020	0.004552856
38	0x3bcf801d	0.006332411
39	0x3b75cfc6	0.0037507876
40	0x3b597757	0.0033182704
41	0x3c04c17c	0.008102771
42	0x3ab2787a	0.0013616227
43	0x39ba7f6a	0.00035571615
44	0x3adba38f	0.0016757118
45	0xbb5d175d	-0.003373585
46	0xbbe294c3	-0.0069147064
47	0x39c9bda4	0.00038479
48	0xbaadced4	-0.0013260492
49	0x3acde53c	0.0015708576
50	0x3b221b08	0.002473535
51	0x3b22f30a	0.00248641
52	0x3b12d9ba	0.0022407607
53	0xbb093f3b	-0.002094223
54	0x3ad7f537	0.0016476278
55	0x3a84d9a0	0.0010135658
56	0xbad4dd4f	-0.0016240272
57	0xbaa39ffe	-0.0012483594
58	0x3b91f130	0.0044538006
59	0x3b9ba27d	0.0047495947
60	0x3bd26e5b	0.006421847
61	0x3c2943cb	0.0103311045
62	0x3ba45988	0.005015556
63	0xbb0eb745	-0.0021776718
64	0x3a134489	0.00056178175
65	0x3b5a45fb	0.0033305872
66	0x3b0c6533	0.0021422624
67	0xbaa28f45	-0.0012402317
68	0x3b9b8634	0.004746223
69	0x3a002c11	0.0004889379
70	0x3a58a216	0.0008263899
71	0x3a86c0c0	0.0010280833
72	0x3cb5b813	0.0221825
73	0x3ce80f2c	0.028327547
74	0x3ce60778	0.028079733
75	0x3c9e0a5d	0.019292051
76	0x3cc9f686	0.024653684
77	0x3cc2d1c8	0.023781672
78	0x3c94572d	0.018107975
79	0x3c98c9e3	0.018650955
80	0x3ca65fff	0.020309446
81	0xbbba7aa5	-0.00569089
82	0xbc12501c	-0.008930232
83	0x3a479217	0.00076130166
84	0xbb064238	-0.0020486247
85	0xbb6444f0	-0.003483113
86	0xb95f0f14	-0.00021272554
87	0x39feb4d3	0.0004858138
88	0xba0bc200	-0.00053313375
89	0x3acd4906	0.0015662021
90	0x3a989ea3	0.0011643957
91	0x399f6e4c	0.0003040902
92	0x3b15012c	0.0022736294
93	0x3b7d8ab7	0.0038687417
94	0x3b0a015d	0.0021057941
95	0x3aebcaab	0.0017989477
96	0x3be33f93	0.006935069
97	0x3c0325f5	0.008004655
98	0x3b260e83	0.002533824
99	0x3bea7789	0.007155363
100	0x3b24561c	0.002507574
101	0x3b511e38	0.003190888
102	0x3bb77119	0.005598199
103	0x3c2fcbc4	0.010729734
104	0x3bed6fae	0.0072459793
105	0x3be9e657	0.0071380544
106	0x3c02d25c	0.007984724
107	0x3c14aee7	0.009074903
108	0xbafb32d8	-0.0019164933
109	0xbb1c7111	-0.0023871104
110	0xb8ab472a	-8.167171e-05
111	0x3b98cce7	0.004663098
112	0xb97e352c	-0.00024243136
113	0x3ba9952e	0.0051752543
114	0x3b2f88c1	0.0026784393
115	0x3a975b7c	0.001154765
116	0x3a161fe4	0.0005726798
117	0x3c7f4b06	0.015581852
118	0x3c8df385	0.017328033
119	0x3cb29157	0.021797819
120	0x3c433fbc	0.011917051
121	0x3c74693b	0.014917667
122	0x3c8f8445	0.017519126
123	0x3c7ee616	0.015557786
124	0x3c914426	0.017732691
125	0x3c6c801e	0.014434842
126	0xbadf72bc	-0.0017047743
127	0xbb03de52	-0.0020121527
128	0xbac6ea4c	-0.0015176027
129	0xbba1eaa3	-0.004941301
130	0x3b9d4f10	0.0048006848
131	0xbb40cfd3	-0.0029420748
132	0xbb840d66	-0.0040299175
133	0xbb128068	-0.0022354368
134	0x3ad98991	0.0016596784
135	0x3b123308	0.002230825
136	0xbba0c6a4	-0.0049064923
137	0x3b7f7ed3	0.0038985505
138	0x3aa5818a	0.0012627107
139	0x3bb618e0	0.0055571645
140	0x3a7d5b41	0.0009664782
141	0x39106f10	0.00013774284
142	0x3a8470d5	0.0010104427
143	0x3b021650	0.0019849725
144	0xbbd95859	-0.0066328463
145	0xbbe7b409	-0.0070710224
146	0xbbc87ea8	-0.006118614
147	0xbb5a2f70	-0.0033292435
148	0x3a24f494	0.00062925485
149	0x39ec148d	0.0004502874
150	0x3c3145c2	0.010819854
151	0x3c3e9dee	0.011634333
152	0x3b8b7a6d	0.0042565376
153	0x39739745	0.00023230638
154	0x3b88b124	0.0041715074
155	0xb9825c1e	-0.00024864165
156	0xbaaedce2	-0.0013340975
157	0x3b8ce68c	0.0042999443
158	0x3aa85b7f	0.0012844651
159	0x3b3110a5	0.0027017978
160	0x3b898a23	0.0041973754
161	0x3a7da384	0.000967555
162	0xbbc93ee8	-0.006141532
163	0x3c08089d	0.008302835
164	0x3b8a7c41	0.004226238
165	0x3b92dfc9	0.0044822437
166	0x3c9f4d0a	0.019445915
167	0x3c6d082c	0.01446728
168	0x3b9a1741	0.004702479
169	0xb99875f1	-0.00029079572
170	0x3c241e52	0.010016995
171	0x3abd87a3	0.0014459979
172	0x3b2b5f05	0.0026149165
173	0x3b198bb6	0.0023429221
174	0x3b70d49e	0.0036747823
175	0x3b41fe50	0.0029601045
176	0x3b9b3785	0.004736843
177	0x3b63d927	0.0034766884
178	0x3b0bd17d	0.0021334582
179	0x3b40c0d9	0.002941182
180	0xbb8ec178	-0.0043565594
181	0xbbd3b06f	-0.0064602415
182	0xbb3b89c0	-0.002861604
183	0xbb4a48b8	-0.0030866098
184	0xbb72921f	-0.0037013364
185	0xba9a9e84	-0.0011796509
186	0xbaf8b0b3	-0.0018973559
187	0xbb888113	-0.0041657775
188	0xbb799079	-0.0038080497
189	0xbbd5aa9c	-0.0065205824
190	0xbbc1c209	-0.0059130234
191	0xbbc4db3a	-0.006007579
192	0xbb88c1f5	-0.004173512
193	0xbb88a634	-0.0041702036
194	0xbbe0d9ce	-0.006861902
195	0xbb6fec33	-0.0036609292
196	0xbbf74188	-0.0075456537
197	0xbbf79ff2	-0.0075569088
198	0xbc281050	-0.010257795
199	0xbc782ab0	-0.015146896
200	0xbc9f4904	-0.019443996
201	0xbc7e10f8	-0.015506975
202	0xbc7ff57d	-0.015622494
203	0xbce243b7	-0.02762018
204	0xbc87c144	-0.016571648
205	0xbc949b7b	-0.018140545
206	0xbcce58cb	-0.025188824
207	0xbc053221	-0.008129627
208	0xbbd2d23b	-0.006433753
209	0xbbb91b82	-0.005649031
210	0xbbee4fa5	-0.007272678
211	0xbb951101	-0.004549146
212	0xbbb86538	-0.0056273006
213	0xbb8cb0c5	-0.0042935335
214	0xbb832a28	-0.004002828
215	0xbba8f29a	-0.0051558735
216	0xbc808852	-0.015690003
217	0xbc5469bd	-0.012964663
218	0xbc1a89a5	-0.009432231
219	0xbc111753	-0.008855659
220	0xbbf1abd0	-0.007375218
221	0xbbfb8a46	-0.0076763956
222	0xbc25c25c	-0.01011714
223	0xbc305176	-0.010761609
224	0xbbe09c44	-0.006854566
225	0xbc24eec1	-0.010066689
226	0xbc649fa8	-0.013954081
227	0xbc3ebee9	-0.011642196
228	0xbbfbeb1d	-0.00768794
229	0xbc11bbae	-0.008894844
230	0xbc18ba8f	-0.009321823
231	0xb9558421	-0.00020362485
232	0xbc003809	-0.00782586
233	0xbc5fef67	-0.013667918
234	0xbae8ca13	-0.0017760418
235	0xbb02b258	-0.0019942727
236	0xbbdaea2b	-0.006680747
237	0xbb881481	-0.004152835
238	0xbb875e87	-0.0041311416
239	0xbbbdd3b1	-0.005793058
240	0xbb7de2f1	-0.0038740004
241	0xbc30984e	-0.0107785
242	0xbc1fcef5	-0.009753932
243	0xbbad6a44	-0.005292209
244	0xbb8d2d64	-0.0043083895
245	0xb9132991	-0.00014034497
246	0xbba65315	-0.005075822
247	0x3a0ea97f	0.0005442127
248	0xbb4d9e6a	-0.003137494
249	0xbb9f7641	-0.004866392
250	0xbb8e800a	-0.0043487595
251	0xba5827c8	-0.0008245674
252	0xbc5feaa8	-0.013666786
253	0xbc80e59d	-0.015734488
254	0xbc98434b	-0.018586775
255	0xbc2e5c8b	-0.010642181
