models/our_model.pth (torch, 329942 bytes, 36 tensors)

conv1.weight f4 [15, 3, 3, 3]
0	0xbe7a25ff	-0.24428557
1	0xbd1923e7	-0.037387755
2	0x3eb99b6d	0.36251393
3	0xbe914af3	-0.28377494
4	0xbe99080e	-0.29888958
5	0x3e410410	0.18849206
6	0xbdf12eff	-0.11776542
7	0x3d187f28	0.03723064
8	0x3e42de78	0.19030178
9	0xbe315175	-0.1731623
10	0xbe2e0ae7	-0.16996346
11	0x3e76c8cc	0.24100035
12	0x3dfa6e91	0.1222812
13	0xbda0a21b	-0.07843419
14	0x3e470b72	0.1943796
15	0xbc510af4	-0.012758959
16	0xbdf0b63c	-0.117535084
17	0x3cbd623b	0.023118129
18	0x3c2c1c20	0.010504752
19	0xbe653327	-0.22382794
20	0x3eaa9ea0	0.33324146
21	0xbddeb9b8	-0.10875267
22	0xbe269a29	-0.16269745
23	0x3e5b9536	0.21443638
24	0x3e64f495	0.22358926
25	0xbe003bd6	-0.12522826
26	0xbc05c934	-0.008165646
27	0xbc848053	-0.016174471
28	0xbe05473c	-0.13015455
29	0xbe548ff0	-0.20758033
30	0xbe722488	-0.23646748
31	0xbe174e25	-0.14775904
32	0x3d0165c3	0.03159119
33	0x3e2b6ec4	0.16741472
34	0x3e69daa4	0.22837311
35	0xbd4b4180	-0.049623013
36	0xbda7e5e5	-0.08198146
37	0xbe14d644	-0.14534861
38	0xbb4b98ae	-0.0031066346
39	0xbe2b3e60	-0.16723013
40	0x3e15115b	0.14557402
41	0xbe3c10a0	-0.18365717
42	0x3df48199	0.11938781
43	0xbca35244	-0.019936688
44	0x3dc5b26b	0.09653171
45	0x3de99542	0.11405422
46	0x3e201d40	0.15636158
47	0xbdef9296	-0.11697881
48	0xbd987a1c	-0.074451655
49	0x3e4e37f4	0.20138532
50	0x3e079f1a	0.13244286
51	0x3dfa766b	0.12229618
52	0xbb8d6288	-0.0043147244
53	0x3e7379aa	0.2377688
54	0x3dec85ef	0.11548983
55	0xbcfc73f6	-0.030817013
56	0xbe290920	-0.16507387
57	0xbcec6148	-0.028854981
58	0xbe934236	-0.28761452
59	0xbd6821f3	-0.056673
60	0xbe3d97e9	-0.1851498
61	0xbdb4f172	-0.088351145
62	0xbd3d8f5b	-0.046279293
63	0x3db8a87c	0.09016511
64	0xbdbeb713	-0.093122624
65	0xbdf21bd8	-0.11821717
66	0xbce043a7	-0.02737601
67	0x3cdb84b4	0.026796676
68	0x3e4d7f92	0.20068195
69	0x3e8244b5	0.25443044
70	0x3e0910f1	0.13385369
71	0xbc2c5688	-0.0105186775
72	0xbe247dee	-0.16063663
73	0xbdcf5990	-0.101245046
74	0xbe0aa48e	-0.13539335
75	0xbd73eb15	-0.059550364
76	0xbe219ee8	-0.15783274
77	0xbe13ade1	-0.14421798
78	0xbe63c268	-0.22242129
79	0x3a5b4cce	0.0008365632
80	0x3e5155dc	0.20442909
81	0xbc457f5b	-0.01205429
82	0xbdce81c5	-0.10083345
83	0x3e691d7f	0.22765158
84	0xbcd88ad6	-0.02643339
85	0x3e585f9e	0.21130225
86	0x3df4411b	0.119264804
87	0x3e3fdd2b	0.18736713
88	0xbcdde161	-0.027085008
89	0x3e1fdbe9	0.15611233
90	0x3e27e5a5	0.16396196
91	0x3dfb9d94	0.12285915
92	0xbe35fa1f	-0.17771195
93	0x3da85e04	0.08221057
94	0x3dca5b33	0.09880676
95	0xbe47e532	-0.19521025
96	0x3d2130cd	0.03935318
97	0xbb719141	-0.003686026
98	0xbd926e71	-0.07149971
99	0xbb9333a6	-0.004492241
100	0x3d102b0e	0.03519731
101	0xbe5722ac	-0.2100932
102	0xbdae7c5d	-0.08519814
103	0xbe4454cf	-0.19172977
104	0xbdf6df40	-0.120543
105	0xbe42b67b	-0.19014923
106	0xbe174fe4	-0.1477657
107	0x3e0de62f	0.1385734
108	0x3e3cdca9	0.1844355
109	0x3e469cf0	0.19395804
110	0x3e0ea958	0.13931787
111	0xbe654f56	-0.22393546
112	0xbe28dae3	-0.16489749
113	0x3cbe56cd	0.02323475
114	0xbe8a15fb	-0.26969895
115	0x3cf6dd58	0.030134842
116	0x3d41d5b2	0.047322936
117	0x3d5cc771	0.05390114
118	0x3d69e017	0.057098474
119	0xbe28b724	-0.16476113
120	0xbd87a76e	-0.066237316
121	0x3cd3e154	0.02586428
122	0x3d9f2322	0.07770373
123	0xbd2e0162	-0.042481788
124	0x3d95853d	0.07300804
125	0xbe006ee2	-0.12542298
126	0x3e050ee3	0.1299396
127	0x3cbfd8b1	0.023418756
128	0xbe70fa25	-0.23532923
129	0x3d9c5983	0.076342605
130	0x3e37365e	0.17891833
131	0x3e7268f4	0.23672849
132	0x3bc1c278	0.005913075
133	0xbddf699c	-0.10908815
134	0xbdc3a67d	-0.095532395
135	0x3e9b36f4	0.30315363
136	0xbe3720cc	-0.17883605
137	0xbe56dff0	-0.20983863
138	0x3e5afbd9	0.21385135
139	0xbdfd1a38	-0.123585165
140	0x3d31ddf7	0.043424573
141	0x3ce7958b	0.02826955
142	0xbdf299e8	-0.118457615
143	0x3d84a8cb	0.06477507
144	0x3e913674	0.28361857
145	0xbd10261b	-0.03519259
146	0xbdba9374	-0.09110156
147	0xbb5a8013	-0.0033340498
148	0xbe8ffece	-0.28124088
149	0x3d3246ad	0.043524433
150	0xbdbd5142	-0.09244014
151	0xbe746d67	-0.23869859
152	0x3e4c09a7	0.19925557
153	0x3e400056	0.18750128
154	0xbd516a47	-0.051126745
155	0xbe3b0019	-0.18261756
156	0x3974e609	0.00023355348
157	0x3d28b0bd	0.041184176
158	0xbd3829bb	-0.044961672
159	0x3d8f409a	0.06994744
160	0xbd73b881	-0.05950213
161	0x3e762936	0.24039158
162	0xbe9df8a7	-0.3085377
163	0xbc648861	-0.013948531
164	0xbe238625	-0.15969141
165	0x3e1b90e2	0.15191987
166	0x3dff726b	0.12472995
167	0x3e69bd02	0.22826007
168	0x3d54e3c6	0.051975034
169	0x3e7ce7d6	0.24697813
170	0x3e51107a	0.20416442
171	0xbe271b6a	-0.16319051
172	0x3d51c850	0.051216424
173	0x3c8bf6b3	0.017085409
174	0xbe6ecd5d	-0.23320527
175	0x3d8fa22c	0.07013354
176	0x3d248de7	0.04017439
177	0x3dc9c20a	0.09851463
178	0x3dab8ae4	0.08376101
179	0xbc19d31c	-0.009388711
180	0xbe825926	-0.2545864
181	0xbc996819	-0.018726395
182	0xbd91a4e9	-0.07111532
183	0xbc8b1d5b	-0.016981771
184	0x3e308771	0.17239167
185	0x3e34c6c6	0.17653951
186	0x3ce12134	0.027481653
187	0x3d06608b	0.032806914
188	0xbd2f57e6	-0.042808436
189	0x3e5babed	0.21452303
190	0x3e04bd5e	0.12962863
191	0x3ce0201e	0.027359065
192	0x3e6fb418	0.23408544
193	0x3dff74fa	0.124734834
194	0x3e7ec15e	0.24878451
195	0xbe2fae63	-0.17156367
196	0xbcd3091b	-0.025761178
197	0x3e65d35b	0.22443907
198	0x3dbf6a7a	0.09346481
199	0xbd49ce51	-0.049269024
200	0xbe2673f9	-0.16255178
201	0xbe0d0916	-0.13772997
202	0x3cbabb65	0.022794435
203	0x3b7d98d1	0.0038695822
204	0xbe713463	-0.2355514
205	0x3d16d18a	0.036820926
206	0x3dd123d4	0.10211912
207	0x3de95bd4	0.11394468
208	0xbd24b1d6	-0.04020866
209	0xbe6a4be6	-0.22880515
210	0xbd8882e5	-0.06665591
211	0x3d49ff6f	0.049315866
212	0xbd2e2684	-0.0425172
213	0x3df1bc62	0.11803509
214	0xbdbff5ea	-0.09373076
215	0xbc4227ca	-0.011850307
216	0xbe5331bf	-0.20624445
217	0xbdc19c71	-0.09453667
218	0xbe0f0359	-0.13966121
219	0xbe634421	-0.22193958
220	0xbc5245c6	-0.012834018
221	0xbd729c42	-0.05923105
222	0xbe4901de	-0.19629619
223	0xbe8de6b7	-0.27715084
224	0x3d089659	0.033346508
225	0x3dd30c42	0.10305072
226	0x3d1bdfb7	0.038055148
227	0x3e05a3ad	0.13050719
228	0x3d860f54	0.06545892
229	0x3ded6b72	0.11592759
230	0x3d80563c	0.06266448
231	0x3e5ce378	0.21571147
232	0xbdcb1029	-0.09915192
233	0xbe0191f5	-0.12653334
234	0xbda8b48b	-0.08237561
235	0x3de31981	0.11088849
236	0x3ccd6b5f	0.025075613
237	0x3e565f52	0.209348
238	0x3de3b657	0.11118763
239	0x3c9eaae7	0.019368602
240	0x3df98a7a	0.121846154
241	0x3e045fd7	0.12927185
242	0x3ce3afd0	0.027793795
243	0x3ddf11bf	0.10892057
244	0xbd457b7d	-0.04821347
245	0xbea30774	-0.31841624
246	0x3e134655	0.14382298
247	0x3e22ead5	0.15909894
248	0xbe1c66b1	-0.15273549
249	0x3d8358a2	0.0641339
250	0xbb47c7b5	-0.0030484025
251	0x3d8f19a9	0.06987316
252	0xbe2be03f	-0.16784762
253	0xbd863d6e	-0.065546855
254	0xbe4d31d3	-0.20038538
255	0x3e3f6474	0.18690664

conv1.bias f4 [15]
0	0x3d0186a1	0.031622533
1	0xbe030452	-0.12794617
2	0x3d82b469	0.06382067
3	0x3d879636	0.06620447
4	0xbe721877	-0.23642145
5	0x3c9dd942	0.019268636
6	0x3df0705b	0.1174018
7	0xbe50d49b	-0.20393603
8	0x3e263ca5	0.16234072
9	0xbb913f8a	-0.0044326233
10	0x3e739265	0.23786314
11	0xbe9ea80e	-0.3098759
12	0xbe4d0da8	-0.2002474
13	0xbdfef9f9	-0.12450022
14	0xbe3a292d	-0.1817977

conv2.weight f4 [15, 15, 3, 3]
0	0x3e813121	0.25232795
1	0xbb08a47a	-0.0020849989
2	0x3e8b4a3f	0.27205083
3	0x3dfc99a7	0.12333994
4	0xbc97be85	-0.018523464
5	0x3d83806c	0.06420979
6	0xbe0d31af	-0.13788484
7	0xbdaa3ef7	-0.08312791
8	0xbe5c837c	-0.21534532
9	0xbe33a481	-0.17543222
10	0xbdecf9a0	-0.1157105
11	0x3ca0f076	0.01964591
12	0xbdd0aa48	-0.101887286
13	0x3e3e916a	0.18610159
14	0x3e3382b0	0.17530322
15	0x3dcd015c	0.10010025
16	0x3c0886c3	0.008332911
17	0xbccd4e4e	-0.025061753
18	0x3d355617	0.044271555
19	0x3d50be0d	0.050962497
20	0x3e134034	0.1437996
21	0xbc4c71da	-0.012478316
22	0xbb8beb53	-0.004269996
23	0xbd709257	-0.05873331
24	0xbdd566ea	-0.1042002
25	0xbc19674f	-0.00936301
26	0xbd49d4b7	-0.049275126
27	0xbde479f9	-0.11156077
28	0x3c709669	0.014684298
29	0xbd10028d	-0.035158683
30	0x3cf3dead	0.029769266
31	0xbdce1330	-0.100622535
32	0xbe046fb3	-0.12933235
33	0x3e24290b	0.16031282
34	0xbd629b3f	-0.055323835
35	0xbd3daab8	-0.04630539
36	0xbd1115da	-0.03542123
37	0xbdad08c0	-0.084489346
38	0xbd368e08	-0.044569045
39	0xbd9f8832	-0.07789649
40	0xbe386f94	-0.18011314
41	0xbe68ce84	-0.2273503
42	0xbd1b1783	-0.03786422
43	0xbd80c409	-0.06287391
44	0xbd2b3d92	-0.041806765
45	0x3dacf53d	0.08445213
46	0x3dfc8b48	0.12331253
47	0x3e7752ed	0.24152727
48	0x3d4976e9	0.049185667
49	0xbc35e113	-0.011101025
50	0x3e3c161a	0.18367806
51	0x3e05d550	0.13069654
52	0xbdad6515	-0.084665455
53	0xbe26a84b	-0.16275136
54	0xbdd23cd5	-0.10265509
55	0x3d3ec7a7	0.046577122
56	0x3cb3e7e4	0.02196116
57	0xbd681949	-0.05666474
58	0xbc367e85	-0.011138563
59	0x3e100a73	0.14066486
60	0xbcbf8710	-0.023379833
61	0x3df2004f	0.11816465
62	0x3da9a181	0.082827576
63	0xbc7a87d2	-0.015291171
64	0xbe49aaae	-0.19694015
65	0xbe05015b	-0.12988798
66	0xbe0010e6	-0.12506446
67	0xbe02ccfc	-0.12773508
68	0xbda9ba1b	-0.0828745
69	0x3d693696	0.056936823
70	0x3d8b51c8	0.06802708
71	0x3d9f4769	0.07777292
72	0xbdefc771	-0.11707962
73	0xbdf69051	-0.12039245
74	0xbcc5a8ab	-0.024128279
75	0xbdc9682b	-0.098343216
76	0xbc5b5eb0	-0.0133892745
77	0xbb8a3c9b	-0.0042186505
78	0x3df2228d	0.11822996
79	0x3dde8847	0.108658366
80	0x3db6b943	0.089220546
81	0xbdc44284	-0.09582999
82	0x3d62910f	0.05531412
83	0xbbedfc47	-0.00726274
84	0x3d3df3f6	0.046375237
85	0x3df375a5	0.11887673
86	0x3e2e9f0f	0.17052864
87	0x3cd328f1	0.025776358
88	0x3d128560	0.035771728
89	0xbd303280	-0.04301691
90	0xbe23f760	-0.16012335
91	0xbda41435	-0.08011667
92	0xbdaf443f	-0.08557939
93	0xbb959914	-0.0045653675
94	0xbca61ba2	-0.020276848
95	0x3d8eed67	0.06978875
96	0x3d9b82dc	0.07593319
97	0x3e08e2b4	0.1336773
98	0xbbfe2b14	-0.0077566
99	0x3d8c998d	0.06865225
100	0x3ccef9b6	0.025265556
101	0x3d8c88f7	0.068620615
102	0x3cedd662	0.02903289
103	0xbe31bec8	-0.17357934
104	0xbdc9b37b	-0.09848686
105	0x3d8407fd	0.06446836
106	0xbd9551b4	-0.07290974
107	0xbd391e10	-0.045194685
108	0xbdc3cd6b	-0.09560665
109	0xbd9bfd5f	-0.07616686
110	0xbd06995e	-0.032861106
111	0xbd10dd3e	-0.035367243
112	0x3d452ea4	0.048140183
113	0x3d153d3a	0.036435343
114	0xbc127fa8	-0.008941568
115	0xbcf073b3	-0.029352045
116	0xbb173de4	-0.0023077661
117	0xbd0ffc94	-0.035152987
118	0x3b6b5950	0.0035911389
119	0x3d81cb51	0.06337608
120	0xbd127362	-0.03575457
121	0x3bd0e0cc	0.006374454
122	0xbd2c07c5	-0.041999597
123	0x3d80f9ee	0.0629767
124	0x3daaff9d	0.083495356
125	0xbdcb6d50	-0.09932959
126	0xbd60c420	-0.05487454
127	0xbdc458a6	-0.09587221
128	0xbcd4a241	-0.025956275
129	0xbdc61475	-0.096718706
130	0xbda7d486	-0.081948325
131	0x3d3150e4	0.043290034
132	0xbd697faf	-0.057006534
133	0xbd1e5769	-0.03865758
134	0x3d324039	0.04351828
135	0x3e31723d	0.17328735
136	0x3dd6a3a1	0.104804285
137	0x3e69ba5b	0.22824995
138	0x3c915625	0.017741272
139	0x3e728c66	0.2368637
140	0x3e39001a	0.18066445
141	0x3d1196a6	0.03554406
142	0xbd8f9e9e	-0.07012676
143	0x3d2283b0	0.03967637
144	0xbcdab0d3	-0.026695644
145	0x3d9c2790	0.076247334
146	0x3d827ce6	0.06371479
147	0xbdcabc05	-0.09899143
148	0xbc5dcc25	-0.013537441
149	0xbc6af18a	-0.014339814
150	0xbc837c38	-0.016050443
151	0x3c4d2189	0.012520202
152	0xbca657fd	-0.020305628
153	0x3db82f6d	0.08993421
154	0x3d3cb658	0.046072334
155	0xbdb6d3d6	-0.08927123
156	0x3dfb4796	0.12269513
157	0x3d788d79	0.060681794
158	0x3d26b81e	0.04070293
159	0x3dc59911	0.09648336
160	0xbc99e521	-0.018786015
161	0xbdb7b33f	-0.08969735
162	0x3d15d0ca	0.03657607
163	0x3d236db8	0.039899558
164	0xbdc8faa0	-0.09813428
165	0xbd511800	-0.05104828
166	0xbd83d29b	-0.06436654
167	0x3c6994ff	0.014256715
168	0x3d82d6bb	0.06388613
169	0xbc91b69e	-0.017787274
170	0xbda64b98	-0.08119887
171	0xbdb32b72	-0.08748521
172	0xbe038d2b	-0.1284682
173	0xbdd36095	-0.10321156
174	0xbd758dbc	-0.05994962
175	0xbe0dc349	-0.13844027
176	0x3d073cf4	0.033017114
177	0xbe110afc	-0.14164346
178	0xbc0f14d0	-0.008732989
179	0xbd8b3074	-0.06796351
180	0x3db4d5b0	0.0882982
181	0x3e854ddf	0.26035973
182	0x3eaaf6d9	0.33391455
183	0x3dac2015	0.08404557
184	0x3e48967b	0.19588654
185	0x3ecaa42c	0.39578378
186	0x3e0ce1b0	0.13757968
187	0xbd23391a	-0.03984938
188	0x3c2df5f6	0.010617724
189	0xbce27f1a	-0.027648497
190	0x3bf0450a	0.007332449
191	0xbd1f4a7f	-0.038889404
192	0xbdf04fc7	-0.11733966
193	0x3d09e781	0.033668045
194	0x3db5db40	0.08879709
195	0x3d5c8582	0.05383826
196	0x3d742d70	0.059613645
197	0x3ca60492	0.020265851
198	0x3d7d2e48	0.061811715
199	0xbdb54ad9	-0.08852167
200	0xbd7f8b65	-0.062388796
201	0xbd49e9c9	-0.04929522
202	0xbe167914	-0.14694625
203	0xbc44ecc2	-0.012019338
204	0xbd9424da	-0.072335914
205	0x3c18c42a	0.009324113
206	0x3ceb1c4f	0.028700022
207	0x3c89afe5	0.016807506
208	0x3ccd0dd4	0.025031008
209	0x3d1e1070	0.038589895
210	0xbe19de1e	-0.15026137
211	0xbdb9b2bf	-0.09067296
212	0x3d7dce42	0.06196428
213	0xbd8cd77f	-0.0687704
214	0xbe0afe9c	-0.13573688
215	0xbcd7055e	-0.026247676
216	0x3d8fe199	0.07025451
217	0x3d32135b	0.04347549
218	0x3dfcf37d	0.12351129
219	0x3d44f54c	0.048085496
220	0x3dd45a41	0.10368777
221	0xbd290b88	-0.041270763
222	0xbd22c209	-0.039735828
223	0xbb6dc200	-0.0036278963
224	0xbd1bc652	-0.03803093
225	0xbe05aa11	-0.13053156
226	0xbd05e557	-0.03268942
227	0xbceefd5f	-0.029173551
228	0xbe3121de	-0.17298076
229	0xbd3283ce	-0.04358273
230	0xbd240956	-0.040047966
231	0x3c1cc413	0.009568232
232	0xbd399f69	-0.04531804
233	0xbca4692e	-0.020069685
234	0x3d38128b	0.04493956
235	0xbd646a86	-0.05576565
236	0xbdb7dba4	-0.0897744
237	0x3c18ed72	0.009333955
238	0x3d7b06b1	0.06128568
239	0xbd35cb21	-0.044383172
240	0x3d40ccc7	0.04707029
241	0xbca668b7	-0.020313604
242	0x3d49c9a6	0.049264573
243	0x3caeb158	0.021324798
244	0xbe26a8bc	-0.16275305
245	0xbcd04aa3	-0.025426215
246	0x3d0b5daa	0.034024872
247	0xbcf8ec13	-0.030386006
248	0xbdd1ae70	-0.102383494
249	0xbdac0721	-0.08399797
250	0x3e0aaf09	0.13543333
251	0x3c9dd679	0.019267308
252	0xbd6c5a9c	-0.0577036
253	0x3c0234d1	0.007947163
254	0xbd9767b3	-0.07392826
255	0xbd219df9	-0.039457295

conv2.bias f4 [15]
0	0xbe24f83e	-0.16110322
1	0xbdc01d50	-0.09380591
2	0x3bb57e54	0.005538741
3	0x3da57e5e	0.08080743
4	0x3d32ffdc	0.043701038
5	0xbdc2cffc	-0.09512326
6	0x3e805093	0.25061473
7	0xbd8daade	-0.06917356
8	0x3c50ca7e	0.01274359
9	0x3ca41e21	0.020033898
10	0x3d8f1cd6	0.06987922
11	0xbe3beba9	-0.18351616
12	0x3d19f9e4	0.03759183
13	0xbdfdc6ab	-0.123914085
14	0xbdcd12e1	-0.100133665

conv3.weight f4 [30, 15, 3, 3]
0	0x3d15e71c	0.036597356
1	0xbb996c6d	-0.004682115
2	0xbd63c182	-0.055604465
3	0x3de5a19a	0.11212464
4	0x3c3ee636	0.011651566
5	0xbc8fc4be	-0.017549869
6	0x3d278fb2	0.040908523
7	0x3d91da9c	0.071217746
8	0x3dcb74fe	0.09934424
9	0xbc88293d	-0.016621226
10	0x3ccdf6c1	0.025142075
11	0x3dda2e9e	0.10653423
12	0x3d27ac17	0.040935602
13	0x3daf4ed7	0.085599594
14	0xbc9b2698	-0.018939301
15	0xbdeecad4	-0.1165978
16	0x3d8477c9	0.0646816
17	0x3d36a841	0.044594053
18	0x3da0ab7c	0.07845208
19	0x3d136711	0.035986964
20	0xbda3f9f5	-0.0800666
21	0x3e03cbae	0.12870666
22	0x3d2dd7a6	0.042441987
23	0x3e0a6e2e	0.13518593
24	0x3e00cef7	0.12578951
25	0x3c9c4c93	0.019079482
26	0x3db89097	0.09011953
27	0xbc28177b	-0.010259504
28	0x3d5d5b5d	0.05404221
29	0x3c4da425	0.012551342
30	0xbdce36cf	-0.10069048
31	0xbc3059bc	-0.010763582
32	0x3c40f691	0.011777536
33	0xbe00b846	-0.12570295
34	0xbd3c4bc1	-0.045970682
35	0xbdcd8b2d	-0.10036311
36	0x3d81571e	0.063154444
37	0xbd1dac25	-0.038494248
38	0x3c40666b	0.011743168
39	0xbd9a08d3	-0.07521214
40	0xbe18922c	-0.1489951
41	0x3cb0c940	0.021580338
42	0x3d4fea69	0.05076066
43	0xbcccebd5	-0.025014797
44	0xbd86e7a5	-0.065871514
45	0xbc1ba5a1	-0.009499938
46	0xbd6d129f	-0.057879087
47	0xbc2807f2	-0.010255801
48	0x3d715a46	0.058923982
49	0x3c02d60d	0.007985604
50	0x3dba9abc	0.091115445
51	0xbdf103ee	-0.11768328
52	0x3d8f5869	0.06999285
53	0xbd87c5b2	-0.06629504
54	0x3d6295de	0.055318706
55	0x3c75dfe2	0.015006991
56	0x3df11961	0.11772419
57	0x3cc5a076	0.024124365
58	0x3c4c69ff	0.012476443
59	0x3d089a7f	0.033350464
60	0xbda5adfc	-0.080898255
61	0xbd71d92b	-0.059045
62	0xbda86eef	-0.08224284
63	0x3da40d99	0.08010406
64	0x3dd2cbe4	0.10292795
65	0x3d51d733	0.05123062
66	0xbc600cce	-0.013674928
67	0xbd0f13d6	-0.034931026
68	0x3da28995	0.07936398
69	0xbd7dbd37	-0.061948027
70	0xbdf50a7a	-0.11964889
71	0xbe3188f9	-0.17337407
72	0x3d638ad5	0.055552322
73	0xbe178b83	-0.14799313
74	0xbe4698f2	-0.19394282
75	0x3dc2c7ce	0.09510766
76	0xbd572a53	-0.052530598
77	0xbd8df29a	-0.06931038
78	0x3e17e6b3	0.14834099
79	0x3d78a979	0.060708497
80	0xbc02b2b9	-0.007977181
81	0xbe83f8b8	-0.25775695
82	0xbe226371	-0.15858246
83	0xbdc6d874	-0.09709254
84	0xbc9c2d0a	-0.019064445
85	0x3dec2817	0.11531084
86	0x3d2f108b	0.042740386
87	0xbd97f0a1	-0.07418943
88	0x3bd61cf3	0.0065342127
89	0x3d58bccd	0.05291443
90	0x3caf3280	0.021386385
91	0x3d0c707a	0.034286954
92	0x3bc8245b	0.0061078495
93	0x3d4dadcd	0.050214577
94	0x3dd2be1d	0.102901675
95	0x3d8dfb6f	0.06932723
96	0x3d2415e1	0.040059928
97	0xbc99676d	-0.018726075
98	0xbe09f2f9	-0.13471593
99	0x3dc7917c	0.09744546
100	0xbc209a18	-0.009802364
101	0xbd0e4adb	-0.034739356
102	0x3da68e16	0.081325695
103	0x3db77131	0.089571364
104	0xbda09d92	-0.07842554
105	0xbe863ac8	-0.26216722
106	0xbec4ef90	-0.38464022
107	0xbe93ecd1	-0.28891614
108	0xbd750dae	-0.0598275
109	0xbd86ee6e	-0.065884456
110	0xbd4749f3	-0.048654508
111	0xbdd903c4	-0.10596421
112	0x3d23adeb	0.039960783
113	0xbcd27ab5	-0.025693277
114	0x3c7fe6a9	0.0156189585
115	0xbe10f8d7	-0.14157425
116	0xbe08165f	-0.13289784
117	0x3cd5182a	0.026012499
118	0xbcf26c3a	-0.029592622
119	0x3d4d8088	0.050171405
120	0xbcb38c49	-0.02191748
121	0x3d7dd164	0.06196727
122	0xbd8ca364	-0.06867102
123	0x3c952d9e	0.018210229
124	0xbd850468	-0.06494981
125	0xbbaff21c	-0.005369438
126	0xbdc3b935	-0.0955681
127	0xbdd093ad	-0.10184417
128	0x3d9f83d9	0.0778882
129	0x3e491607	0.19637309
130	0xbd24e092	-0.04025323
131	0x3d8169c3	0.063190006
132	0x3d9d330c	0.07675752
133	0x3c85e3de	0.016344007
134	0xbc9e9223	-0.019356793
135	0xbe3c25ab	-0.18373744
136	0xbd530983	-0.051522743
137	0x3cbda015	0.023147622
138	0x3c857e8f	0.0162957
139	0x3d490cf7	0.04908463
140	0xbe226f01	-0.15862657
141	0x3ddc5509	0.10758407
142	0x3e01f5c3	0.12691407
143	0xbcd6481b	-0.02615743
144	0xbdbd8cb2	-0.09255351
145	0x3da1b6d5	0.078962006
146	0x3cb4da11	0.022076638
147	0xbe306492	-0.17225865
148	0xbd896cb8	-0.067101896
149	0xbcc17991	-0.023617538
150	0xbd472ea1	-0.048628453
151	0xbe092d56	-0.133962
152	0x3b90d5f1	0.004420035
153	0x3d193c3e	0.037410967
154	0x3dae899e	0.08522342
155	0xbca38436	-0.019960504
156	0x3dadd644	0.084881335
157	0x3db04d9f	0.08608555
158	0xbda027d5	-0.07820097
159	0xbe0ebbac	-0.13938779
160	0xbde9efcf	-0.11422693
161	0xbdb2fb96	-0.087393925
162	0xbd947004	-0.07247928
163	0x3d084e6a	0.033277906
164	0xbdee6cb4	-0.11641827
165	0x3cb45c69	0.02201672
166	0x3d87a2a3	0.06622817
167	0xbcda6c32	-0.02666292
168	0x3dbc9ba3	0.09209373
169	0x3db319bb	0.08745142
170	0xbd8abd9f	-0.067744486
171	0xbc82caba	-0.015965808
172	0xbdda8a26	-0.10670881
173	0xbe094a8b	-0.13407342
174	0xbd90b581	-0.07065869
175	0xbcd56809	-0.026050584
176	0x3caa5852	0.020794068
177	0x3d454fc6	0.04817178
178	0xbdbafd4d	-0.091303445
179	0x3c572a64	0.013132665
180	0xbcced704	-0.025249012
181	0x3da0a055	0.07843081
182	0x3e0295c2	0.1275244
183	0x3d6de4ee	0.058079652
184	0xbb71bd21	-0.0036886411
185	0x3d87ddd5	0.06634108
186	0xbde72db3	-0.11288013
187	0x3e1dd9e7	0.15415154
188	0xbde56626	-0.11201124
189	0x3d942dc7	0.07235294
190	0x3d4656f5	0.048422772
191	0x3e16f5dc	0.14742225
192	0xbd13ec86	-0.03611424
193	0x3d715afa	0.058924653
194	0xbd27b2c1	-0.040941957
195	0xbe1acba0	-0.1511674
196	0xbc732eb2	-0.014842676
197	0x3c688445	0.014191692
198	0xbe2fec26	-0.17179927
199	0xbd96af79	-0.073576875
200	0x3ca3747f	0.01995301
201	0xbdec6fcd	-0.11544762
202	0x3d92f160	0.07174945
203	0x3de59399	0.11209793
204	0x3da94cb4	0.08266583
205	0x3e1e951f	0.15486573
206	0x3df5a0a1	0.11993528
207	0xbc6514d6	-0.013982018
208	0xbd99d402	-0.075111404
209	0x3d2573ad	0.04039352
210	0xbde4eb58	-0.11177701
211	0xbe320c72	-0.1738756
212	0xbda61711	-0.08109868
213	0xbda73858	-0.081650436
214	0xbe24f5ed	-0.16109438
215	0xbd683b77	-0.056697335
216	0x3d393c23	0.045223366
217	0x3de2217f	0.11041545
218	0xbdaf11a2	-0.08548285
219	0x3b1f52bb	0.0024310786
220	0x3d6db7f8	0.058036774
221	0x3d6f6b87	0.058452155
222	0x3c079ab6	0.008276632
223	0xbc8be294	-0.017075814
224	0xbcfe3d87	-0.031035198
225	0xbd979650	-0.07401717
226	0x3d9ee3f5	0.07758323
227	0xbbd74865	-0.0065699094
228	0xbdad9a5d	-0.08476708
229	0x3ba97bab	0.005172213
230	0x3ce77e4b	0.028258463
231	0x3d4e38f5	0.050347287
232	0x3e0f6f9c	0.1400742
233	0x3db60333	0.08887329
234	0x3d55ba51	0.05217964
235	0xbd10035e	-0.03515946
236	0xbd9c27d4	-0.07624784
237	0xbd1e9f41	-0.038726095
238	0x3d741972	0.05959458
239	0x3bc1b872	0.00591188
240	0xbe1ef4b8	-0.1552304
241	0x3d2ae0a6	0.041718148
242	0x3d6dc5d8	0.058050007
243	0x3c38ad4c	0.011271786
244	0xbc4e742a	-0.012600938
245	0xbd5d75b4	-0.05406733
246	0xbce0a5da	-0.027422834
247	0x3e21f6d5	0.15816815
248	0xbb95510a	-0.0045567797
249	0xbd6fcbba	-0.0585439
250	0x3ded9089	0.115998335
251	0xbd838457	-0.06421726
252	0xbd6945fa	-0.0569515
253	0x3df5a0aa	0.11993535
254	0x3de1b543	0.11020901
255	0xbe1b02ac	-0.15137738

conv3.bias f4 [30]
0	0xbd85615e	-0.06512712
1	0xbbf8f46c	-0.0075974967
2	0x3e1d08aa	0.15335336
3	0xbe1bea7b	-0.15226166
4	0xbe18ed80	-0.14934349
5	0x3babb5ae	0.0052401638
6	0x3cfe284b	0.031025073
7	0xbe3211da	-0.17389622
8	0x3d48f682	0.049063213
9	0x3e038216	0.12842593
10	0x3d01d1c0	0.031694174
11	0xbd8c9404	-0.06864169
12	0x3e143fb0	0.1447742
13	0xbe26dea5	-0.1629587
14	0x3e075fad	0.13220091
15	0xbe3f5789	-0.18685736
16	0x3e71cc86	0.23613176
17	0x3d2cf728	0.042227894
18	0xbbda785f	-0.0066671814
19	0xbcda7371	-0.026666375
20	0x3e22a8f3	0.15884762
21	0x3e627c64	0.22117764
22	0xbe2111ac	-0.15729398
23	0x3e86103f	0.2618427
24	0xbd826ccf	-0.0636841
25	0xbc3212ac	-0.01086871
26	0xbdae611d	-0.08514617
27	0x3e50b3fa	0.20381156
28	0xbdc25d6e	-0.094904765
29	0xbe0a8ae5	-0.13529547

conv4.weight f4 [60, 30, 3, 3]
0	0x3d299f15	0.041411478
1	0x3cea3c53	0.028593218
2	0xbcd1b15d	-0.025597269
3	0x3ca3b98c	0.019985937
4	0x3ce865ba	0.02836882
5	0x3d25d308	0.04048446
6	0xbd5030a9	-0.050827656
7	0xbd5050d4	-0.050858334
8	0x3d1e6fef	0.038680967
9	0xbb4098c8	-0.002938794
10	0x3c2aee5a	0.010432804
11	0xbd600d85	-0.054700393
12	0xbcca3a4c	-0.024686001
13	0x3d285472	0.04109616
14	0xbcb4d81b	-0.022075703
15	0xbbc4bc27	-0.006003875
16	0xbd52bff8	-0.051452607
17	0xbd20f5b6	-0.03929683
18	0xbb68db53	-0.0035531118
19	0x3d1d9f2e	0.038481884
20	0xba0b3967	-0.0005310983
21	0xbd14c14a	-0.036317147
22	0x3d067127	0.032822754
23	0x3d201208	0.039079696
24	0x3a05dbbb	0.000510629
25	0xbd18d67a	-0.037313916
26	0xbd0d5f7e	-0.034514897
27	0xba77991e	-0.00094451185
28	0xbd56b0e2	-0.052414782
29	0x3ba611fc	0.005068062
30	0xba18f872	-0.0005835361
31	0x3c7801b7	0.015137128
32	0xbd8cb6d7	-0.068708114
33	0x3cab62cc	0.020921133
34	0xbb769112	-0.003762309
35	0xbd1f8e15	-0.03895386
36	0x3d1938ab	0.03740756
37	0x3cd8a78e	0.026447084
38	0xbc89fed1	-0.016845139
39	0xbc01b956	-0.007917723
40	0xbd753551	-0.0598653
41	0xbbe2cf82	-0.0069217095
42	0xbd2e0127	-0.042481568
43	0xbcb6b065	-0.022300908
44	0xbd012c06	-0.031536125
45	0xbd2f651d	-0.04282104
46	0xbd1204d1	-0.035649125
47	0xbd34130c	-0.043963477
48	0xbd54f555	-0.05199178
49	0xbd5ee0e9	-0.05441371
50	0x3c0028c3	0.007822218
51	0xbd22801b	-0.039672952
52	0xbd0f5f7c	-0.03500317
53	0xbcb5ce20	-0.022193015
54	0x3b304ef7	0.0026902535
55	0xbc18781d	-0.009305981
56	0xbd901e99	-0.07037086
57	0x3d40d0ab	0.047074
58	0x3b186c8a	0.0023258054
59	0x3d080614	0.03320892
60	0xbd81be22	-0.06335093
61	0xbc6d2040	-0.014473021
62	0xbd672c8d	-0.05643897
63	0xbceeab08	-0.029134288
64	0xbcdc5523	-0.026896065
65	0xbcdd5516	-0.027018111
66	0xbadf6f71	-0.0017046762
67	0xbd9447f6	-0.07240288
68	0xbc978ae7	-0.018498851
69	0xbd0fbdf9	-0.03509328
70	0xbd3baf0d	-0.04582124
71	0x3c35bc65	0.01109228
72	0xbcc1dcc1	-0.023664834
73	0x3acd86eb	0.0015680467
74	0xbd072930	-0.032998264
75	0x3d3efcf8	0.04662797
76	0x3d0f2821	0.03495038
77	0x3ad81933	0.0016487002
78	0xbd56c3db	-0.052432876
79	0x3d49b478	0.049244374
80	0xbc017c83	-0.007903221
81	0xbd5636b5	-0.052298266
82	0xbb5ef0f2	-0.0034018126
83	0xbcdcbf3b	-0.026946655
84	0xbb0560c6	-0.002035187
85	0xbd4ccba9	-0.049998913
86	0xbd2c8c90	-0.04212624
87	0x3d2ff8ef	0.04296201
88	0x3d17b6e2	0.037039645
89	0xbc716fe8	-0.014736153
90	0xbcd58934	-0.0260664
91	0xbd698b57	-0.05701765
92	0xbc1f5bfe	-0.0097265225
93	0xbcb19fab	-0.021682581
94	0xbcafb424	-0.021448202
95	0xbbfb6f9c	-0.007673217
96	0x3c693ee1	0.014236183
97	0x3cd07209	0.025445001
98	0x3ced765f	0.028987108
99	0x3d468334	0.04846497
100	0x3c20991d	0.00980213
101	0xbce3d836	-0.027813058
102	0xbcbe2778	-0.02321218
103	0xbbb5956a	-0.005541493
104	0xbd3702fe	-0.044680588
105	0x3b4d2087	0.0031299905
106	0x3d1a3ddd	0.037656654
107	0xbc549d8c	-0.012977015
108	0x3cebd32b	0.028787216
109	0xbc987264	-0.018609233
110	0xbd5c4f04	-0.053786293
111	0x395c645f	0.00021018226
112	0xbd03d2f9	-0.03218362
113	0xbd3ddde1	-0.04635418
114	0xbd5c129c	-0.053728685
115	0xbd3da748	-0.04630211
116	0x3d68a782	0.056800373
117	0xbc3f4cfe	-0.011676071
118	0xbc5f399a	-0.013624573
119	0x3ceb43a2	0.028718773
120	0xbd28e876	-0.041237317
121	0xbd1536a5	-0.036429066
122	0x3cf61b0a	0.03004219
123	0xbc8ad660	-0.016947925
124	0xbc38dabd	-0.01128262
125	0xbbf5b39a	-0.007498217
126	0xbd895a7e	-0.06706713
127	0xbcb919ba	-0.022595275
128	0xbd86a31e	-0.06574081
129	0x3d027c87	0.03185704
130	0xbd3bf035	-0.045883376
131	0xbcfe418c	-0.031037115
132	0x3c6d1b62	0.014471861
133	0xbd847bf0	-0.06468952
134	0x3cae2959	0.02125995
135	0xbd2a5a8f	-0.04159027
136	0x3d1405ac	0.03613822
137	0xbc523bc9	-0.012831637
138	0xbd30fe6a	-0.04321138
139	0xbd786a9a	-0.06064854
140	0xbd6e3472	-0.058155484
141	0x3d0be422	0.03415311
142	0xbc836dc1	-0.016043546
143	0xbd2583ba	-0.040408827
144	0xbd34b489	-0.044117484
145	0x3c60a481	0.013711096
146	0xbd61df2c	-0.055144474
147	0x3c779ba4	0.015112791
148	0xbd2dc3ed	-0.042423178
149	0xbd476760	-0.04868257
150	0x3c8b39ee	0.016995396
151	0x3baee2a7	0.0053370777
152	0x3cc54196	0.024079125
153	0x3d0f3a74	0.034967855
154	0xbc518a94	-0.012789387
155	0xbc625fc0	-0.013816774
156	0xbca58a65	-0.020207593
157	0xbc907856	-0.017635506
158	0xbd8304d1	-0.06397403
159	0x3d5942df	0.05304229
160	0xbd375831	-0.04476184
161	0x3c27786f	0.010221585
162	0xbc8b4595	-0.017000953
163	0xbd41426d	-0.04718249
164	0xbbc2af85	-0.0059413337
165	0x3d1edaec	0.038783
166	0xbd681416	-0.05665978
167	0x3bd4651d	0.00648178
168	0x3d36e4b7	0.044651713
169	0xbc9b6c53	-0.018972551
170	0xbd20ba54	-0.039240196
171	0xbd2b7a94	-0.041864946
172	0x3d401e69	0.046904
173	0x3ca140f7	0.019684298
174	0xbd9310c2	-0.07180931
175	0xbcc09f49	-0.023513453
176	0xbd1d5be3	-0.038417708
177	0xbd6a6402	-0.05722428
178	0x3c731eae	0.014838858
179	0xbcac596b	-0.021038732
180	0xbd7e5b92	-0.062099047
181	0x3cda64cd	0.026659394
182	0x3bfe9de5	0.0077702873
183	0xbd3ed03a	-0.0465853
184	0xbd284259	-0.0410789
185	0xbd8cf80a	-0.06883247
186	0xbd761c3d	-0.060085524
187	0xbd380a63	-0.04493178
188	0x3d079590	0.03310162
189	0x3d192ef0	0.03739828
190	0xbd52390a	-0.051323928
191	0xbc852c25	-0.016256401
192	0xbd12e623	-0.035864007
193	0xbb9d683a	-0.0048036845
194	0xbccfa458	-0.02534692
195	0x3d27ac96	0.040936075
196	0x3d026dd4	0.03184302
197	0xbd50f9d4	-0.051019505
198	0x3d3036ba	0.04302094
199	0x3ccfc792	0.025363717
200	0xbd075f7e	-0.033050053
201	0x3c6d6ad1	0.014490799
202	0xbd96d8d5	-0.07365576
203	0x3b65c91e	0.0035062502
204	0x3cdf7ef0	0.027282208
205	0xbc948705	-0.018130789
206	0x3d4af787	0.049552467
207	0xbc440edb	-0.011966432
208	0x3ca8cfab	0.020606836
209	0x3baa84d1	0.005203821
210	0xbb905a0e	-0.0044052666
211	0xbd7fec91	-0.062481467
212	0x3d3cda2b	0.0461065
213	0xbd37bbbb	-0.044856768
214	0xbd67e1ad	-0.056611706
215	0xbd7ecc9b	-0.062206846
216	0xbd589655	-0.052877743
217	0xbd785846	-0.06063106
218	0x3d3ac24f	0.045595463
219	0x3cf80a4a	0.030278344
220	0xbd6c17b5	-0.057639796
221	0x3c9086e9	0.017642455
222	0xbd3d5e4f	-0.046232518
223	0x3cff7b9e	0.031186875
224	0xbd32a2e0	-0.04361236
225	0x3bf3e2de	0.007442816
226	0xbd5ef91e	-0.054436795
227	0x3d3398aa	0.043846764
228	0x3d295d5a	0.041348793
229	0xbd3164c6	-0.043308996
230	0x3d04ffe4	0.0324706
231	0xbd94becb	-0.07262953
232	0xbb0fef81	-0.0021962824
233	0xbcd9035e	-0.026490863
234	0xbd5d157c	-0.053975567
235	0x3cea76dc	0.02862113
236	0xbd8cae64	-0.068692
237	0xbcc372af	-0.023858396
238	0x3cd6a3a0	0.02620107
239	0xbc82ef0f	-0.015983133
240	0xbc242cf0	-0.01002048
241	0xbd5eb6b0	-0.054373443
242	0xbbffa5cb	-0.0078017465
243	0x3d573c28	0.052547604
244	0xbd817430	-0.06320989
245	0xbd51b216	-0.051195227
246	0x3d12f40b	0.03587727
247	0xbd404386	-0.046939395
248	0xbc7d0a68	-0.015444376
249	0xbd2ec3cf	-0.042667206
250	0xbd8cf5dd	-0.06882832
251	0xbcdbd425	-0.026834557
252	0x3d4ecd61	0.050488833
253	0x3c7d5081	0.015461088
254	0xbd4a39c6	-0.049371503
255	0xbd1ce1f1	-0.038301412

conv4.bias f4 [60]
0	0xbd41f75a	-0.047355033
1	0x3c09a65d	0.0084014805
2	0xbcf72629	-0.030169563
3	0xbbe280d5	-0.0069123306
4	0x3c1ed947	0.009695358
5	0xbbc31d12	-0.005954393
6	0xbe1d0524	-0.15333992
7	0xb9922f42	-0.000278825
8	0xbdaab641	-0.083355434
9	0x3a8866f9	0.0010406665
10	0xbe148345	-0.145032
11	0x3dc6bdcd	0.097041704
12	0xbde05b59	-0.10954923
13	0x3c8c4268	0.017121509
14	0xbcf15f20	-0.029464304
15	0xbd97b15f	-0.07406878
16	0xbbbfa0a7	-0.0058480087
17	0xbd0455ba	-0.032308318
18	0x3d22d7cd	0.039756585
19	0xbddce457	-0.1078574
20	0xbd31f680	-0.04344797
21	0x3d730c98	0.059338182
22	0x3d897ebc	0.06713626
23	0xbde4e36c	-0.1117619
24	0xbdb20cf9	-0.086938806
25	0xbc60ad3c	-0.013713177
26	0x3d3558fc	0.044274315
27	0x3cd719c0	0.026257396
28	0xbd9bf5b8	-0.076152265
29	0x3caa53ee	0.020791974
30	0xbd7d8a2d	-0.061899353
31	0xbda9a924	-0.08284214
32	0xbcb0b82a	-0.021572191
33	0x3d33d0de	0.043900363
34	0xbd53b7f7	-0.051689114
35	0xbde4c96b	-0.1117123
36	0xbdf556ad	-0.11979423
37	0xbcd876d1	-0.026423844
38	0xbd3725a8	-0.044713646
39	0xbd162299	-0.03665409
40	0xbde0f7c7	-0.1098476
41	0x3ddb9940	0.107225895
42	0xbd831258	-0.06399983
43	0xbca46f3b	-0.02007257
44	0x3cb75d91	0.022383483
45	0x3d705345	0.058673162
46	0x3c7d371f	0.015455036
47	0x3d73cbb8	0.059520453
48	0x3dc811a9	0.097689934
49	0xbc809d36	-0.015699964
50	0xbdc4e38b	-0.09613713
51	0xbe15ebd5	-0.14640744
52	0xbdd4589e	-0.10368465
53	0xbc4f44ac	-0.01265065
54	0xbd1d5a1e	-0.03841602
55	0xbd0f5c66	-0.035000227
56	0xbd70bbd7	-0.058772888
57	0xbde969d9	-0.11397142
58	0xbd0d6acc	-0.034525678
59	0x3c45333e	0.012036143

fc1.weight f4 [50, 60]
0	0x3d545de7	0.051847365
1	0xbda53abd	-0.08067844
2	0x3e9a6ead	0.30162564
3	0x3da3df9a	0.08001633
4	0x3e881c21	0.2658396
5	0xbe2c02d9	-0.16797961
6	0x3df8ca00	0.121479034
7	0xbe834873	-0.25641212
8	0xbe8d200c	-0.27563512
9	0xbdb3cbf5	-0.08779136
10	0x3d91af77	0.071135454
11	0x3dfc6728	0.12324363
12	0x3e911b06	0.2834093
13	0xbe326e3d	-0.17424865
14	0x3e6a822f	0.22901224
15	0x3e78efd9	0.24310245
16	0xbe67dbaf	-0.22642396
17	0x3d95323c	0.07284972
18	0xbc0a190d	-0.008428824
19	0x3e3a9cfe	0.1822395
20	0x3c225944	0.009908978
21	0xbe0eca1d	-0.13944288
22	0xbe053c29	-0.1301123
23	0xbd1713e7	-0.036884215
24	0x3e963c99	0.29343107
25	0x3e9c22b9	0.3049524
26	0x3dee7f94	0.11645427
27	0x3e9529ee	0.29133552
28	0xbdbe97e8	-0.093063176
29	0xbe366420	-0.17811632
30	0x3ce06aa0	0.027394593
31	0xbc3229dc	-0.010874238
32	0xbe21ff7b	-0.15820114
33	0x3d616317	0.05502614
34	0xbe44f905	-0.19235618
35	0xbd2702e6	-0.04077425
36	0x3e2b59fd	0.16733547
37	0xbe379eff	-0.17931746
38	0x3e328e77	0.17437159
39	0x3d7101ec	0.058839723
40	0x3dcb1351	0.09915794
41	0x3d6aa47e	0.05728578
42	0x3e9712ff	0.2950668
43	0xbe6759f4	-0.22592908
44	0x3e88c08d	0.26709405
45	0xbdb95f9d	-0.0905144
46	0x3e89ef9e	0.26940626
47	0x3e8b5d5b	0.27219662
48	0x3c29314b	0.010326694
49	0xbdf9a1cb	-0.12189063
50	0xbe5bc866	-0.21463165
51	0x3b8c57f6	0.0042829467
52	0xbd427c4d	-0.047481824
53	0x3c962e3c	0.018332593
54	0xbd66f4dc	-0.05638586
55	0x3d6505a6	0.05591359
56	0xbd89d8e4	-0.06730822
57	0x3dd8a454	0.10578218
58	0x3b5a9989	0.0033355674
59	0xbd11d82f	-0.03560656
60	0x3dd232b7	0.10263579
61	0x3e64e568	0.22353137
62	0x3d31ddd9	0.04342446
63	0x3e60a7a6	0.21938953
64	0x3e823fa3	0.25439176
65	0xbe0e5cc0	-0.13902569
66	0xbe4a5c50	-0.19761777
67	0xbe877e18	-0.2646339
68	0xbe5df27d	-0.21674533
69	0xbcaf066f	-0.021365372
70	0xbe913ac3	-0.28365144
71	0x3e30aad0	0.1725266
72	0xbe3895ad	-0.18025847
73	0xbe283597	-0.16426693
74	0x3df866d7	0.1212899
75	0x3dd32084	0.10308936
76	0xbea12d68	-0.31479955
77	0x3c90fb8b	0.01769807
78	0x3d542719	0.0517951
79	0xbc13a2c2	-0.009010972
80	0x3c41df1b	0.011832978
81	0x3dfcd688	0.12345606
82	0x3e019040	0.12652683
83	0xbe3d7aa8	-0.18503821
84	0xbdb5ac12	-0.088707104
85	0x3e0d06c1	0.13772108
86	0x3e695bc2	0.22788909
87	0x3dac0ccf	0.084008805
88	0x3a97b133	0.0011573195
89	0xbe327ee3	-0.17431216
90	0xbe4aa530	-0.19789577
91	0xbe776eb1	-0.24163319
92	0xbb3219d8	-0.0027176049
93	0x3e0cf04d	0.13763542
94	0xbe3dc14d	-0.1853077
95	0xbea8f102	-0.32996374
96	0xbe4c661e	-0.1996083
97	0xbd5db9fa	-0.05413244
98	0xbdc543fb	-0.09632107
99	0x3d0bd208	0.03413585
100	0xbe9ef54b	-0.3104652
101	0x3e03d13d	0.12872787
102	0x3dbcc839	0.09217877
103	0xbe5a618a	-0.2132627
104	0x3e3d75e7	0.18502007
105	0xbd912957	-0.07087963
106	0x3d964743	0.07337811
107	0x3d54c272	0.05194325
108	0x3d8aecbd	0.067834355
109	0xbe5be63d	-0.21474548
110	0xbdb02bdc	-0.086021155
111	0xbe889aed	-0.266807
112	0xbe900272	-0.28126866
113	0x3cb804b2	0.022463176
114	0x3d1cb5aa	0.038259186
115	0xbda025aa	-0.07819684
116	0x3c4eda1a	0.012625242
117	0xbdb9f16a	-0.09079249
118	0xbe64aa1f	-0.22330521
119	0xb91f0db1	-0.00015168522
120	0x3dc94a04	0.098285705
121	0xbd68d007	-0.056839015
122	0xbc1578b8	-0.00912302
123	0x3e4832d2	0.19550636
124	0x3e8542ea	0.26027614
125	0xbe6c2d17	-0.23064075
126	0xbd2b9ac5	-0.041895647
127	0xbcad95c6	-0.021189582
128	0xbe4fb8d5	-0.20285352
129	0x3da3bdba	0.07995172
130	0xbdd08399	-0.1018135
131	0x3dfadec8	0.122495234
132	0xbd73fdcd	-0.059568215
133	0xbe4d09d0	-0.20023274
134	0x3e4c2b1e	0.19938323
135	0xbd011e92	-0.031523295
136	0xbe08f857	-0.13375984
137	0x3e0b0797	0.13577114
138	0x3e28e2ca	0.16492763
139	0xbd4c504c	-0.049881265
140	0xbde65c48	-0.1124807
141	0xbbd5ac1a	-0.0065207602
142	0x3cb76db5	0.02239118
143	0xbd82597c	-0.06364724
144	0x3d4fcf21	0.050734643
145	0x3e703b97	0.23460232
146	0x3e78b143	0.2428637
147	0x3dd00542	0.10157253
148	0x3d81e36d	0.06342206
149	0xbe1af324	-0.15131813
150	0xbe1607e2	-0.14651445
151	0xbe642593	-0.22279958
152	0xbda2fe26	-0.07958631
153	0x3e765462	0.24055627
154	0xbde066e4	-0.10957125
155	0xbd57236c	-0.052524015
156	0xbd0aa469	-0.0338482
157	0xbcca22c1	-0.024674775
158	0xbe256dab	-0.16155116
159	0x3deb5b1f	0.11491989
160	0xbd8c468d	-0.06849394
161	0x3c708c77	0.014681927
162	0x3ce03e7b	0.027373543
163	0xbe1a5887	-0.15072833
164	0x3de7660b	0.1129876
165	0xbcf1d8fb	-0.02952241
166	0xbc735a32	-0.014853047
167	0xbbf10ab3	-0.007356012
168	0x3d5ee41c	0.05441676
169	0xbdebd8cc	-0.1151596
170	0xbdd2e846	-0.10298209
171	0xbdb5ccb7	-0.08876937
172	0xbd9cc75e	-0.07655214
173	0x3df95514	0.121744305
174	0x3deaf5f2	0.114726916
175	0x3d32256b	0.043492716
176	0xbde84fae	-0.11343323
177	0x3be543ae	0.0069965934
178	0xbe5836cb	-0.21114652
179	0xbd8f551c	-0.06998655
180	0xbd9b7912	-0.07591452
181	0xbdf7e825	-0.12104825
182	0xbd407f02	-0.046996124
183	0xbe359190	-0.17731309
184	0xbd6fa926	-0.058510922
185	0x3d42942a	0.04750458
186	0x3ea004e1	0.31253722
187	0x3cced60c	0.02524855
188	0x3d1a00f8	0.03759858
189	0xbe3257ff	-0.1741638
190	0x3e23d4e0	0.15999174
191	0xbd3f752e	-0.04674261
192	0x3e158993	0.14603262
193	0xbc6e916e	-0.01456104
194	0x3d76cb35	0.060252387
195	0x3e306546	0.17226133
196	0x3c363898	0.011121891
197	0xbcb76ad2	-0.022389803
198	0xbde8deec	-0.11370644
199	0x3e40cbb4	0.18827707
200	0xbcc60a9a	-0.024174977
201	0xbda31a8a	-0.07964046
202	0x3d7d3039	0.061813567
203	0x3e2db127	0.1696211
204	0x3d89ba05	0.067249335
205	0xbe0d19c0	-0.13779354
206	0xbd9f008e	-0.07763778
207	0xbd21c959	-0.03949866
208	0x3de1eecf	0.11031877
209	0xbd679325	-0.056536812
210	0x3e56111c	0.20904964
211	0x3e2de044	0.16980082
212	0x3e014e10	0.12627435
213	0xbe14eca4	-0.14543396
214	0x3dd468c9	0.10371549
215	0x3d89c5f7	0.06727212
216	0x3de4a462	0.11164166
217	0xbaa951ff	-0.0012918113
218	0x3e630559	0.22170009
219	0x3dfe1ea1	0.12408186
220	0x3e25f52c	0.16206807
221	0xbdbb1aa3	-0.0913594
222	0xbb819fde	-0.003955825
223	0x3e10f7fa	0.14157096
224	0x3c3ac380	0.01139915
225	0xbd09318d	-0.03349452
226	0x3c97133d	0.01844179
227	0xbd0ea36a	-0.034823813
228	0x3d88adbf	0.066737644
229	0x3e97678c	0.29571187
230	0xbd29e07b	-0.041473847
231	0x3d959656	0.07304065
232	0x3de82351	0.11334861
233	0xbddb180f	-0.10697948
234	0xbcfce138	-0.030869111
235	0xbd63bec5	-0.055601854
236	0x3d622338	0.05520937
237	0xbd2c8267	-0.04211655
238	0x3e55461f	0.2082753
239	0xbd305945	-0.043053884
240	0x3de02d5a	0.1094615
241	0x3e2f258e	0.1710417
242	0x3d8bc679	0.06824965
243	0x3e2320fc	0.15930551
244	0x3e151e1a	0.14562264
245	0xbe83147e	-0.25601572
246	0xbe806a5c	-0.25081146
247	0xbe501023	-0.20318656
248	0xbe75a41c	-0.23988384
249	0xbc89fe14	-0.016844787
250	0xbe54a7ef	-0.20767187
251	0x3da30941	0.079607494
252	0xbdd5d744	-0.10441449
253	0xbe1d41cb	-0.1535713
254	0x3e585b5a	0.21128598
255	0xbb212080	-0.0024586022

fc1.bias f4 [50]
0	0x3e138fce	0.14410326
1	0x3e5426db	0.20717947
2	0x3d823f50	0.06359732
3	0x3c92356a	0.017847735
4	0x3e259cec	0.16173142
5	0x3e1e6ea6	0.15471897
6	0x3e5233ce	0.20527574
7	0x3be3a51f	0.006947174
8	0x3df5d8a5	0.12004212
9	0x3d888f83	0.06667998
10	0x3e0cda24	0.13755089
11	0xbd1102d3	-0.035403084
12	0x3e1a0eb9	0.15044679
13	0x3ceea9f0	0.029133767
14	0x3dee341e	0.11631034
15	0x3d90ddec	0.07073578
16	0x3e14c54c	0.14528388
17	0x3e3bfd76	0.18358406
18	0x3e0205d1	0.12697531
19	0x3dce79c3	0.10081818
20	0x3d82534c	0.06363544
21	0xbb92bfc9	-0.004478429
22	0x3e625987	0.22104464
23	0x3e0be613	0.13661985
24	0x3c7695eb	0.015050392
25	0x3e0c90a5	0.13727053
26	0x3d76c21d	0.060243715
27	0x3dc0d8b9	0.094163366
28	0x3d522a72	0.05131001
29	0x3e478603	0.19484715
30	0x3dcb1834	0.09916726
31	0x3c4dab3a	0.012553031
32	0x3d376ebf	0.04478335
33	0x3dda518d	0.10660086
34	0xbd1457ce	-0.03621655
35	0x3af7207f	0.0018854289
36	0x3dbdb348	0.09262711
37	0x3e59a2ed	0.21253558
38	0x3e3c7d9a	0.18407288
39	0x3d84f30d	0.06491671
40	0x3e8712bb	0.26381478
41	0x3e0ea3a7	0.13929616
42	0x3de4ccfb	0.111719094
43	0x3e4866cb	0.19570462
44	0x3dc1ef13	0.09469428
45	0x3e10644c	0.1410076
46	0x3ceb5f65	0.028732011
47	0x3cb62961	0.022236528
48	0xbc429631	-0.011876629
49	0x3c4a3101	0.012340785

fc2.weight f4 [3, 50]
0	0xbec712a6	-0.38881415
1	0xbe32454c	-0.17409247
2	0xbd9de346	-0.077093646
3	0x3bb2c2cf	0.005455352
4	0xbe6f98a4	-0.23398072
5	0x3e5fd3b3	0.218581
6	0xbd8688f5	-0.06569091
7	0x3c2b8f0f	0.01047112
8	0x3e98b26c	0.29823625
9	0xbed12d67	-0.40854952
10	0x3ebee400	0.37283325
11	0xbdbde640	-0.09272432
12	0xbe9dcab4	-0.30818713
13	0x3e60ab7a	0.21940413
14	0x3d78fccf	0.060787972
15	0xbe814cf3	-0.2525402
16	0x3e6f47ff	0.23367308
17	0x3ebc3fcc	0.36767423
18	0x3db1aec9	0.08675916
19	0xbe522805	-0.20523079
20	0x3eaba465	0.3352386
21	0xbe26a211	-0.16272761
22	0x3e4ec563	0.20192485
23	0xbee53683	-0.44768152
24	0xbe9d17ad	-0.30682126
25	0xbefff927	-0.49994776
26	0xbecc73be	-0.39932054
27	0xbf068945	-0.52553207
28	0xbe79e063	-0.24402003
29	0x3dd9d1b3	0.106357
30	0x3e0ea354	0.13929492
31	0xbe6453d0	-0.22297597
32	0xbe95b87f	-0.29242322
33	0x3e23afd5	0.15985043
34	0xbcba640c	-0.022752784
35	0x3e5adfaf	0.21374391
36	0xbd2024fa	-0.039097764
37	0x3db86b93	0.09004893
38	0xbe2ff3ce	-0.17182848
39	0x3ea56fee	0.32311958
40	0x3e39f88e	0.18161222
41	0x3ecd5767	0.40105745
42	0xbed2d5de	-0.41178793
43	0xbdade1be	-0.084903225
44	0x3eaa5c34	0.3327347
45	0x3e3da58a	0.1852018
46	0x3e1710b5	0.14752467
47	0xbe5b37dc	-0.21408027
48	0xbe602575	-0.21889289
49	0xbd4dad94	-0.050214365
50	0x3e18df9c	0.1492905
51	0xbec64402	-0.3872376
52	0xbe973d82	-0.29539114
53	0x3e6e1eb4	0.232539
54	0xbe8623cc	-0.26199186
55	0x3cf270fc	0.02959489
56	0xbee3cc44	-0.4449178
57	0x3e7b10b2	0.24518088
58	0xbe62d3ac	-0.22151059
59	0x3e660c8a	0.22465721
60	0xbe276fa5	-0.16351183
61	0x3e98548a	0.29751998
62	0xbc1706ae	-0.009217901
63	0x3e5bd012	0.21466091
64	0xbf10a3e4	-0.5650008
65	0x3e5475fe	0.20748135
66	0xbee18d23	-0.4405299
67	0xbec6d5e2	-0.38835055
68	0xbf0481b0	-0.5176039
69	0xbe996449	-0.29959324
70	0xbe274eeb	-0.16338699
71	0x3ea59000	0.32336426
72	0xbef86a18	-0.48518443
73	0x3e508d63	0.20366435
74	0x3e81f391	0.2538114
75	0x3e2bc81d	0.16775556
76	0x3e84364a	0.2582267
77	0x3e580bdf	0.21098278
78	0xbe990ecd	-0.29894105
79	0xbf0b9f99	-0.545404
80	0xbf03640c	-0.51324534
81	0x3e3eed11	0.18645121
82	0xbdabeca1	-0.08394743
83	0x3e0d83f3	0.13819866
84	0x3e948250	0.2900567
85	0x3e1305a6	0.14357623
86	0x3d742c06	0.059612297
87	0xbf0294ab	-0.510081
88	0xbedfa050	-0.43676996
89	0xbee2340c	-0.44180334
90	0xbf15b10c	-0.5847328
91	0xbe072d26	-0.13200817
92	0x3e368d46	0.17827329
93	0xbeacb5f6	-0.33732575
94	0xbed340f8	-0.41260505
95	0xbeffb8f1	-0.49945787
96	0x3e5b12d3	0.213939
97	0xbe649e7e	-0.22326085
98	0x3e8a66b0	0.2703147
99	0x3c69147f	0.014226078
100	0x3dd49389	0.103797026
101	0x3e965b30	0.29366446
102	0x3e87cdd9	0.26524237
103	0xbe95b469	-0.29239205
104	0x3e9fff30	0.3124938
105	0xbeaa3275	-0.3324162
106	0x3e6b23f1	0.2296293
107	0xbe26b5d7	-0.16280304
108	0xbe9b5873	-0.3034092
109	0x3d861611	0.065471776
110	0xbea223e3	-0.31668004
111	0xbe0b8765	-0.13625868
112	0x3ebc5d36	0.36789864
113	0xbec5d5e2	-0.38639742
114	0x3d66d087	0.05635121
115	0xbd95e203	-0.07318499
116	0x3db08999	0.08619995
117	0xbe0a9575	-0.13533576
118	0x3d9bd97c	0.07609841
119	0x3ecb2fb7	0.3968484
120	0xbe6e4092	-0.23266819
121	0xbe5497ad	-0.20760985
122	0x3e317cf1	0.17332818
123	0x3e5d8253	0.21631746
124	0x3e7bea25	0.24601038
125	0x3daedb29	0.08537895
126	0x3e7087e0	0.23489332
127	0x3e34d688	0.17659962
128	0x3edb7655	0.42863718
129	0x3debc2df	0.11511778
130	0xbe2503d1	-0.16114737
131	0xbe7a9f1d	-0.2447476
132	0x3ebe3504	0.37149823
133	0xbee4d7e5	-0.44695964
134	0xbe7e20db	-0.24817221
135	0xbed55504	-0.41666424
136	0xbee36820	-0.4441538
137	0x3e3e2fc9	0.18572916
138	0x3eab3aec	0.3344339
139	0xbe35e53d	-0.17763229
140	0x3e12c9fc	0.14334863
141	0xbead4c0d	-0.33847085
142	0x3e1e746b	0.15474097
143	0x3ebe9a70	0.372272
144	0xbdcc7004	-0.09982303
145	0x3e15b32a	0.14619127
146	0xbeb79ca6	-0.358617
147	0x3d672475	0.056431253
148	0xbd6efc33	-0.058345985
149	0xbeba36a1	-0.36369804

fc2.bias f4 [3]
0	0x3d0a35ef	0.03374284
1	0xbb6c0e93	-0.003601943
2	0xbda95ced	-0.08269677

exp_avg f4 [15, 3, 3, 3]
0	0x3d941b94	0.072318226
1	0x3d4b8d27	0.04969516
2	0x3c846d8f	0.016165523
3	0x3de52efb	0.111906014
4	0x3dc8a723	0.09797504
5	0x3d751dfd	0.059843052
6	0x3df51a89	0.11967952
7	0x3dd1c9bf	0.10243558
8	0x3d84eb18	0.06490153
9	0x3dd3e0bd	0.103456
10	0x3d9f27a8	0.07771236
11	0x3d27d22a	0.040971912
12	0x3e0d5bb1	0.13804509
13	0x3dfb2f17	0.12264841
14	0x3da9d52d	0.08292613
15	0x3e0e189c	0.13876575
16	0x3dfea070	0.12432945
17	0x3db24605	0.087047614
18	0x3e135df5	0.1439131
19	0x3df6d9f8	0.12053293
20	0x3da2e2e0	0.07953429
21	0x3e26bcac	0.1628291
22	0x3e1a6c4b	0.15080373
23	0x3de29bea	0.110648945
24	0x3e176372	0.14784029
25	0x3e0e5357	0.13898979
26	0x3dd9943b	0.10623976
27	0xbc267ea9	-0.010162034
28	0xbc17d25e	-0.009266464
29	0xbc32386a	-0.010877708
30	0xbc230b98	-0.009951495
31	0xbbb69042	-0.005571396
32	0xbc49c226	-0.012314355
33	0xbbcf957a	-0.0063349577
34	0xbafdd14e	-0.0019364746
35	0xbc3effe6	-0.011657691
36	0xbc5252eb	-0.012837152
37	0xbc4f6fa6	-0.012660896
38	0xbc7397ec	-0.014867764
39	0xbc2e50d7	-0.010639391
40	0xbbc811cc	-0.006105637
41	0xbc47526d	-0.012165648
42	0xbb8e819b	-0.0043489463
43	0x3a42815f	0.00074197905
44	0xbc07a275	-0.008278479
45	0xbc7d23ec	-0.015450459
46	0xbc7c8906	-0.015413528
47	0xbc96b6d8	-0.018397734
48	0xbc564e7f	-0.013080238
49	0xbbedeb17	-0.007260691
50	0xbc4f0a70	-0.012636766
51	0xbb28dd08	-0.002576651
52	0x3b5bfe15	0.0033568193
53	0xbb9b9494	-0.0047479365
54	0xbd0a6e1e	-0.033796422
55	0xbc8ec0c6	-0.017425906
56	0xbbf92107	-0.007602814
57	0xbcd9a049	-0.026565688
58	0xbc45326d	-0.012035948
59	0xbc0a8116	-0.008453628
60	0xbcb3112a	-0.02185877
61	0xbc622ccf	-0.0138046285
62	0xbc82499a	-0.015904237
63	0xbcf8cf5d	-0.030372316
64	0xbc800354	-0.015626587
65	0xbbc79880	-0.0060911775
66	0xbcc6ee06	-0.02428342
67	0xbc3f6d81	-0.011683823
68	0xbc0b1ec9	-0.0084912265
69	0xbca240a4	-0.019806214
70	0xbc56abaa	-0.013102451
71	0xbc785619	-0.015157246
72	0xbd1e4e48	-0.038648874
73	0xbce26436	-0.027635675
74	0xbcd3a1da	-0.025834013
75	0xbd3112c0	-0.043230772
76	0xbd0d6e7c	-0.034529194
77	0xbd1cd841	-0.038292173
78	0xbd31b096	-0.043381296
79	0xbd2ad5d6	-0.041707836
80	0xbd41d99f	-0.04732668
81	0xbc547a82	-0.012968661
82	0xbc5b3574	-0.013379443
83	0xbc5b6ae0	-0.01339218
84	0xbb68a735	-0.0035500054
85	0x3b1237e8	0.0022311155
86	0x3b3dcd8e	0.0028961631
87	0x3c5d566f	0.013509377
88	0x3ce8d026	0.028419565
89	0x3cd4ed87	0.025992168
90	0xbc6162ba	-0.013756448
91	0xbc3907f0	-0.011293396
92	0xbc3cde50	-0.011527613
93	0x39c1ef73	0.00036990232
94	0x3c2fff0a	0.010741958
95	0x3c48110c	0.012211096
96	0x3c9be6e7	0.019031001
97	0x3d16994a	0.03676728
98	0x3d0da8b7	0.034584727
99	0x3b6309f5	0.0034643386
100	0x3c191146	0.009342497
101	0x3c1afc20	0.009459525
102	0x3c96f25a	0.01842611
103	0x3d004e07	0.031324413
104	0x3d0aaf7f	0.033858772
105	0x3d0127b7	0.031532016
106	0x3d4a3672	0.04936833
107	0x3d45bdc6	0.048276685
108	0x3b966806	0.0045900373
109	0x3b628300	0.0034562945
110	0xbc17c1bc	-0.0092624985
111	0xbc3cfef2	-0.011535393
112	0xbc4623e0	-0.012093514
113	0xbccfd560	-0.0253703
114	0xbcc60e53	-0.024176752
115	0xbcdbdc86	-0.026838552
116	0xbd073fa6	-0.033019684
117	0x3bdbd29e	0.006708457
118	0x3b50eff3	0.0031881302
119	0xbc1caa53	-0.009562093
120	0xbb974041	-0.004615814
121	0xbbd3ad48	-0.0064598657
122	0xbca38188	-0.019959226
123	0xbc95e504	-0.01829768
124	0xbca2a195	-0.019852439
125	0xbccf7654	-0.025324978
126	0x3c65118d	0.013981235
127	0x3c23014f	0.009949042
128	0xbb894fae	-0.0041904068
129	0xb90aace6	-0.00013225115
130	0xba60b2d0	-0.0008571567
131	0xbc546c6b	-0.012965302
132	0xbc69c03f	-0.014267026
133	0xbc71098c	-0.014711749
134	0xbc8b4e45	-0.017005095
135	0x3d3dc573	0.04633088
136	0x3e00922f	0.12555765
137	0x3e2917c0	0.16512966
138	0x3e03508b	0.12823693
139	0x3e5789dc	0.21048683
140	0x3e671be8	0.22569239
141	0x3e26fb2a	0.16306749
142	0x3e58fc66	0.21190032
143	0x3e483bd1	0.19554068
144	0x3d9ba13a	0.07599111
145	0x3e1bcd48	0.15215027
146	0x3e43cca2	0.1912103
147	0x3e23caa9	0.15995277
148	0x3e723266	0.23652038
149	0x3e7b73bc	0.24555868
150	0x3e42d0ee	0.19025013
151	0x3e6de425	0.23231561
152	0x3e58c12d	0.2116744
153	0x3dfb43c3	0.12268784
154	0x3e460fcc	0.19341964
155	0x3e6381f8	0.22217548
156	0x3e42eab1	0.1903484
157	0x3e829c43	0.25509843
158	0x3e825844	0.25457966
159	0x3e4a7e6d	0.1977479
160	0x3e6d4783	0.23171811
161	0x3e53f930	0.20700526
162	0xbcd5d20c	-0.026101135
163	0xbbd059e1	-0.0063583707
164	0xba70d6e2	-0.00091872935
165	0xbcb92bcb	-0.02260389
166	0x3a1d2138	0.00059940247
167	0x3b7d3dfc	0.0038641682
168	0xbc984f58	-0.018592522
169	0x39834857	0.00025040164
170	0x3bb13625	0.005408066
171	0xbd30e2f8	-0.043185204
172	0xbcc11bb5	-0.023572782
173	0xbca62b05	-0.020284185
174	0xbd14974d	-0.036277104
175	0xbc557ae8	-0.013029791
176	0xbc2aeb09	-0.010432013
177	0xbcf6b1f5	-0.030114153
178	0xbc3bf671	-0.01147233
179	0xbbe308fc	-0.0069285613
180	0xbd852d4e	-0.06502782
181	0xbd4887d6	-0.04895767
182	0xbd3f6188	-0.046723872
183	0xbd68d555	-0.056844074
184	0xbd1b121c	-0.037859067
185	0xbd0fe0fb	-0.035126667
186	0xbd4de576	-0.05026766
187	0xbd0d4a09	-0.034494434
188	0xbcf14abb	-0.02945458
189	0x3b157de0	0.0022810623
190	0xbbbd5d0c	-0.0057789143
191	0xbc81a6f3	-0.015826678
192	0x3bf13d39	0.0073620346
193	0xbb0464dd	-0.002020172
194	0xbc7296de	-0.014806477
195	0x3ba6061c	0.0050666463
196	0x3b8dc11f	0.0043260003
197	0xbb2570d0	-0.0025244243
198	0xbb6139ec	-0.00343668
199	0xbc44c8aa	-0.012010733
200	0xbcad5d08	-0.021162525
201	0x3b8105b7	0.003937449
202	0xbb867454	-0.004103223
203	0xbc83b8ee	-0.016079392
204	0x3b2b29ff	0.002611756
205	0x3b2548dc	0.002522043
206	0xbb995543	-0.0046793534
207	0xbc8824b7	-0.01661907
208	0xbcbfcec8	-0.02341403
209	0xbcf837a8	-0.030299976
210	0xbc146fd9	-0.00905987
211	0xbc577be7	-0.013152099
212	0xbcaefbb9	-0.021360265
213	0xbc06d672	-0.008229839
214	0xbbd575a3	-0.0065142675
215	0xbc464951	-0.012102441
216	0xbc6e18a4	-0.014532242
217	0xbc69d598	-0.014272116
218	0xbc3e3de0	-0.011611432
219	0xbc185074	-0.009296525
220	0xbc2301da	-0.009949172
221	0xbc64c047	-0.013961858
222	0x3be1fb3d	0.006896405
223	0x3b70cf73	0.0036744743
224	0xbbb0e059	-0.005397838
225	0xbc67c458	-0.014145933
226	0xbc659d88	-0.014014609
227	0xbc24284c	-0.010019373
228	0xbc053af5	-0.008131732
229	0xbc09f9c1	-0.008421362
230	0xbc44ef78	-0.012019984
231	0x3c07d07f	0.008289455
232	0x3b9f61d4	0.004863957
233	0xbb7df9ee	-0.0038753706
234	0xbc841505	-0.016123304
235	0xbc9526f7	-0.018207056
236	0xbc7b5915	-0.015341063
237	0xbc3240c9	-0.010879704
238	0xbc456441	-0.012047828
239	0xbc81c541	-0.015841128
240	0x3b869d8f	0.004108138
241	0xb93e6477	-0.00018157238
242	0xbc0eb4f4	-0.008710135
243	0x3deacb5a	0.114645675
244	0x3e055223	0.13019614
245	0x3dff760c	0.124736875
246	0x3da97f05	0.0827618
247	0x3dd903c0	0.105964184
248	0x3dd86234	0.10565606
249	0x3d5cb980	0.053887844
250	0x3d9a9fab	0.075499855
251	0x3d944584	0.072398216
252	0x3e036be7	0.1283413
253	0x3e1538e6	0.14572486
254	0x3e0aa629	0.13539948
255	0x3db79317	0.08963602
